v1/bess_model_v6_fawkes.pt (torch, 138993 bytes, 63 tensors)

encoder_layers.0.weight f4 [128, 16]
0	0xbc26d023	-0.01018146
1	0x3e66cd7b	0.22539322
2	0x3c0a7048	0.0084496215
3	0x3e1d8804	0.15383917
4	0xbe50a072	-0.20373705
5	0xbc1f0eae	-0.00970809
6	0x3d44b732	0.04802627
7	0xbd9ad573	-0.075602435
8	0x3d97ae8e	0.074063405
9	0x3b4a9e9a	0.0030917288
10	0xbb859985	-0.004077139
11	0x3e005f6f	0.12536405
12	0xbd9f4381	-0.07776547
13	0x3e75d847	0.24008285
14	0x3de566cc	0.112012476
15	0x3c7f1dfc	0.015571114
16	0x386b1132	5.604438e-05
17	0xbe1a5b22	-0.15073827
18	0xb94e4494	-0.00019671238
19	0xbd558743	-0.05213095
20	0xbd0a7aca	-0.033808507
21	0x3bc8e0e4	0.0061303247
22	0x3b72d5ed	0.003705378
23	0xbb63d47e	-0.0034764106
24	0xbcbf8a8e	-0.023381498
25	0xb8314f6a	-4.227405e-05
26	0xbbe523cb	-0.0069927922
27	0x3ce788f1	0.028263541
28	0x3e7b852e	0.24562523
29	0x3e1c345f	0.15254353
30	0x3d17f053	0.037094425
31	0xbd9fe64e	-0.07807599
32	0x3962096e	0.00021556552
33	0x3dad1aef	0.08452403
34	0x39f01cb8	0.00045797764
35	0x3d043a91	0.032282416
36	0xbcdef283	-0.027215248
37	0xbbd9af43	-0.0066432073
38	0xbbb7b84a	-0.0056066858
39	0x3d041460	0.032245994
40	0xbb2301ff	-0.0024873016
41	0x3bcd00e1	0.0062562083
42	0xbb6e9aa7	-0.0036408098
43	0x3caa085b	0.020755937
44	0xbda88530	-0.082285285
45	0xbda2888c	-0.079362005
46	0x3f35ad83	0.7096788
47	0x3d74337b	0.059619408
48	0x3affcf9a	0.0019516826
49	0x3e9401c2	0.2890759
50	0xbb78127c	-0.0037852814
51	0xbbc5d98d	-0.006037897
52	0xbe01e743	-0.12685876
53	0xba897370	-0.0010486674
54	0x3c0b4c01	0.008502007
55	0x3de84e2e	0.113430366
56	0xbde1d83b	-0.11027571
57	0x3b9b54a1	0.004740313
58	0xbb21b479	-0.002467422
59	0xbb8fee24	-0.0043924022
60	0xbddb7e56	-0.10717456
61	0xbc2e864b	-0.010652135
62	0xbe7a2a10	-0.24430108
63	0x3de21867	0.11039811
64	0x3bb80e00	0.0056169033
65	0xbd89adeb	-0.06722625
66	0x3dc211a9	0.09476025
67	0x3de48f60	0.11160159
68	0xbd5f12e1	-0.054461364
69	0x3be95fce	0.0071220165
70	0xbc78a343	-0.015175643
71	0xbda6b969	-0.08140833
72	0x3dc22c44	0.09481099
73	0x3bcc3b8f	0.006232686
74	0x3be29899	0.0069151637
75	0x3e1e4c76	0.15458855
76	0x3d319d6a	0.043363012
77	0xbe78ba2a	-0.24289766
78	0xbd44b563	-0.048024546
79	0xbf4c6592	-0.79842484
80	0xbda60671	-0.08106697
81	0x3e3e0bcb	0.18559186
82	0xbceb632a	-0.028733809
83	0xbd9d6b17	-0.076864414
84	0xbd88ce8a	-0.06680019
85	0xbd3c416e	-0.045960836
86	0x3d8c2cc0	0.06844473
87	0x3d28f061	0.04124487
88	0x3ce748bb	0.028232923
89	0xbb9417d2	-0.004519441
90	0x3b9be255	0.0047572055
91	0xbdd9e88e	-0.106400594
92	0xbd9b5554	-0.075846344
93	0xbe5ba598	-0.21449888
94	0xbe462444	-0.19349772
95	0x3eb2cdcb	0.34922633
96	0xbb6e2923	-0.0036340437
97	0xbe85c173	-0.26124153
98	0x3b51d2dd	0.0032016553
99	0x3e160e7c	0.14653963
100	0x3e293518	0.1652416
101	0x3c069da2	0.0082162935
102	0x3c80cadb	0.015721729
103	0x3caebc0a	0.021329898
104	0xbc6824e9	-0.014168956
105	0xbaab7859	-0.0013082131
106	0x39a7fe8c	0.00032042374
107	0x3ae86363	0.0017729815
108	0xbdf18dbd	-0.117946126
109	0x3df7d7fd	0.12101743
110	0xbd2ded0b	-0.04246239
111	0xbe7cef97	-0.24700771
112	0xbc298ac0	-0.010348022
113	0x3d83b1a6	0.06430368
114	0x3ca6b6d7	0.020350857
115	0xbcd0e0b1	-0.025497766
116	0xbb9f5b0c	-0.0048631486
117	0x3c7e31df	0.01551482
118	0x3c204689	0.009782442
119	0xbd8b0259	-0.06787557
120	0x3db41abb	0.08794161
121	0x3a0adeaa	0.0005297462
122	0x3be61219	0.0070212004
123	0x3d1964f2	0.037449785
124	0xbd17ea24	-0.03708853
125	0xbd54d290	-0.05195862
126	0x3f3b2b5d	0.7311304
127	0x3d1195b9	0.035543177
128	0x3bd8fe39	0.0066221026
129	0x3e6e82cd	0.23292084
130	0x3c017e15	0.007903595
131	0x3d1944e3	0.03741921
132	0xbe19e0e8	-0.15027201
133	0x3cc4a9b3	0.0240067
134	0xbc6b1dad	-0.014350337
135	0x3deca577	0.115549974
136	0xbdd1d908	-0.102464736
137	0x3bbc1e0c	0.0057408866
138	0x3b507643	0.003180877
139	0x3d0dfe2c	0.034666225
140	0xbd7875dd	-0.06065928
141	0xbeb76d07	-0.3582537
142	0x3dc9a711	0.098463185
143	0x3ea52d29	0.32261017
144	0xbcb7f5dd	-0.022456104
145	0x3dc4f91a	0.09617825
146	0xbc846438	-0.01616107
147	0xbc916af6	-0.017751198
148	0xbe1a5651	-0.1507199
149	0x3d3d7bc6	0.046260618
150	0xbc8a5270	-0.016885012
151	0x3dc8e925	0.09810094
152	0xbc559832	-0.0130367745
153	0xbbb0e37f	-0.0053982134
154	0xbb9477cd	-0.004530883
155	0xbd033014	-0.032028273
156	0x3dd974a4	0.106179506
157	0x3ea9e0df	0.33179376
158	0xbef23daf	-0.47312686
159	0xbeb46523	-0.3523341
160	0x38fff0bf	0.0001220419
161	0x3dae8d91	0.085230954
162	0xbd8580ae	-0.06518684
163	0x3e095c10	0.13414025
164	0xbe42334c	-0.1896488
165	0xbcbd400d	-0.02310183
166	0x3d489fd7	0.04898056
167	0xbddaa188	-0.10675341
168	0x3dce10ad	0.100617744
169	0x3b2b07cb	0.0026097174
170	0xbc095194	-0.008381266
171	0x3cf4b742	0.02987254
172	0x3ca32c37	0.019918544
173	0x3c1d273e	0.009591876
174	0x3d5f517c	0.05452107
175	0x3dedb950	0.11607611
176	0xbbcbe8e3	-0.0062228306
177	0x3daa5c7d	0.08318422
178	0x3c84636f	0.016160695
179	0xbdbfe4d0	-0.093698144
180	0xbdd0eb95	-0.10201184
181	0x3b0d4320	0.0021554902
182	0x3cd9be00	0.026579857
183	0x3bf5ada0	0.0074975044
184	0xbd20811b	-0.039185625
185	0x3c10a693	0.008828777
186	0xbbde4e84	-0.006784262
187	0x3cbbbae8	0.022916272
188	0x3e05c7a1	0.13064434
189	0x3e4fd3e2	0.2029567
190	0xbd1d3d29	-0.038388405
191	0xbd952a1b	-0.072834216
192	0x3b90bc0f	0.0044169496
193	0xbd744439	-0.059635375
194	0x3cb8c0a7	0.022552801
195	0x3d8559ec	0.06511292
196	0x3ca5b177	0.020226223
197	0x3cc555b3	0.024088716
198	0xbc04173f	-0.008062183
199	0xbe359f66	-0.17736587
200	0x3e60fd0a	0.21971527
201	0x3be61f6d	0.007022789
202	0x3b0429ef	0.0020166596
203	0x3d6c0d1d	0.057629693
204	0xbcd20515	-0.025637189
205	0xbeb54d09	-0.35410336
206	0x3ddfda39	0.109302945
207	0x3df04062	0.1173103
208	0x3cf78d5b	0.03021877
209	0xbd2feb25	-0.04294886
210	0xbe075cb8	-0.13218963
211	0x3d06ea72	0.03293843
212	0xbdc4bbf3	-0.09606161
213	0x3cae3dbb	0.02126967
214	0x3c1d7fdd	0.0096130045
215	0x3d70ce04	0.05879022
216	0xbe0389b1	-0.12845494
217	0x3ae16eaf	0.0017199124
218	0xbc45391e	-0.012037544
219	0xbd83d6f0	-0.064374804
220	0x3daa8e30	0.08327901
221	0x3e1e60e1	0.15466644
222	0x3ea11c47	0.31466886
223	0xbd8afd70	-0.067866206
224	0xbb111e86	-0.0022143438
225	0xbd7f4289	-0.062319312
226	0xbafbde03	-0.0019215945
227	0x3ba65f07	0.005077246
228	0xbd3f015d	-0.04663216
229	0x3ccbfc65	0.024900625
230	0xbb9c574d	-0.0047711493
231	0xbd77688f	-0.06040245
232	0x3dc16afa	0.09444232
233	0xbb8ebfe3	-0.004356371
234	0x3b5e3b88	0.0033909995
235	0xbd0a11d7	-0.03370842
236	0x3ded5c2e	0.115898475
237	0x3eaec1ff	0.34132382
238	0xbd4a79bc	-0.0494325
239	0xbe67ad8b	-0.22624795
240	0x3bb4540b	0.0055031828
241	0x3e80ee85	0.25181976
242	0xbb8cf966	-0.0043021915
243	0xbe100225	-0.14063318
244	0xbd353970	-0.04424423
245	0xbb814127	-0.0039445343
246	0x3b1ad631	0.0023626203
247	0xbcc3244b	-0.023821017
248	0x3cada23e	0.021195527
249	0x3b70a87e	0.0036721523
250	0xbb4a127a	-0.0030833767
251	0xbc761cc7	-0.0150215095
252	0xbd53d32a	-0.051715054
253	0x3bd0c0db	0.0063706464
254	0xbe9a4119	-0.3012779
255	0x3d19b437	0.037525382

encoder_layers.0.bias f4 [128]
0	0x3f4c6b30	0.79851055
1	0x3f15c7d2	0.58508027
2	0x3f28b552	0.6590167
3	0x3f2d2c1b	0.67645425
4	0x3ecfcb75	0.40584913
5	0x3ee64515	0.4497458
6	0x3f0bdbf4	0.54632497
7	0x3f356a63	0.7086546
8	0x3f1d8ffd	0.61547834
9	0x3e5a9a60	0.21347952
10	0x3d92d3bb	0.07169291
11	0x3f22d0ad	0.63599664
12	0x3db91c7d	0.09038637
13	0xbe2e079a	-0.16995087
14	0xbddc7c06	-0.10765843
15	0x3f2ceb4e	0.67546546
16	0x3e88a7a2	0.26690394
17	0x3d2904fd	0.041264523
18	0x3e24703d	0.1605844
19	0xbe9505cc	-0.29105985
20	0x3eb58858	0.35455585
21	0x3fb965f2	1.4484236
22	0xbe8209da	-0.2539814
23	0xbdca3dc7	-0.09875064
24	0x3f345e8a	0.70456755
25	0x3f5b2016	0.85595834
26	0x3f22b595	0.6355832
27	0x3f6ab2a1	0.91678816
28	0x3f360a4c	0.7110946
29	0xbe876965	-0.26447597
30	0x3e03f06a	0.1288468
31	0xbe97f762	-0.29680926
32	0x3eb49b5d	0.35274783
33	0xbe8dfde9	-0.2773278
34	0xbf2282fb	-0.6348111
35	0x3f823334	1.0171876
36	0x3f21ccb7	0.63202995
37	0xbe8a6c8c	-0.2703594
38	0x3fb6cfff	1.4282225
39	0x3e10aada	0.14127675
40	0xbee96bed	-0.45590153
41	0x3ec65e5f	0.38743874
42	0xbe26e08d	-0.16296597
43	0x3ef24c16	0.47323674
44	0x3e81d588	0.25358224
45	0x3eb05fa5	0.3444797
46	0x3e533520	0.20625734
47	0x3f84107e	1.0317533
48	0x3f73b0f8	0.9519191
49	0xbe9796d9	-0.29607275
50	0x3e19a4e7	0.15004312
51	0xbf17014e	-0.58986366
52	0x3ebd4d1f	0.369729
53	0x3f1339c3	0.5751001
54	0x3ed172d7	0.40907928
55	0x3f844466	1.0333374
56	0x3e9d8601	0.307663
57	0x3ef67c37	0.48141643
58	0x3f92450a	1.1427319
59	0x3f47e5b1	0.78084856
60	0x3e73f8ad	0.23825331
61	0x3f0db5d4	0.5535557
62	0x3f79d470	0.9758978
63	0xbedc5497	-0.43033287
64	0x3ef336af	0.47502658
65	0xbdbbb705	-0.091657676
66	0xbdd53af2	-0.104116336
67	0x3f1fa732	0.62364495
68	0x3e62a125	0.22131784
69	0x3f12fe2d	0.5741909
70	0xbe0e6088	-0.13904011
71	0x3e1f57a3	0.15560775
72	0x3e6ac724	0.22927529
73	0x3f166a8d	0.58756334
74	0xbed4f5b4	-0.41593707
75	0x3f61e220	0.88235664
76	0x3efaa5d2	0.48954636
77	0x3e92b14d	0.28650895
78	0x3f49c922	0.7882253
79	0xbd8fcfe1	-0.07022072
80	0xbe9b5ad9	-0.3034275
81	0x3df368f0	0.118852496
82	0x3f358777	0.7090983
83	0x3ee3dadc	0.44502914
84	0x3eef0de3	0.46690282
85	0x3eed8fb8	0.4639871
86	0x3f46a973	0.7760231
87	0x3ee83755	0.45354715
88	0x3f9757da	1.1823685
89	0xbd9a23b3	-0.0752634
90	0x3ed7eed5	0.42174402
91	0x3f034d57	0.51289886
92	0xbe8a5673	-0.2701908
93	0x3f8b661d	1.0890538
94	0xbe047002	-0.12933353
95	0x3f7e1f94	0.99266934
96	0x3f7ee19e	0.99563015
97	0x3f584c79	0.8449169
98	0xbe3ad7ab	-0.18246333
99	0xbe502642	-0.20327094
100	0x3f2ba2e4	0.67045426
101	0x3fb3cc3e	1.4046705
102	0x3f585c6d	0.8451603
103	0xbe38a747	-0.18032561
104	0x3f4731be	0.77810276
105	0x3dd7b13f	0.10531854
106	0xbeb2c849	-0.3491843
107	0xbe67e21b	-0.22644846
108	0x3e8ba0bd	0.2727107
109	0x3f1e6752	0.61876404
110	0xbe3008a1	-0.17190792
111	0x3ee9f2c0	0.45693016
112	0xbe9bfefc	-0.30467975
113	0x3efd6a22	0.49495035
114	0x3f6180af	0.8808698
115	0x3f699a4c	0.91251063
116	0xbecdaebb	-0.4017237
117	0xbf0f3164	-0.5593474
118	0x3f29f156	0.66383874
119	0x3efc4301	0.4926987
120	0x3e951e77	0.29124805
121	0x3b6681ce	0.0035172584
122	0xbe3c85f3	-0.18410473
123	0x3ecbae03	0.39781198
124	0x3f8cae86	1.099076
125	0xbd8206af	-0.06348931
126	0x3f2a43f7	0.66509956
127	0xbe39cb5e	-0.18143985

encoder_layers.2.weight f4 [128]
0	0x3f1fe55d	0.62459356
1	0x3f6288fc	0.8849027
2	0x3f7d58d3	0.9896366
3	0x3f607097	0.876718
4	0x3f5ead68	0.86983347
5	0x3f862768	1.0480776
6	0x3fa152ad	1.2603356
7	0x3ec6a61b	0.38798603
8	0x3fa5b172	1.2944777
9	0x3f977a0c	1.1834121
10	0x3f43f13d	0.76539975
11	0x3f3f4893	0.74720114
12	0x3f8869b1	1.0657254
13	0x3f192b23	0.59831446
14	0x3f85e04d	1.0459076
15	0x3f63997a	0.8890606
16	0x3f8497c1	1.0358812
17	0x3ebe8727	0.37212488
18	0x3f75bcf9	0.95991474
19	0x3f76a0c7	0.96339077
20	0x3f41b09e	0.7566012
21	0x3f9e2750	1.2355747
22	0x3f9d9ede	1.2314107
23	0x3f280450	0.6563158
24	0x3f010380	0.50395966
25	0x3f83428c	1.0254683
26	0x3f542229	0.82864624
27	0x3f83c9fc	1.0296016
28	0x3f98a388	1.1924906
29	0x3f3bf00f	0.73413175
30	0x3f2d1e07	0.67623943
31	0x3f27cfde	0.65551555
32	0x3f43ad26	0.7643608
33	0x3f08a267	0.53372806
34	0x3eccc955	0.39997354
35	0x3f6b0eda	0.91819537
36	0x3fae8248	1.3633509
37	0x3f26634a	0.64995253
38	0x3fae0d48	1.3597803
39	0x3f7641aa	0.96193945
40	0x3f65d333	0.8977539
41	0x3f1e3dc8	0.6181302
42	0x3ef02e9a	0.46910554
43	0x3f8452e1	1.0337793
44	0x3f028fbe	0.51000583
45	0x3f62ac75	0.885444
46	0x3f89eb9a	1.0775025
47	0x3f45d03b	0.7727086
48	0x3fb11963	1.3835872
49	0x3f5a3206	0.8523258
50	0x3f792da1	0.9733525
51	0x3f082fa8	0.5319772
52	0x3f8158eb	1.0105261
53	0x3f690374	0.91020894
54	0x3f4501b3	0.7695572
55	0x3f4136cf	0.75474256
56	0x3f237b19	0.6385971
57	0x3f6fb0c6	0.9362911
58	0x3f8ba395	1.0909296
59	0x3f7d4eda	0.9894844
60	0x3f4e78f2	0.806533
61	0x3fc4a25d	1.5362049
62	0x3f8c43b1	1.0958158
63	0x3f3b495d	0.7315882
64	0x3f8030c9	1.0014888
65	0x3f18ea8e	0.597329
66	0x3f207863	0.62683696
67	0x3f086c03	0.5328981
68	0x3f6ef111	0.9333659
69	0x3f23bb23	0.6395742
70	0x3f2f90de	0.68580425
71	0x3f95873b	1.1681894
72	0x3f381f86	0.719231
73	0x3f5c2002	0.8598634
74	0x3f0c2d40	0.54756546
75	0x3f73bbd6	0.9520849
76	0x3f61febf	0.88279337
77	0x3f6c10db	0.9221322
78	0x3f924f75	1.1430498
79	0x3f0987f9	0.537231
80	0x3f1bce87	0.6086201
81	0x3f8e4392	1.1114371
82	0x3fa496a7	1.2858475
83	0x3f507e3a	0.81442606
84	0x3f1dd875	0.6165841
85	0x3f635eff	0.8881683
86	0x3f528f05	0.8224948
87	0x3f6819ff	0.90664667
88	0x3fc4cbae	1.5374658
89	0x3f3fe498	0.7495818
90	0x3f6a51a9	0.91530854
91	0x3f80efd0	1.0073185
92	0x3f75f60b	0.96078557
93	0x3f8a2d18	1.0795012
94	0x3f48e497	0.784738
95	0x3fa5ad9d	1.2943608
96	0x3f856a56	1.0423076
97	0x3f8562ef	1.0420817
98	0x3f79bdcd	0.9755524
99	0x3f0c5fe9	0.5483385
100	0x3f1d890e	0.61537254
101	0x3f4831a8	0.7820077
102	0x3f649403	0.8928835
103	0x3f8ae2c6	1.0850456
104	0x3f48310c	0.7819984
105	0x3f2a0d6c	0.6642673
106	0x3f8e77bb	1.1130289
107	0x3faf658f	1.3702868
108	0x3f425991	0.7591792
109	0x3f885c3c	1.0653148
110	0x3f2f643e	0.6851233
111	0x3f5b545c	0.856756
112	0x3f0fcb70	0.56169796
113	0x3f5557cd	0.833371
114	0x3f944819	1.1584502
115	0x3f59bea8	0.85056543
116	0x3f085a6a	0.5326296
117	0x3f0390c8	0.51392794
118	0x3f6b84f0	0.9199972
119	0x3f40ba88	0.75284624
120	0x3f74684c	0.95471644
121	0x3f71b006	0.94409215
122	0x3f4a1efc	0.7895353
123	0x3ed6ec70	0.41977262
124	0x3f4feed4	0.812238
125	0x3f27012f	0.6523618
126	0x3f9a64dd	1.2062031
127	0x3f703460	0.9382992

encoder_layers.2.bias f4 [128]
0	0xbec2ece8	-0.3807137
1	0xbf1b3ae0	-0.6063671
2	0xbc985a86	-0.018597852
3	0xbe0128eb	-0.12613265
4	0xbf01792e	-0.5057553
5	0xbe6ba719	-0.23012961
6	0xbe965a5c	-0.29365814
7	0xbd279801	-0.040916447
8	0xbf33e69d	-0.7027376
9	0x3e87a128	0.2649014
10	0x3e237f31	0.15966488
11	0xbe91779d	-0.2841157
12	0xbf1617c9	-0.58630043
13	0xbe581b74	-0.21104223
14	0x3dea5f7f	0.11443996
15	0xbe3878a2	-0.18014768
16	0xbdf3cfe4	-0.11904886
17	0xbde64fb2	-0.112456694
18	0xbf2e7e2b	-0.6816127
19	0x3ed16959	0.40900686
20	0xbf2e4552	-0.68074524
21	0xbcf371c8	-0.029717341
22	0x3eb56241	0.35426524
23	0x3ea2f1c6	0.31825083
24	0xbd40dc25	-0.047084946
25	0xbe40bc3a	-0.18821803
26	0xbf101be2	-0.56292546
27	0xbe050b34	-0.12992555
28	0x3e3e7e75	0.18602927
29	0xbef17788	-0.47161508
30	0x3d9d2d8f	0.07674705
31	0xbeca422f	-0.3950362
32	0x3eb310c1	0.3497372
33	0xbea3dc0f	-0.3200383
34	0xbee82afc	-0.45345294
35	0xbe5d37aa	-0.21603265
36	0xbece3e14	-0.40281737
37	0xbddc831b	-0.10767194
38	0x3c3433b9	0.01099866
39	0xbcf88ea9	-0.030341463
40	0x3c8a7fc2	0.016906623
41	0x3c1a608c	0.009422433
42	0xbedec9d1	-0.4351335
43	0xbf58d18b	-0.8469474
44	0x3e031f91	0.1280501
45	0xbea77c0e	-0.32711834
46	0xbe993eeb	-0.29930815
47	0xbd3d6e54	-0.046247795
48	0xbe17611d	-0.1478314
49	0x3f066307	0.52494854
50	0xbd88152d	-0.06644664
51	0xbf14fd53	-0.5819904
52	0xbf3f3772	-0.7469398
53	0xbea177bf	-0.31536672
54	0xbee5990f	-0.44843337
55	0xbe16281d	-0.1466374
56	0xbf0b98b6	-0.54529893
57	0xbd01b422	-0.03166593
58	0xbdf90c50	-0.121605515
59	0x3e60fcdc	0.21971458
60	0xbe35ea02	-0.17765048
61	0x3c936369	0.017991738
62	0xbe519a04	-0.20468909
63	0x3eada017	0.339112
64	0xbf0217e5	-0.5081771
65	0xbef41fea	-0.47680598
66	0xbe4e24cc	-0.20131224
67	0xbcad5585	-0.021158943
68	0xbf1f2539	-0.6216617
69	0xbd6eddee	-0.058317117
70	0xbf468a52	-0.7755481
71	0xbe2716df	-0.16317318
72	0xbe8c3c0d	-0.27389565
73	0xbf2c43d7	-0.67291015
74	0xbf00c34a	-0.5029799
75	0xbe6fef1e	-0.2343106
76	0xbda3eb85	-0.08003906
77	0xbebd9db8	-0.37034392
78	0x3e732ce9	0.237476
79	0x3e74b36e	0.23896572
80	0xbf288d88	-0.6584096
81	0xbd9f5e49	-0.07781655
82	0xbe2c1d1f	-0.16807984
83	0xbeef50e3	-0.467414
84	0xbee4485f	-0.44586465
85	0x3ef261fd	0.47340384
86	0xbdac935c	-0.08426544
87	0xbdcbf51b	-0.099588595
88	0xbde0bb12	-0.10973181
89	0xbea7a3f9	-0.3274229
90	0xbf5fa601	-0.87362677
91	0xbe661678	-0.22469509
92	0xbf1ceea5	-0.6130164
93	0x3eeca5a2	0.46220118
94	0x3e7fa07d	0.24963565
95	0xbea4accd	-0.32163087
96	0xbd48f468	-0.04906121
97	0x3e3700d4	0.1787141
98	0xbd552a2e	-0.05204218
99	0xbf2fc0d7	-0.68653625
100	0xbeea9562	-0.45817095
101	0xbe2482da	-0.16065541
102	0xbca5e17f	-0.020249126
103	0xbf269a18	-0.6507888
104	0xbeb0ed36	-0.34555978
105	0xbf4e74ba	-0.8064686
106	0xbe86ed0d	-0.2635273
107	0xbe4db8b7	-0.20089994
108	0xbf2ca42e	-0.6743802
109	0xbf140535	-0.57820445
110	0xbf05be49	-0.5224348
111	0x3ea470d3	0.32117328
112	0x3e16d801	0.14730836
113	0xbe3d5a8b	-0.1849157
114	0xbe3336e6	-0.17501411
115	0x3e8934b0	0.2679801
116	0xbea6cab6	-0.3257653
117	0x3e022370	0.12708831
118	0xbf145795	-0.5794614
119	0xbda5acd7	-0.08089607
120	0xbd3b63b0	-0.045749366
121	0xbe77e5f6	-0.24208817
122	0x3e3d8389	0.18507208
123	0xbdd6103e	-0.10452317
124	0x3e5a20e4	0.2130161
125	0xbdbb98a0	-0.0915997
126	0xbe12af22	-0.1432462
127	0x3e066472	0.13124254

encoder_layers.2.running_mean f4 [128]
0	0x3f4ca080	0.79932404
1	0x3f15b59c	0.5848024
2	0x3f2c90e3	0.6740858
3	0x3f2d8cf0	0.6779318
4	0x3f39b4d6	0.7254156
5	0x3eebc19a	0.46046144
6	0x3f0bbd5c	0.54585814
7	0x3f39a6c4	0.7252009
8	0x3f1ec63f	0.6202125
9	0x3ea3d8db	0.32001385
10	0x3dbd0431	0.09229315
11	0x3f225987	0.6341786
12	0x3e156aac	0.14591473
13	0x3dc149e6	0.09437923
14	0x3d3d0de8	0.04615584
15	0x3f2e9113	0.68190116
16	0x3e88618c	0.26636922
17	0x3e44415d	0.19165559
18	0x3e30211a	0.17200127
19	0x3c685fec	0.014183026
20	0x3eb65e64	0.3561889
21	0x3fb8f106	1.4448555
22	0x3e378b64	0.17924267
23	0x3ea4c14c	0.32178724
24	0x3f3793df	0.7171001
25	0x3f5b2c93	0.8561489
26	0x3f228c44	0.6349528
27	0x3f6bc69d	0.92099935
28	0x3f36002e	0.71094024
29	0x3e16b814	0.14718658
30	0x3f2f9a1d	0.68594533
31	0x3cb2b733	0.021815872
32	0x3ef9140e	0.48648113
33	0x3e1fd6ea	0.15609327
34	0x3da0642e	0.07831608
35	0x3f823eb2	1.0175383
36	0x3f23342f	0.637515
37	0x3e689148	0.2271167
38	0x3fb66a71	1.4251233
39	0x3e74ead8	0.23917711
40	0x3dd8cdfc	0.105861634
41	0x3eea13d7	0.45718262
42	0x3e29be6a	0.16576543
43	0x3f0054d6	0.5012945
44	0x3ebd4dc1	0.36973384
45	0x3eb24ba0	0.34823322
46	0x3e528082	0.20556834
47	0x3f83f05d	1.0307728
48	0x3f74573d	0.95445615
49	0x3d818d5a	0.06325789
50	0x3e7097da	0.23495427
51	0x3d953324	0.07285145
52	0x3ebee742	0.3728581
53	0x3f13b86c	0.5770328
54	0x3ed2218c	0.4104122
55	0x3f841821	1.0319864
56	0x3ea1b2df	0.3158178
57	0x3f05bba4	0.5223944
58	0x3f91f546	1.1402977
59	0x3f479d39	0.7797428
60	0x3ea81192	0.32825905
61	0x3f10e8e6	0.56605375
62	0x3f79fd05	0.976517
63	0x3d004d51	0.031323735
64	0x3ef3b3a3	0.4759799
65	0x3cbf08da	0.02331965
66	0x3dc251d2	0.09488262
67	0x3f224f69	0.6340242
68	0x3ee4a2f9	0.44655588
69	0x3f11b3f7	0.5691523
70	0x3deb0720	0.11475968
71	0x3e3858ba	0.18002596
72	0x3e6e1bf6	0.23252854
73	0x3f1779a7	0.5917
74	0x3d920090	0.071290135
75	0x3f6346f5	0.88780147
76	0x3efa37d3	0.48870715
77	0x3ea139b0	0.31489325
78	0x3f49e749	0.7886854
79	0x3cca2f57	0.024680777
80	0x3d6b89dd	0.057504524
81	0x3e0ba7e3	0.13638262
82	0x3f35e7c2	0.7105676
83	0x3f3f7820	0.7479267
84	0x3eef1ca1	0.4670153
85	0x3efb881e	0.49127287
86	0x3f48be08	0.78414965
87	0x3eea76bd	0.45793715
88	0x3f96f97f	1.179489
89	0x3e10bf32	0.14135435
90	0x3eeae2e8	0.4587624
91	0x3f031647	0.5120587
92	0x3e04c9f7	0.12967668
93	0x3f8b2e0f	1.0873431
94	0x3da2b89c	0.07945368
95	0x3f7da392	0.99077713
96	0x3f7f4848	0.9971967
97	0x3f57887a	0.8419262
98	0x3bce8b80	0.006303251
99	0x3e131869	0.1436478
100	0x3f2b07ce	0.66808784
101	0x3fb3d362	1.4048884
102	0x3f5a7dc0	0.8534813
103	0x3e34ccda	0.1765627
104	0x3f4712c4	0.7776301
105	0x3e4389a9	0.19095482
106	0x3d1b406d	0.037903238
107	0x3c15ee7d	0.009151098
108	0x3e8daf9a	0.27673036
109	0x3f1facbc	0.62372947
110	0x3e0822da	0.13294545
111	0x3f1d868e	0.6153344
112	0x3ca44141	0.020050647
113	0x3f1220a9	0.57081085
114	0x3f621dc1	0.8832665
115	0x3f688b01	0.90837103
116	0x3d3255bf	0.043538805
117	0x3daea275	0.0852708
118	0x3f2a0487	0.6641316
119	0x3efe886b	0.49713454
120	0x3ed9dd87	0.42551824
121	0x3e4f41ce	0.20239946
122	0x3c02eb5c	0.007990684
123	0x3ec983ce	0.39358371
124	0x3f8cb24a	1.099191
125	0x3e15aeee	0.14617512
126	0x3f2a5ab6	0.66544664
127	0x3e5cfbd2	0.21580437

encoder_layers.2.running_var f4 [128]
0	0x3d1b166e	0.037863187
1	0x3c14b5c0	0.009076536
2	0x3ee655f0	0.4498744
3	0x3d2b085c	0.04175602
4	0x3e81d2a8	0.2535603
5	0x3d72c67b	0.059271317
6	0x3bf158de	0.00736533
7	0x3efe5277	0.4967229
8	0x3d4e30f5	0.050339658
9	0x3d907f02	0.07055475
10	0x3be92ee2	0.0071161846
11	0x3c6f9544	0.01462299
12	0x3c924317	0.017854257
13	0x3d879da8	0.066218674
14	0x3c0ebc5c	0.008711901
15	0x3d60aa42	0.05484987
16	0x3b2df726	0.0026545017
17	0x3d7c0dc2	0.061536558
18	0x3c4df076	0.012569537
19	0x3a7c10e4	0.0009615554
20	0x3da77379	0.081763215
21	0x3cffe538	0.03123723
22	0x3e855c67	0.2604706
23	0x3e9b05f4	0.3027798
24	0x3ed2b8cb	0.4115661
25	0x3aabeef2	0.0013117476
26	0x3d34d674	0.04414983
27	0x3da1ff48	0.07910019
28	0x3b1d2f9f	0.0023984683
29	0x3e41ccbd	0.18925758
30	0x3f549f32	0.8305541
31	0x3c0b9571	0.008519516
32	0x3e5db36f	0.2165048
33	0x3e5d8db6	0.2163609
34	0x3d598b67	0.05311146
35	0x3d9ac217	0.07556551
36	0x3d22bba2	0.03972972
37	0x3ed292c1	0.4112759
38	0x3c65bf77	0.0140227
39	0x3da7fa03	0.08201983
40	0x3d260ebc	0.040541396
41	0x3e5307f1	0.20608498
42	0x3e53dffc	0.20690912
43	0x3db00d83	0.08596327
44	0x3e322671	0.17397477
45	0x3cfe2eb6	0.031028133
46	0x3c08f6da	0.008359635
47	0x3d88a35d	0.06671784
48	0x3b9ebea9	0.004844506
49	0x3c0b0afc	0.008486506
50	0x3d71ee6b	0.059065264
51	0x3d513518	0.051076025
52	0x3d077898	0.03307399
53	0x3cf36a10	0.02971366
54	0x3ce87eff	0.028380869
55	0x3c45b056	0.012065968
56	0x3d4e3fdd	0.050353874
57	0x3f1e9606	0.6194767
58	0x3cd81358	0.026376411
59	0x3cc0d212	0.02353767
60	0x3d4edb55	0.05050214
61	0x3eb441f8	0.3520658
62	0x3d2d768e	0.04234939
63	0x3b6bbb08	0.0035969634
64	0x3b7dd8e0	0.0038734004
65	0x3b99fcba	0.004699317
66	0x3cef1ebe	0.029189464
67	0x3e844646	0.25834864
68	0x3f532273	0.8247444
69	0x3d004a7d	0.031321038
70	0x3dd5bc04	0.10436252
71	0x3c7b086d	0.015321833
72	0x3cbbf581	0.022944214
73	0x3d27dffa	0.040985085
74	0x3d246e25	0.040144105
75	0x3cc54174	0.024079062
76	0x3b34c5f3	0.0027583807
77	0x3da56ac3	0.08077004
78	0x3b442050	0.0029926486
79	0x3aebde8c	0.0017995401
80	0x3ca618e1	0.020275535
81	0x3bdfc760	0.0068291873
82	0x3cdd1120	0.026985705
83	0x3e7e843b	0.2485513
84	0x3c35ffd6	0.011108359
85	0x3dda5780	0.106612206
86	0x3d9316ac	0.07182059
87	0x3cf47db2	0.029845092
88	0x3c744956	0.014910063
89	0x3d57813b	0.05261348
90	0x3ebb36c4	0.3656522
91	0x3c083e49	0.008315631
92	0x3e1dd514	0.15413314
93	0x3b93a813	0.00450612
94	0x3cda7fe4	0.026672311
95	0x3c016cad	0.0078994455
96	0x3d91d64a	0.071209505
97	0x3d88295a	0.06648512
98	0x3a258967	0.0006314725
99	0x3e255491	0.16145541
100	0x3ccfbb8e	0.025357988
101	0x3e0e5870	0.13900924
102	0x3dc34c2c	0.09536013
103	0x3ddc0778	0.10743612
104	0x3cacd637	0.02109824
105	0x3dfec7ef	0.12440478
106	0x3b9ba75e	0.0047501763
107	0x3a6574c9	0.0008753059
108	0x3d0840b7	0.033264842
109	0x3d2a7b46	0.04162147
110	0x3e15c9d1	0.14627768
111	0x3e3b3039	0.18280114
112	0x3b8e19fa	0.0043365927
113	0x3dd5aa80	0.10432911
114	0x3d9076ff	0.07053947
115	0x3e14b84a	0.14523426
116	0x3cc19e38	0.023635015
117	0x3d8e295e	0.06941484
118	0x3b861a87	0.004092518
119	0x3d1a507d	0.037674416
120	0x3dc7a44a	0.097481325
121	0x3dd86e14	0.10567871
122	0x3ac50a7a	0.001503303
123	0x3c947cea	0.01812597
124	0x3ddd3b6c	0.108023494
125	0x3d5e7acf	0.05431634
126	0x3bfe08ba	0.007752505
127	0x3d638f73	0.055556726

encoder_layers.4.weight f4 [64, 128]
0	0xbc80a7d2	-0.015705023
1	0xbce50c1c	-0.027959876
2	0xbe6903cb	-0.22755353
3	0x3e08b4d5	0.13350232
4	0xbdd8bf3e	-0.105833516
5	0xba35f949	-0.00069417484
6	0xbdbead52	-0.09310402
7	0xbef85052	-0.4849878
8	0xbc7d26a8	-0.015451111
9	0x3c5d150d	0.013493788
10	0x3ddb3b50	0.10704672
11	0xbddf6d73	-0.10909548
12	0xbb581dad	-0.0032976673
13	0xbdaa74a0	-0.08323026
14	0xbd3a2923	-0.045449387
15	0x3e071f2e	0.13195488
16	0xbd8f5481	-0.0699854
17	0x3b468b08	0.0030295271
18	0xbd9d70a2	-0.07687499
19	0x3e9f4fd0	0.3111558
20	0xbdd19d41	-0.10235072
21	0xbe259fb3	-0.16174202
22	0xbe517cc5	-0.20457752
23	0x3e1363c5	0.14393528
24	0xbecc3a45	-0.39888206
25	0xbdbe1a41	-0.09282351
26	0xbe14ed9d	-0.14543767
27	0x3e59d234	0.21271592
28	0xbd6ed7d7	-0.05831131
29	0xbe0fe8ee	-0.140537
30	0xbc2cd2e9	-0.010548332
31	0xbd1a8417	-0.037723627
32	0x3d960047	0.07324272
33	0xbe85d012	-0.26135308
34	0xbd6d3ae2	-0.057917483
35	0x3da92b32	0.08260192
36	0x3b81fc77	0.0039668637
37	0xbe900877	-0.28131458
38	0xbdef2863	-0.11677625
39	0x3d0098cf	0.03139573
40	0x3d05e44e	0.03268843
41	0xbcb84d98	-0.022497937
42	0xbe89ebe3	-0.2693778
43	0xbdf6496f	-0.12025725
44	0x3dc0aa96	0.09407537
45	0xbc2b80cc	-0.010467719
46	0xbcaaf168	-0.020867065
47	0x3e881977	0.26581928
48	0xbd99a39c	-0.07501909
49	0x3e9edd46	0.31028193
50	0x3c3b5800	0.011434555
51	0xbd8d950e	-0.069131956
52	0xbd9b0863	-0.07569959
53	0xbdb58781	-0.08863736
54	0xbdf293c8	-0.11844593
55	0xbe21a9c2	-0.15787414
56	0xbdd24cc5	-0.10268549
57	0xbe8d1573	-0.27555427
58	0xbdc76e27	-0.09737807
59	0x3d5bb42f	0.053638633
60	0x3c12c09a	0.008957053
61	0xbdefe288	-0.11713129
62	0xbdc205eb	-0.09473785
63	0x3ea34be7	0.31893846
64	0x3b7b8223	0.0038377128
65	0xbd8eecca	-0.06978758
66	0xbd5840fc	-0.05279635
67	0xbe190a60	-0.14945364
68	0xbe419fe8	-0.18908656
69	0xbbdd394e	-0.006751216
70	0xbe25b977	-0.1618403
71	0x3dc2e200	0.09515762
72	0xbcad9f47	-0.021194113
73	0xbe006eee	-0.12542316
74	0xbd888d5c	-0.06667587
75	0xbda3f5ab	-0.08005842
76	0xbd7df846	-0.06200435
77	0xbdb35c9a	-0.08757897
78	0xbd7bb1ff	-0.061449047
79	0x3e23b837	0.15988241
80	0xbd40a2ea	-0.047030367
81	0x3cde2c40	0.02712071
82	0xbda6e452	-0.081490174
83	0xbe136b0d	-0.14396305
84	0xbdb1c660	-0.08680415
85	0x3e0af139	0.13568582
86	0x3e84d427	0.2594311
87	0x3c4d3465	0.012524699
88	0xbdd91572	-0.105997935
89	0x3caa25cf	0.020769982
90	0xbd349ef5	-0.044096906
91	0xbc354f34	-0.011066247
92	0xbda66faf	-0.08126771
93	0xbc729fb6	-0.014808586
94	0x3da41b87	0.08013063
95	0xbe16ee35	-0.14739306
96	0xbd08e3b2	-0.033420272
97	0x3c3e25b6	0.011605671
98	0xbd583183	-0.052781593
99	0xbe133935	-0.14377292
100	0xbdd3e68c	-0.10346708
101	0x3e417bf0	0.18894935
102	0xbb969fd8	-0.0045966916
103	0xbca78bc1	-0.020452382
104	0xbb9dc5cf	-0.0048148404
105	0xbe080abe	-0.13285348
106	0xbc83688d	-0.016041065
107	0x3ad0efcc	0.0015940606
108	0xbcfdd2a0	-0.030984223
109	0xbd30b5f4	-0.043142274
110	0xbe43a775	-0.19106849
111	0x3df08010	0.11743176
112	0x3d5a26e2	0.053259738
113	0x3ce5e03f	0.02806103
114	0x3e1e9afd	0.15488811
115	0x3cff9e46	0.0312034
116	0xbd4313c4	-0.04762627
117	0x3df89b30	0.12138975
118	0xbe3aaf92	-0.18231037
119	0x3d1d0f65	0.03834476
120	0x3d828a06	0.06373982
121	0x3cb3a9b4	0.021931507
122	0x3e01800f	0.12646507
123	0xbd44b4dd	-0.048024047
124	0x3d1d6f21	0.03843606
125	0x3d9ec35b	0.07752105
126	0xbd9da1de	-0.07696889
127	0x3d262b94	0.040568903
128	0xbda2a1d4	-0.079410225
129	0xbd26e278	-0.04074332
130	0x3d7c0fc5	0.061538476
131	0x3c2fb26f	0.010723694
132	0xbd7abbdc	-0.061214313
133	0xbd601643	-0.05470873
134	0xbd0b7fb6	-0.03405734
135	0xbbdd347b	-0.006750641
136	0xbd6d6b58	-0.0579637
137	0xbbc6c4d7	-0.0060659456
138	0x3c8d0966	0.017216396
139	0x3d06b816	0.0328904
140	0xbd9117c9	-0.07084615
141	0x3be6df28	0.0070456453
142	0x3c16ba2a	0.009199658
143	0x3a753d31	0.00093551265
144	0x3c8c8890	0.017154962
145	0x3cbca66d	0.023028577
146	0xbd4703eb	-0.04858772
147	0x3c8db347	0.0172974
148	0xbd87050a	-0.06592758
149	0x3c0bf925	0.008543287
150	0x3d9e1d52	0.07720436
151	0x3d894210	0.067020535
152	0x3ce86adb	0.028371265
153	0xbd65b689	-0.056082282
154	0xbd381f28	-0.044951588
155	0xbc1a7bf1	-0.009428964
156	0x3afb3415	0.0019165302
157	0xbca67882	-0.020321134
158	0x3e050eb1	0.12993886
159	0xbd01344a	-0.031544007
160	0xbd4feab7	-0.05076095
161	0x3d247e47	0.04015949
162	0xbd98f2a7	-0.07468157
163	0xbcadc3b5	-0.021211484
164	0xbd01b5a3	-0.031667363
165	0x3ccc1ba6	0.024915528
166	0xbbe88250	-0.0070956126
167	0xbc74a33f	-0.014931499
168	0x3ba36c5e	0.0049872836
169	0xbe1b0a20	-0.15140581
170	0xbd296a4e	-0.041361146
171	0xbd79e952	-0.061013527
172	0x3d9e385c	0.077255934
173	0xbc1ca7dc	-0.009561505
174	0xbd3f19ab	-0.04665534
175	0x3c533c03	0.012892726
176	0xbda0cd85	-0.078517
177	0x3d869a6d	0.06572423
178	0xbdf26b6c	-0.11836895
179	0xbd33206f	-0.043732103
180	0xbd056f02	-0.03257657
181	0xbbf2ba18	-0.007407438
182	0xbcf413f7	-0.029794676
183	0xbca5b98a	-0.020230073
184	0xbe0c6b7b	-0.13712876
185	0x3d3d35ba	0.046193816
186	0xbb113695	-0.0022157778
187	0x3dc683e2	0.096931234
188	0x3b5416ab	0.0032362144
189	0x3d26b0ef	0.04069608
190	0xbd4b0e0c	-0.049573943
191	0x3cc49121	0.023994984
192	0xbd759641	-0.059957746
193	0xbdc879bf	-0.09788846
194	0xbcff4ed5	-0.03116552
195	0x3c95f487	0.018305076
196	0xbd2ad3f7	-0.04170605
197	0xbb75bc7c	-0.0037496379
198	0xbd8f3832	-0.0699314
199	0xbcc3eb80	-0.023916006
200	0xbd4f0f7e	-0.050551884
201	0xbdc04c39	-0.09389538
202	0xbd2ba169	-0.04190198
203	0x3d245a5a	0.04012523
204	0xbc9b7b98	-0.018979833
205	0xbcf80be8	-0.030279115
206	0xbb287cf0	-0.0025709234
207	0x3dda95b8	0.10673088
208	0xbdaafcee	-0.08349024
209	0x3d170061	0.036865596
210	0x3b958e03	0.0045640483
211	0xbd617fab	-0.055053394
212	0xbdc43b3d	-0.09581611
213	0x3d005f4d	0.031340886
214	0xbc79d021	-0.015247376
215	0x3e48a435	0.1959389
216	0x3bfee41e	0.0077786585
217	0xbd91d439	-0.071205564
218	0xbd78493c	-0.060616717
219	0x3d82bd72	0.0638379
220	0xbcfbfb9a	-0.030759621
221	0x3ce44d67	0.02786894
222	0x3c47976e	0.0121821
223	0xbcd1a995	-0.025593558
224	0xbd24998a	-0.04018549
225	0xba36b25c	-0.00069693266
226	0xbd3ccb19	-0.046092127
227	0xbdf45ca1	-0.1193173
228	0xbdf8cb99	-0.12148208
229	0xbcd24d0b	-0.025671503
230	0xbaef1f3d	-0.0018243563
231	0xbd96403d	-0.07336471
232	0xbd6f6f4f	-0.05845576
233	0xbd75e150	-0.060029328
234	0xbcc1ea1c	-0.023671202
235	0x3c7baac9	0.015360543
236	0xbdabdb43	-0.0839143
237	0xbd0bceb2	-0.034132667
238	0xbc7975d3	-0.015225845
239	0x3c398f9c	0.011325743
240	0x3df5ad5e	0.11995958
241	0xbcaa637f	-0.020799397
242	0x3b5133cf	0.003192175
243	0x3c8aad01	0.016928198
244	0xbd1dea12	-0.038553305
245	0x3d422b0d	0.047404338
246	0xbda3d77c	-0.08000085
247	0xbd34c00a	-0.044128455
248	0xbd7a5ab4	-0.061121657
249	0x3c7fe77d	0.015619156
250	0x3d543d1e	0.0518161
251	0xbd3d589c	-0.046227083
252	0x3c261b18	0.010138296
253	0xbd328efc	-0.04359339
254	0xbcb2e5a1	-0.021838011
255	0xbaaf39a8	-0.0013368623

encoder_layers.4.bias f4 [64]
0	0x3fad529c	1.3540835
1	0x3fef6cda	1.8705094
2	0x3f320cfd	0.6955107
3	0x3f8da3d6	1.1065624
4	0x3f5ebcbc	0.87006736
5	0x3f951fe8	1.1650362
6	0x3f7f4a22	0.9972249
7	0x3fa46c96	1.2845638
8	0x3e84373e	0.25823396
9	0x3fec06e0	1.8439598
10	0x3fb57e7e	1.4179227
11	0x3fa07c38	1.2537909
12	0x40185beb	2.3806102
13	0x3f5a667a	0.85312617
14	0x400a2835	2.158704
15	0x3f423bbd	0.75872403
16	0x3fcf94f0	1.6217327
17	0x3e98d5fb	0.29850754
18	0x3f6868f9	0.90785176
19	0x3f191b7c	0.5980756
20	0x3fb1f91d	1.3904148
21	0x3efa2db9	0.4886301
22	0x3fcf6dc7	1.6205376
23	0x3f5e24e2	0.8677503
24	0x3f4be495	0.79645663
25	0x3f952350	1.1651402
26	0x3fa4bb43	1.2869648
27	0x3f255720	0.6458607
28	0x3f094735	0.5362428
29	0x3efe33ea	0.49648982
30	0x3f5a542e	0.852847
31	0x3f9b42be	1.2129743
32	0xbc808aa0	-0.015691102
33	0x3f957648	1.1676722
34	0x3f215ec5	0.6303523
35	0x3efb5409	0.4908755
36	0x3fbcb53e	1.4742811
37	0x3fd06ced	1.6283242
38	0x3fc8b6f1	1.5680829
39	0x3fa2d7e3	1.2722133
40	0x3f94d23e	1.1626661
41	0x3f94759e	1.1598394
42	0x3fb79e34	1.4345155
43	0x3f246ab0	0.6422529
44	0x401999c4	2.40001
45	0x3f4cb849	0.79968697
46	0x3fa43b04	1.283051
47	0x3f7b36a1	0.9813023
48	0x40064cc2	2.098435
49	0x3f5192d9	0.81864697
50	0x3f9dd97e	1.2331998
51	0x3e889954	0.2667948
52	0x3fbe5a83	1.4871372
53	0x3ec18cd3	0.37802753
54	0xbe6552da	-0.22394887
55	0x3f905485	1.1275793
56	0x4014962d	2.321666
57	0x3eef7f70	0.46776915
58	0x3daf4d15	0.08559624
59	0x3ee8f911	0.45502523
60	0xbe21dfe4	-0.15808064
61	0x3ec0b005	0.37634292
62	0x3e919643	0.28434953
63	0x3e868961	0.26276687

encoder_layers.6.weight f4 [64]
0	0x3f75049d	0.95710164
1	0x3fb206b9	1.3908302
2	0x3f8b80ff	1.0898741
3	0x3f20fda5	0.6288703
4	0x3fdd1ef2	1.7275069
5	0x3f3ae7ec	0.73010135
6	0x3fc9583a	1.573005
7	0x3f3822e3	0.7192823
8	0x3f790b41	0.972828
9	0x3f9406ca	1.1564572
10	0x3f8b83d2	1.0899603
11	0x3f83fd07	1.0311593
12	0x3faeb215	1.3648096
13	0x3f371e7a	0.7153088
14	0x3f8639a6	1.0486343
15	0x3f6c4696	0.92295206
16	0x3f82bbe0	1.0213585
17	0x3f0b6e1f	0.54464906
18	0x3f9ab4a2	1.2086375
19	0x3fb4a865	1.411389
20	0x3fc31b64	1.5242734
21	0x3f7eae89	0.9948507
22	0x3fac1938	1.3445196
23	0x3f23958a	0.63900054
24	0x3f7a66bf	0.9781303
25	0x3fa26ae8	1.2688875
26	0x3f995203	1.1978153
27	0x3f8652d4	1.0494027
28	0x3f629528	0.88508844
29	0x3f6167e4	0.8804915
30	0x3f7cff29	0.98826844
31	0x3fcbdad3	1.5926155
32	0x3f8dd08a	1.1079266
33	0x3f2b39dc	0.6688516
34	0x3f29ae24	0.6628134
35	0x3f747679	0.95493275
36	0x3f2d6e6a	0.67746603
37	0x3f595b90	0.8490534
38	0x3f9fc69d	1.2482487
39	0x3fc146ba	1.5099709
40	0x3f730736	0.9493288
41	0x3f984555	1.1896158
42	0x3f882691	1.063677
43	0x3f447d9b	0.7675416
44	0x3f59b466	0.8504089
45	0x3fc2db26	1.5223129
46	0x3fabee2e	1.3432062
47	0x3f36c465	0.71393424
48	0x3f7571fa	0.9587704
49	0x3f307ea0	0.68943214
50	0x3f79d251	0.9758654
51	0x3f8c9f57	1.0986127
52	0x3f623d1a	0.88374484
53	0x3f556517	0.83357376
54	0x3f309b88	0.6898732
55	0x3f8a9b2d	1.0828606
56	0x3f898eb8	1.0746679
57	0x3f632c6f	0.88739675
58	0x3f86f143	1.0542377
59	0x3f207bc5	0.6268886
60	0x3ed646f7	0.41851017
61	0x3f9f3edd	1.2441059
62	0x3edb022a	0.4277509
63	0x3f73f5a9	0.9529672

encoder_layers.6.bias f4 [64]
0	0x3e266cda	0.16252461
1	0xbc8883a0	-0.016664326
2	0x3d3065bf	0.043065783
3	0xbf45c01b	-0.77246255
4	0xbece209e	-0.4025926
5	0xbf0e2082	-0.55518353
6	0xbee0ea4b	-0.4392875
7	0xbf8edc42	-1.1160967
8	0x3e339526	0.17537364
9	0xbe148b62	-0.14506295
10	0xbd18a74e	-0.03726893
11	0x3e6028a3	0.21890502
12	0x3e73d720	0.23812532
13	0xbe8583c4	-0.26077092
14	0x3cbaddab	0.022810778
15	0xbe849d9a	-0.2590149
16	0x3e1057e5	0.14096029
17	0xbe94dddb	-0.29075512
18	0xbe15a4f9	-0.14613713
19	0xbecb9be1	-0.39767364
20	0xbe9e0435	-0.30862585
21	0x3eaf89dc	0.34284866
22	0xbdf59e1d	-0.11993048
23	0xbf834bfe	-1.0257566
24	0x3e98678f	0.2976651
25	0xbedc1513	-0.42984828
26	0xbdb6c772	-0.0892476
27	0x3c02b7f1	0.007978425
28	0x3f1c17ce	0.60973823
29	0x3e84c7eb	0.25933775
30	0xbcebbb32	-0.028775785
31	0xbe0e6e56	-0.13909277
32	0xbf772c78	-0.9655223
33	0xbf89f3cd	-1.0777527
34	0x3e6279e7	0.22116815
35	0xbd272a1d	-0.040811647
36	0xbf841694	-1.031939
37	0xbe4ed926	-0.20200023
38	0xbe91fbec	-0.28512514
39	0xbf213491	-0.62970835
40	0xbd2f9af9	-0.042872403
41	0x3d7a846c	0.061161444
42	0x3e18c08c	0.14917201
43	0xbceff563	-0.029291814
44	0x3b9c7103	0.0047742142
45	0xbf0555f5	-0.52084285
46	0xbe9abec7	-0.30223677
47	0x3e919f0b	0.28441653
48	0x3d9ac9b1	0.07558001
49	0xbf994080	-1.1972809
50	0xbe8d3212	-0.27577263
51	0x3dc96b91	0.0983497
52	0xbd8a7a3a	-0.06761594
53	0x3f043883	0.5164873
54	0x3d489246	0.048967622
55	0x3d31aed9	0.04337964
56	0x3dc2e791	0.09516824
57	0x3e1aa96f	0.15103696
58	0xbe4b03cf	-0.19825672
59	0xbe0c7cf0	-0.13719535
60	0xbe683530	-0.2267654
61	0x3e46eb3e	0.19425675
62	0xbe6f1792	-0.23348835
63	0x3ec868dd	0.39142504

encoder_layers.6.running_mean f4 [64]
0	0x4096c062	4.710984
1	0x4064d27f	3.5753477
2	0x3f5418d1	0.82850367
3	0x3fe88138	1.8164434
4	0x400cdc61	2.2009509
5	0x4014e46f	2.3264425
6	0x3f442c2b	0.76629895
7	0x40068c2d	2.1023057
8	0x3e0c8cd2	0.13725594
9	0x4038eef4	2.8895845
10	0x400e7225	2.2257168
11	0x40a5923f	5.1741023
12	0x401c9878	2.446806
13	0x3fe6b5a4	1.8024182
14	0x40153b45	2.3317425
15	0x4052c8b6	3.2935004
16	0x40683934	3.6284914
17	0x3f56f0d1	0.83961207
18	0x3ee1fb22	0.44136912
19	0x40199b92	2.4001203
20	0x4091ce11	4.5564046
21	0x3f142768	0.5787263
22	0x4093b502	4.6158457
23	0x3ffbfca7	1.9686478
24	0x3f5464b7	0.8296618
25	0x400de8c5	2.2173321
26	0x40218695	2.5238392
27	0x3f39e68c	0.7261741
28	0x3f450958	0.7696738
29	0x3f432612	0.76229966
30	0x3f9816ba	1.1881936
31	0x405482ad	3.3204758
32	0x3f3f3131	0.74684435
33	0x3fefa443	1.8722004
34	0x400ecb36	2.231153
35	0x3f43ca01	0.7648011
36	0x3ff77b06	1.9334419
37	0x4019eca2	2.405068
38	0x3ffe315b	1.9858812
39	0x4048bd85	3.1365674
40	0x40430b64	3.0475702
41	0x400c2edd	2.1903603
42	0x40d9c7c5	6.805636
43	0x3f3b0763	0.73058146
44	0x405517f7	3.3295877
45	0x400e4e19	2.2235167
46	0x3fcb1a30	1.5867367
47	0x3fc9b167	1.5757264
48	0x406af91c	3.6714544
49	0x40149b35	2.321973
50	0x3fd60f64	1.6723447
51	0x40020ab6	2.0319037
52	0x402860e7	2.6309144
53	0x3f2f7c90	0.6854944
54	0x3ed41820	0.41424656
55	0x403b8686	2.9300857
56	0x4062994a	3.540606
57	0x3fd80abe	1.6878278
58	0x3fa9fb83	1.327988
59	0x3f748912	0.9552165
60	0x3e82329e	0.25429243
61	0x3f816dec	1.011167
62	0x3f960aa4	1.1721997
63	0x3e850c68	0.25986028

encoder_layers.6.running_var f4 [64]
0	0x40cf17c0	6.471649
1	0x3ef5cc01	0.48007205
2	0x3ef7ac02	0.4837342
3	0x40867f93	4.203073
4	0x3f8c0254	1.093821
5	0x413468f6	11.275625
6	0x3e95089a	0.29108125
7	0x40ab090b	5.344854
8	0x3d85bb9f	0.065299265
9	0x3f333276	0.6999887
10	0x3e9d21a3	0.30689725
11	0x41167e4f	9.405837
12	0x3dcb06d0	0.09913409
13	0x4125f3e7	10.372046
14	0x3ecfea2d	0.4060835
15	0x4132e4f0	11.180893
16	0x3faf8864	1.3713498
17	0x402c4fd1	2.6923716
18	0x3e1b56a8	0.15169775
19	0x3f3542e2	0.7080518
20	0x406afa23	3.6715171
21	0x3f4d3f53	0.8017475
22	0x40882bbf	4.25534
23	0x4123a2ea	10.227274
24	0x3f569681	0.838234
25	0x4033b3ee	2.807857
26	0x3f4986a6	0.7872108
27	0x400972ea	2.1476388
28	0x3f7332b1	0.94999224
29	0x3fd34983	1.6506809
30	0x40cc5c27	6.386249
31	0x3f7624f5	0.9615014
32	0x3f6251c6	0.88406026
33	0x4092ea7f	4.591125
34	0x40166532	2.3499265
35	0x40838373	4.109796
36	0x4088a73f	4.270416
37	0x40417d3b	3.0232685
38	0x3ebd4973	0.369701
39	0x405048e2	3.2544484
40	0x3fa27770	1.26927
41	0x40e77a55	7.233683
42	0x415f61d7	13.961387
43	0x40312754	2.7680254
44	0x3f59e7b0	0.8511915
45	0x3f30cbbf	0.6906089
46	0x3df51fdf	0.119689696
47	0x3fc65029	1.5493213
48	0x4011adcf	2.2762334
49	0x414b6222	12.711458
50	0x40d4d5f4	6.6511173
51	0x3f667c1b	0.9003312
52	0x4119603a	9.585993
53	0x3f7bcc08	0.983582
54	0x3fcfe4e5	1.6241728
55	0x3fcd66c3	1.6046985
56	0x3ed21a9c	0.41035926
57	0x4081047b	4.031797
58	0x40785ec5	3.8807843
59	0x3ffdfbea	1.9842503
60	0x3f8ae592	1.0851309
61	0x405a76a0	3.4134903
62	0x4051084b	3.2661312
63	0x3e8748fa	0.26422864

fc_mu.weight f4 [32, 64]
0	0x3ce2ce5a	0.027686287
1	0x3dc8d95c	0.09807083
2	0xbd058afe	-0.032603256
3	0x3cd72366	0.026261996
4	0x3dc61d29	0.096735306
5	0x3c2052a5	0.009785329
6	0x3d9f2783	0.07771208
7	0xbcceb471	-0.025232526
8	0x3e51645e	0.20448443
9	0xbd518c2f	-0.05115908
10	0xbd4c3987	-0.04985955
11	0x3bf5fb4a	0.0075067626
12	0x3c4c00ac	0.012451332
13	0x3db3d567	0.08780938
14	0x3d516a1c	0.051126584
15	0xbc20c9e1	-0.009813757
16	0x3cfe7a35	0.031064132
17	0xbb8c02fd	-0.004272817
18	0x3e3729bc	0.17887014
19	0x3e14fb2c	0.1454894
20	0x3d22b01e	0.03971874
21	0x3e0a7aeb	0.13523452
22	0x3a1b9bd2	0.0005936
23	0x3d1759a4	0.036950722
24	0x3dfd6db5	0.123744406
25	0xbb0865bf	-0.0020812599
26	0xbdad449a	-0.0846035
27	0x3e45e2cb	0.19324796
28	0xbe4762c3	-0.19471268
29	0x3d9a0990	0.07521355
30	0x3d55310b	0.052048724
31	0xbcaa023d	-0.02075302
32	0xbc95508b	-0.018226882
33	0x3b1f02f0	0.0024263225
34	0xbc87db62	-0.016584102
35	0x3d388589	0.045049224
36	0xbc22fe59	-0.0099483365
37	0x3b92fe68	0.004485894
38	0x3d237b2b	0.039912384
39	0x3d57b6d6	0.0526646
40	0xbdada714	-0.08479133
41	0x3d010aab	0.031504314
42	0x3ce94d33	0.028479194
43	0x3cd6a1c7	0.026200188
44	0x3db971ba	0.09054895
45	0x3d5d8922	0.05408586
46	0x3d5ad50a	0.053425826
47	0x3d2f009f	0.0427252
48	0x3d688824	0.05677046
49	0xbc31c51c	-0.010850217
50	0x3dbf3a6c	0.09337315
51	0xbd9533f9	-0.072853036
52	0x3d0ae324	0.033908024
53	0xbe2c7672	-0.16842058
54	0x3da680ee	0.0813006
55	0xbc42c236	-0.011887124
56	0xbcf29a39	-0.029614555
57	0xbb4d799d	-0.0031353005
58	0x3d0b8f8f	0.034072455
59	0xbdde304e	-0.10849057
60	0x3d1acb0a	0.03779129
61	0xbc1b5a72	-0.009482013
62	0xbe2c634f	-0.16834758
63	0xba845076	-0.001009478
64	0xbd9c305e	-0.07626413
65	0x3e61abd3	0.22038202
66	0x3e8263f9	0.25466898
67	0xbe46ae0c	-0.19402331
68	0x3a28f5c5	0.0006445314
69	0xbd567e7b	-0.052366715
70	0x3ecdb97b	0.40180573
71	0xbcb1ddf1	-0.021712275
72	0x3bc93e84	0.0061414856
73	0xbdce20a0	-0.100648165
74	0xbe4b5be1	-0.19859268
75	0xbcd9f1e6	-0.026604604
76	0x3dc48ba2	0.09596945
77	0xbd0cb3ea	-0.034351267
78	0x3e751ea0	0.23937464
79	0xbe8cf00e	-0.27526897
80	0xbd4f40ec	-0.050599024
81	0xbee0bdd9	-0.43894842
82	0x3e464b90	0.19364762
83	0x3b8bb049	0.004262958
84	0x3c82d69d	0.015971476
85	0xbe00793d	-0.12546249
86	0x3d0baaeb	0.034098547
87	0xbe458d4b	-0.1929218
88	0xbd645f24	-0.055754796
89	0xbd4ddf1b	-0.050261598
90	0xbe41bab4	-0.18918878
91	0x3e53f62e	0.20699379
92	0x3e5f632c	0.21815175
93	0x3d4cf7e9	0.050041113
94	0xbdecc091	-0.115601666
95	0x3e012b48	0.12614167
96	0xbddea3a5	-0.108710565
97	0xbd93d825	-0.07218961
98	0xbd4534bc	-0.048145995
99	0xbe2fd115	-0.17169602
100	0x3ce58a83	0.02802015
101	0x3e47d697	0.19515453
102	0xbb905ad0	-0.004405357
103	0x3e8389c0	0.25691032
104	0x3e178627	0.14797269
105	0xbdd7d417	-0.105385
106	0xbd6a5cbe	-0.057217352
107	0x3db2b6d2	0.087262765
108	0xbe6201c6	-0.22070989
109	0x3c33b960	0.01096949
110	0x3ebf30f7	0.37342045
111	0xbd968768	-0.073500454
112	0x3e2e5dca	0.17027965
113	0xbe12c4d7	-0.14332901
114	0x3e1a7a4d	0.15085717
115	0x3e037580	0.12837791
116	0x3dd9246c	0.1060265
117	0x3e429481	0.19001962
118	0xbe4660a0	-0.19372797
119	0xbeb0601e	-0.34448332
120	0x3ca1654b	0.01970162
121	0x3c15b493	0.0091372905
122	0xbea7bf44	-0.32763112
123	0xbf0db69f	-0.5535678
124	0xbedb6adc	-0.42854965
125	0x3e75c652	0.24001434
126	0xbe92bbb2	-0.28658825
127	0xbc9dcffb	-0.019264212
128	0xbe7e6906	-0.24844751
129	0x3d768a84	0.060190693
130	0x3e06591d	0.13119932
131	0xbdb58968	-0.08864099
132	0x3dbf0b52	0.09328331
133	0xbcd8a76b	-0.026447019
134	0x3db159c5	0.086597
135	0xbe414509	-0.18873991
136	0xbcbc076f	-0.022952763
137	0x3e2be290	0.16785645
138	0xbd8df675	-0.069317736
139	0xbdfb3741	-0.12266398
140	0xbdb1df58	-0.086851776
141	0xbc9d7832	-0.019222353
142	0x3e5ce446	0.21571454
143	0xbdec96f0	-0.115522265
144	0x3da96773	0.082716845
145	0xbe4c9cde	-0.19981715
146	0x3e1ac23f	0.15113162
147	0x3d5b83fd	0.05359267
148	0x3c7c46ea	0.015397767
149	0x3d9a931f	0.07547592
150	0xbe067d47	-0.13133727
151	0xbd31e0b0	-0.04342717
152	0x3e3856ab	0.18001811
153	0xbdca74f3	-0.098855875
154	0x3e2f791d	0.17136045
155	0xbdff798b	-0.12474354
156	0x3d99590a	0.07487686
157	0x3e1f2976	0.1554316
158	0xbd6fccad	-0.058544803
159	0x3daae2ce	0.08344041
160	0xbe3afe16	-0.18260989
161	0xbe7098c0	-0.2349577
162	0x3d89d28d	0.067296125
163	0xbccea44f	-0.025224833
164	0xbe74d8a5	-0.23910768
165	0xbe9c73d2	-0.30557114
166	0xbd0a5fb2	-0.03378267
167	0x3d292437	0.041294303
168	0x3dfb58db	0.12272807
169	0x3de0d3cf	0.10977899
170	0xbe875e15	-0.26438966
171	0xbe85aa3f	-0.2610645
172	0xbe8b80bf	-0.27246663
173	0xbd8203d8	-0.063483894
174	0x3ddf7aed	0.10912118
175	0xbe88b978	-0.26704
176	0x3d120616	0.035650335
177	0xbe2ea219	-0.17054023
178	0xbe683179	-0.22675122
179	0x3b05e035	0.0020427827
180	0x3dc36c2b	0.09542116
181	0xbcb5cab8	-0.02219139
182	0xbb5c439a	-0.003360963
183	0x3d90209b	0.07037469
184	0xbd3dbe72	-0.0463242
185	0x3e01386f	0.12619184
186	0xbe4e23e5	-0.2013088
187	0xbe6ce390	-0.23133683
188	0xbdaa16bf	-0.0830512
189	0x3d752d27	0.059857514
190	0xbe0696bd	-0.1314344
191	0x3e150711	0.14553477
192	0xbd704ba3	-0.058665883
193	0x3d5fb3a1	0.054614667
194	0xbd8af238	-0.06784481
195	0xbe278009	-0.16357435
196	0x3b04140e	0.0020153555
197	0xbe2df2f6	-0.16987213
198	0x3d82c1f9	0.063846536
199	0xbe3b1c68	-0.18272555
200	0xbc88eed5	-0.016715446
201	0x3b8246e1	0.0039757346
202	0x3d796e6f	0.060896333
203	0xb9298ac6	-0.00016168793
204	0x3b4fef4a	0.003172832
205	0xbe7c2edf	-0.24627255
206	0x3e368c47	0.17826949
207	0xbc37ceb4	-0.011218715
208	0xbe1889cf	-0.1489632
209	0xbe8736a6	-0.2640888
210	0x3d77e120	0.06051743
211	0xbe23a66f	-0.15981458
212	0x3bd2e915	0.006436477
213	0x3d7b1e0d	0.061307956
214	0xbce0c69f	-0.02743846
215	0xbe083402	-0.1330109
216	0x3e01e8c6	0.12686452
217	0x3def9e22	0.11700083
218	0xbd6b6aba	-0.05747483
219	0x3d26cfa6	0.040725373
220	0x3e834cba	0.25644475
221	0xbd2d0f1b	-0.042250734
222	0xbe584c78	-0.2112292
223	0x3b84e425	0.0040555173
224	0xbcf36e10	-0.029715568
225	0xbe4a6788	-0.19766057
226	0x3e5718e8	0.21005595
227	0xbe203fdc	-0.1564936
228	0xbe386b4f	-0.18009685
229	0x3d5562fb	0.05209635
230	0x3c50ecc5	0.012751763
231	0xbe10cd0a	-0.14140716
232	0xbe2c265e	-0.16811511
233	0x3b9b5ee3	0.004741536
234	0xbd886a37	-0.06660884
235	0x3d533f96	0.051574312
236	0x3e5f6cbb	0.21818821
237	0xbcb9e136	-0.022690397
238	0x3d28fce7	0.04125681
239	0x3d54526b	0.051836412
240	0x3da24f2e	0.079252586
241	0xbdab63f8	-0.08368677
242	0x3dcc503b	0.0997624
243	0x3d5cd674	0.053915456
244	0x3df0b187	0.11752611
245	0x3e4b2ca9	0.19841255
246	0xbe91e371	-0.28493837
247	0x3d9bc948	0.07606751
248	0x3e88ad95	0.26694933
249	0xbdb7d66b	-0.08976444
250	0xbc8eeabd	-0.017445916
251	0xbe970471	-0.29495576
252	0xbec65ce1	-0.38742736
253	0xbd7a28a1	-0.061073903
254	0xbe5b15b6	-0.21395001
255	0x3e7bfa76	0.24607262

fc_mu.bias f4 [32]
0	0xbf2050b2	-0.6262313
1	0xbee426a9	-0.44560745
2	0x3d58f997	0.052972402
3	0xbf75683b	-0.9586217
4	0xbeb24ccd	-0.3482422
5	0x3f4b9adf	0.7953319
6	0x3ef54a2b	0.47908148
7	0xbe9fe1f1	-0.31227067
8	0x3d1910c5	0.03736951
9	0xbda62dde	-0.08114217
10	0xbde6a057	-0.11261051
11	0xbe309e96	-0.17247996
12	0xbe8ec81f	-0.27887055
13	0xbfe6b1c3	-1.8022999
14	0x3e40c781	0.18826105
15	0xbf8b97c4	-1.090569
16	0xbf5bfb9c	-0.859308
17	0x3f18d3fe	0.59698474
18	0xbe089c23	-0.13340811
19	0x3f0b47e0	0.5440655
20	0x3f48f596	0.78499734
21	0xbf20bc04	-0.6278689
22	0xbecebd20	-0.40378666
23	0x3f112856	0.5670217
24	0x3f098b57	0.5372824
25	0x3c254a95	0.0100885825
26	0xbf5d7b5c	-0.86516356
27	0x3d4fcca0	0.050732255
28	0xbe8e4fa2	-0.2779513
29	0x3df01df6	0.117244646
30	0xbf24a2b9	-0.64310795
31	0xbfcd24a4	-1.6026807
