v4_1k_batteries/bess_model_v6_fawkes.pt (torch, 138993 bytes, 63 tensors)

encoder_layers.0.weight f4 [128, 16]
00000000: 4aa7 8bbd 5699 c43d dc4a a3bb 47df 17be
00000010: 5601 2e3e 7b46 8abc e039 a33c 7321 5b3d
00000020: 8627 6bbd 8fa5 37ba 7d40 82bb c836 67bc
00000030: 950c 30be 54cb 0d3e 2d58 b03c fb4b 9abe
00000040: 84a3 ba3c 45cc 333e 52d9 eb3b 7ae8 74bd
00000050: c97e 38bd 8c5a df3b af5d 31bc 80bf 7eba
00000060: 90df 4abb 27a4 b3bb f97f 6c3b 374c e23c
00000070: 1014 1ebd 15ab df3e 5d95 93bb e31e 82be
00000080: e37d 5a3d fedb 353e f146 95bc e99f da3c
00000090: 40dc f9bd 2930 89bc 0d6b 3a3c 3abe 313c
000000a0: f4d0 bbbc d777 0e3c 9c97 5d3a d8e3 83bc
000000b0: 3e98 50bd 46e7 873d e6ad 373f 87f3 8ebe
000000c0: b50c 483d a305 0d3e b555 6a3b 677f 40be
000000d0: e2ac e8bd a353 3c3c b545 c9bc 68ed bebd
000000e0: 96f9 d13d 9d15 47bb ce98 8aba e429 a93a
000000f0: 57ee 503e 1b97 e43e e6c2 73bb 8a3c 09be
00000100: 5117 b53c e973 5dbd 3409 03bd 9f2d e8bc
00000110: 7106 7abd fa39 aabc d737 c6bc 3a42 d2bd
00000120: cca6 e13d 2311 413c 4e0f abba a964 44bd
00000130: 37c9 263e 07c4 083d a2ab ac3e 2558 b43d
00000140: 345c be3e 7ff7 8d3d fde3 1fbe d898 7abe
00000150: 4672 9cbd 3169 55bb 1982 a43d 649d 81bb
00000160: 29d7 843b 79d0 623b 4545 223b 21b6 993d
00000170: 395f f5bd 0763 98bd 9821 933c 356d 433c
00000180: 4812 063d 32b8 4b3d e97e e73b 1243 f03d
00000190: 5473 86bd 5bc7 073c e706 24bc ba86 25be
000001a0: e497 273e eeed 6cbb 7ad3 14bb b618 d0ba
000001b0: c7eb 89bd 51a6 8cbd 6567 5bbf 6cc9 4b3e
000001c0: 67f5 a53d f1c1 a13d a3d1 cc3c bc52 913e
000001d0: 7b35 0abe 0c90 033d 6d99 b9bd ab75 b23d
000001e0: ca1d 65bd 3603 10ba ab25 113c 8d87 95bc
000001f0: 3976 19bd 89a2 96be cd6b d33c 8735 013f
00000200: cb28 553d 3b24 433e f967 a53b dd8e 4d3c
00000210: 23e6 e1bd 903f 7a3b 08c5 83bb 663d 513d
00000220: 29e1 6dbd 01ef 73b9 7f5b c33b 350e e63b
00000230: 4ead 7fbd 15e8 e23e 9774 623b 4dae 18be
00000240: 6c22 baba d21e 15be 7e74 0bbb 60dd e93d
00000250: f5b1 153c 323c 69b9 32f0 473c e170 803c
00000260: 58da cfbc 90f3 03bb 6e51 4aba be3b 253c
00000270: 6e21 df3c bcd6 ebbe 9bba ad3b 5f0e 5d3e
00000280: 26f0 07bc b735 e43d 3b13 c1bc f2df 843b
00000290: b15a 8bbc cb3c cabc 1b48 9abc 099c 96bd
000002a0: b4ef 0d3d d4e2 fc3a 25a2 a7bb 4283 d2bc
000002b0: 1465 b1bd 37ea c73d 4999 823f f05f be3d
000002c0: d7b5 9a3e b15e 623d 09b0 bbbd ab1e c23e
000002d0: 6c69 39be d5d9 86bc bca0 95bc 73f9 17bd
000002e0: 132b d33d 22a0 173c a0c9 87bb 6a8d 66bd
000002f0: 218b 6d3d f3ec eebc b080 a8bc 7ccb 823e
00000300: ee26 3e3a 693b fcbb 64f7 61bc 5dbe 563c
00000310: 19f9 123b e94b 82bb 5940 0b3c e3d8 733d
00000320: 6b60 77bd fc24 e83b b8ce 3bbb 87ce 7f3c
00000330: 86bc 23bb f174 f03c 58f2 8d3e 6d13 0b3b
00000340: 9ea0 d1bc 4050 39be 0505 adbb 318a bf3c
00000350: 416a 703d 0f4c 173c 119d 40bc 08db b9bd
00000360: 14cd ca3d 51b7 af3b 9d76 6a39 5ed5 1ebc
00000370: b411 a63d 720b 07bd d4ef fd3e 6fc4 3d3d
00000380: 0239 f33c 3f4a 29bd 2913 15bc fd2a 173e
00000390: afe9 bdbd 0870 9039 2e01 02bc b0fd 313e
000003a0: 1769 24be 864a 17ba 0be7 33bc ee4e 86bc
000003b0: f0f4 0a3c 46aa 60bc 5206 a53e 85f8 ee3d
000003c0: e2f6 bf3c 7de0 77bd c644 023d 9654 d23c
000003d0: 311d e9be 0418 fb3c 80ef d43c 7520 ecbd
000003e0: 56d0 003e 3139 9fbb cf60 ae3b c6c8 e63b
000003f0: 065a 9f3d 94bc b53e 82ee 3bbd b43a 11bf
-0.06819017 0.09599559 -0.004983289 -0.14831267 0.16992697 -0.01687931 0.019925058 0.053498697
-0.05741074 -0.0007005566 -0.0039749728 -0.014112182 -0.171923 0.13847095 0.02152642 -0.30136093
0.022783048 0.17558391 0.0071975375 -0.05979202 -0.045042787 0.006816214 -0.010825559 -0.0009717867
-0.0030956008 -0.005482215 0.003608702 0.027624233 -0.03859335 0.43685213 -0.0045038895 -0.2541419
0.05334271 0.17759702 -0.018222304 0.02668758 -0.122002125 -0.016746597 0.011378062 0.010848576
-0.022926785 0.008695564 0.00084530725 -0.016099855 -0.05092644 0.06635909 0.7174972 -0.27920172
0.048840243 0.13771681 0.0035756652 -0.187986 -0.113611 0.01149455 -0.024569372 -0.093226254
0.10252683 -0.0030377873 -0.0010574104 0.0012906161 0.2040342 0.44646534 -0.0037195026 -0.13402
0.022105845 -0.05406562 -0.0319912 -0.028342066 -0.0610413 -0.020779599 -0.024196548 -0.10266538
0.11018142 0.011783871 -0.0013050826 -0.04794756 0.16287695 0.03339007 0.33724695 0.08805875
0.3717972 0.06931972 -0.15614314 -0.24472368 -0.076389834 -0.003256392 0.08032627 -0.00395553
0.0040539694 0.0034609123 0.0024760526 0.075054415 -0.11981053 -0.07440763 0.017960355 0.011927892
0.032732278 0.04973621 0.0070646894 0.11731543 -0.06564966 0.008287276 -0.010011411 -0.16164675
0.16366535 -0.003615256 -0.0022709058 -0.0015876505 -0.06734424 -0.0686766 -0.8570464 0.19901055
0.081034474 0.078983195 0.025002306 0.28383434 -0.13496964 0.032119796 -0.09062467 0.0871385
-0.055936612 -0.00054936425 0.008859078 -0.018253112 -0.03746626 -0.2942088 0.02580824 0.504723
0.052040856 0.1905679 0.005047795 0.012546268 -0.11030223 0.003818486 -0.0040212907 0.051083945
-0.058076058 -0.00023263322 0.005961835 0.0070207366 -0.062421136 0.4431769 0.0034554356 -0.1491024
-0.0014200932 -0.14562538 -0.0021279152 0.11419177 0.009136667 -0.00022243036 0.012203263 0.015678825
-0.02537267 -0.0020134188 -0.00077178224 0.010085044 0.02723762 -0.46062267 0.005301786 0.21587513
-0.008297002 0.11143058 -0.02356874 0.0040550167 -0.017011018 -0.024687191 -0.01883321 -0.0735398
0.034652427 0.0019293674 -0.0051157647 -0.025697354 -0.08661857 0.0976147 1.0203029 0.092956424
0.30216858 0.055266086 -0.091644354 0.37914023 -0.18106622 -0.016461292 -0.01826512 -0.037103128
0.1031095 0.009254487 -0.0041439086 -0.056287207 0.05799401 -0.02916572 -0.020569175 0.2554587
0.0007253726 -0.007697512 -0.013791893 0.01310691 0.0022426306 -0.0039763344 0.008499228 0.05953301
-0.060394686 0.007084487 -0.002865715 0.015613205 -0.0024984195 0.029352637 0.27723956 0.0021221295
-0.025589284 -0.18097019 -0.0052801394 0.023381324 0.05869508 0.009234442 -0.011756198 -0.0907498
0.09902397 0.005362429 0.00022360166 -0.009694425 0.08108845 -0.0329699 0.49597037 0.04632991
0.02969027 -0.041330572 -0.009098806 0.14762492 -0.09273087 0.0002754929 -0.007934852 0.1738193
-0.16055714 -0.0005771298 -0.010980378 -0.016395058 0.008481249 -0.013712471 0.32231385 0.11668495
0.023433153 -0.060516823 0.03180387 0.0256751 -0.45530084 0.0306511 0.025993109 -0.11529628
0.12579474 -0.0048591127 0.005321599 0.007042977 0.077808425 0.35495436 -0.045881756 -0.567302

encoder_layers.0.bias f4 [128]
00000000: b4f2 bb3d 4cf3 1c3f 5175 953c 40b8 313f
00000010: 9ac0 52bf 671a 0740 8c9d 323f 078b 153f
00000020: 63d8 343f 4d69 513f 05c8 87bd 938b e33f
00000030: 9cd7 dabe 14dc 4dbd aca4 34bf 8bdb 923f
00000040: f6ec 25bf f096 63be 235d e43e 7bf1 b93f
00000050: 54cb f33f 20a8 79bd b914 113f 5306 c43e
00000060: a70a 0140 e3c5 653e 3b75 23bd 5937 e5be
00000070: 3f50 103f a74c 173e 1769 fc3c 42e9 b73f
00000080: 79e5 2c3e 1027 f73e 7eee 3940 7715 1e3e
00000090: 751c 18bf f522 943f 28c4 753e ba68 303f
000000a0: bf97 1240 e89d d03f e232 37bf 8fb6 fe3e
000000b0: 4423 da3f 7974 b53f 83f3 c03c 1bbf febe
000000c0: 8773 12bf f15e 84bd 8aa9 813e 4a07 573d
000000d0: bcc2 05bf d0bc 713f d9b5 c13e e570 663f
000000e0: 8c99 7f3f d63b d73f 7547 60bc c2a6 1dbe
000000f0: ff7d a23e 60f0 19bf 890c 2e40 f6bb f63f
00000100: 7545 ce3f e5a8 2f3d dea4 493f 7469 693f
00000110: f359 f23f c90f de3e 9800 a33f 6b84 873e
00000120: 5668 373d 4bca 0140 25de 22bf b742 fdbe
00000130: aaf0 0840 4ce7 7fbc e321 6d3f c20a a6be
00000140: cad8 673f 2d76 333f 587b 143f c7ee 85bd
00000150: e3bb 52be fd71 5f3f 09f0 3c3f 7013 ee3e
00000160: 9d83 bcbe 19de 29bc 5f20 45be 8fa2 0e3f
00000170: fc2e 64bc e998 fe3e cf76 4e3f e48f 04bf
00000180: cbd1 593f 7015 f23f f88b fc3e 2b80 0ebd
00000190: d1b4 f23e 65dc 1640 44c9 fcbd fc9a df3f
000001a0: af4f 1a3f d409 0d3d 7155 fd3f cd72 363e
000001b0: 145c 0b40 23db 87be 76aa 343f fee2 a43e
000001c0: 3505 d43f b6ac c93e 638d 93be 3565 783e
000001d0: 36d3 4f3d 391e 03be 238c 343f a0f2 abbd
000001e0: 91bc 243e c4ce b73f 715f 1cbf 7494 1cbf
000001f0: d572 cebe 0efe c33f ad14 9c3f 5956 c93f
0.09177151 0.6130874 0.018244417 0.6942177 -0.82325137 2.1109865 0.6977165 0.58415264
0.7064268 0.818013 -0.066299476 1.777697 -0.42742622 -0.05025871 -0.7056377 1.1473249
-0.648147 -0.22225547 0.44602308 1.4526819 1.9046426 -0.060951352 0.56672245 0.38286075
2.0162752 0.22438769 -0.03990672 -0.4476879 0.56372446 0.14775334 0.03081183 1.436806
0.16884412 0.4827199 2.9051814 0.15437876 -0.5941842 1.1573168 0.24000609 0.689098
2.2905118 1.6298189 -0.71562016 0.49748656 1.7042012 1.417617 0.023553615 -0.49755177
-0.5720753 -0.06463421 0.2532466 0.052497186 -0.52250266 0.9442873 0.3783405 0.90016013
0.9984367 1.6815135 -0.013688912 -0.15395644 0.31736752 -0.6013241 2.719515 1.9276111
1.6114947 0.04288568 0.7876719 0.91176534 1.89337 0.43371418 1.2734556 0.26468214
0.044777237 2.027972 -0.63620216 -0.49464962 2.139689 -0.01561911 0.9262983 -0.32430083
0.9056517 0.70102197 0.5800071 -0.06539684 -0.20579486 0.8728331 0.73803765 0.46499205
-0.36819163 -0.010367894 -0.1925063 0.55716795 -0.013927218 0.49726036 0.8065004 -0.5178206
0.85085744 1.8912792 0.49325538 -0.0347902 0.47403577 2.3572018 -0.12343076 1.7469172
0.6027784 0.0344332 1.97917 0.1781723 2.177495 -0.26534376 0.705726 0.3220443
1.6564089 0.3938958 -0.28818807 0.24257357 0.050738536 -0.12804498 0.7052633 -0.083958864
0.16087557 1.4359975 -0.6108313 -0.6116402 -0.40321985 1.5311906 1.219381 1.5729476

encoder_layers.2.weight f4 [128]
00000000: 3617 213f 6b68 4a3f 91a6 d43e 5691 813f
00000010: 4638 c83e 249e 683f c4a1 603f 4e2c 9a3f
00000020: b21b 483f afb4 653f ae77 143f 48af f13e
00000030: ecd5 373f b219 123f 91bb 043f e9f6 433f
00000040: fa97 1a3f 5eb7 c53e 67b7 6f3f 1aa8 d53e
00000050: a590 7d3e e5dc 9a3f 35b9 a03e 215b 1b3f
00000060: fe29 643f 40f8 903f c119 473f 634f 1c3f
00000070: 1b6b 5f3f aa21 3c3f d10d 0a3f 19e3 113f
00000080: dae0 4a3f b5b9 623f cf6e d93e 7803 2d3f
00000090: 1866 1b3f 3c82 693f 2349 193f da67 603f
000000a0: 02d0 243f b09b c73d 36c0 1b3f 7d84 423f
000000b0: 1a20 fd3d 2f84 f73e 20ae fc3e c6d1 873e
000000c0: 2812 f03e f19b 093f bd96 503f 0b21 223f
000000d0: 0a38 413f 60a9 443f 0a39 b63f 5bcb 8a3f
000000e0: e9a2 cf3f 6b9a ae3e aa16 3f3f 8996 b13f
000000f0: 22a0 163f 5405 6a3f e6f9 5e3f 2a2d 523f
00000100: 7bc9 393f 25ba cc3e 750c 883f ba09 a23e
00000110: a8e2 7d3f 045a 863f e103 2e3f 7d09 313f
00000120: 88de 3e3f cbaa 073f cde6 6e3f 77c6 243f
00000130: d378 c33e f3d7 2f3f 6432 303f 084e 693f
00000140: a7cd 863f 65a7 233f b418 8e3f 809f 4d3f
00000150: 991e 203f a444 7c3f 6344 603f dd96 d23f
00000160: d786 243f 9b7e 4e3f a05e f13e b2f4 243f
00000170: fc29 dd3f fd3e 8e3f f625 323f 225c 533e
00000180: 77a0 763f 195e 013f db11 183f 150a 473f
00000190: 27a7 783f 5696 b13e 2d79 243f a86f bd3e
000001a0: b8ae 4d3f 4d06 153f 44d0 5d3f ac7d b13f
000001b0: b9b9 643f 5d2b 823e 4015 453f 2b29 9d3e
000001c0: aa7d 963e 36ec d23e 6a0b 503f 8549 8f3f
000001d0: 0518 8b3f 829e a73e f4a8 753f b43e 043f
000001e0: 6a9a 5a3f 7c30 5d3f 5c7f 823e ad9c 513e
000001f0: d2af 843e 5903 453f 3d18 0b3f a7bc 0e3f
0.6292604 0.7906558 0.4153333 1.0122478 0.39105433 0.90866303 0.87746835 1.2044771
0.7816726 0.89728826 0.57995117 0.4720404 0.71810794 0.5707046 0.51848704 0.7654863
0.6038815 0.3861646 0.93639225 0.41729814 0.24762209 1.2098662 0.31391302 0.60685927
0.89126575 1.132576 0.7777367 0.61058635 0.87272805 0.7348887 0.5392733 0.5698715
0.79249346 0.88564616 0.42467353 0.6758342 0.6070266 0.91214347 0.5987722 0.87658465
0.64379895 0.09746492 0.60840166 0.7598341 0.123596385 0.48343036 0.49351597 0.26527232
0.46888852 0.5375357 0.8148001 0.6333167 0.75476134 0.76820946 1.4236157 1.0843309
1.6221591 0.34102187 0.7464396 1.3874065 0.58838093 0.9141438 0.87100065 0.82100165
0.7257306 0.39985767 1.0628802 0.31648046 0.99173975 1.049622 0.6797467 0.691551
0.74558306 0.52994984 0.93320924 0.64365333 0.3817812 0.6868889 0.6882689 0.9113469
1.053151 0.639273 1.1101289 0.803215 0.6254669 0.9854224 0.8760435 1.645229
0.6426825 0.80661935 0.47142506 0.64435875 1.7278438 1.1112972 0.69589174 0.20640615
0.963386 0.50534207 0.59402245 0.7774976 0.97130054 0.3468501 0.642474 0.3699925
0.80344725 0.5821274 0.86645913 1.3866477 0.8934589 0.2542371 0.7698555 0.3069547
0.2939275 0.4119584 0.81267416 1.1194311 1.0866705 0.3273812 0.95960927 0.5165818
0.8539187 0.86402106 0.25487792 0.20469923 0.2591539 0.76958233 0.5433386 0.5575661

encoder_layers.2.bias f4 [128]
00000000: e4b5 34bd 607f 22bf a394 0d3d df2a 813e
00000010: 1c1b 473d 26f4 c53c e046 d8be 20aa 21be
00000020: f9e5 1d3e 1a73 3ebf 2a44 a3be ce8e 5abd
00000030: 1788 fbbd b244 b8be 7a66 c33d 7b08 6bbc
00000040: 0c94 11bd 08e7 8c3d a8ee ad3e 595b 94bc
00000050: 95ca 063e 6fe6 89be 11cc c53d 3f0e eebe
00000060: 3ace 863b 0846 c6be ce09 fabe 1006 153e
00000070: 9cd9 33bf fa40 93bb e27b 22bd 3dd3 003d
00000080: d1f7 20bf 8814 2d3e b677 67be bbc4 32bc
00000090: 7aa5 cbbd dc5d 39bf c08d 0cbd 03c2 31bf
000000a0: f43c c43c 2fd2 3b3d 1b5c 8e3c 6c4f 263e
000000b0: ca0b 8b3d d766 a8bb 1004 603d e06a 583d
000000c0: e3ac 91be 68b1 31be ad04 c83d 152a cebe
000000d0: 5666 193e 0ff2 d2be 9fda 85bd aba2 61bf
000000e0: 67d8 cebd 8a4f 69bc 8a54 ecbe 033d 11be
000000f0: 3b63 93bd fc4b 8b3e b873 743d 4967 b9bc
00000100: 25eb c63e f61f 4a3d b576 003d 49e0 c93d
00000110: ff3f d73c e1b0 eabc f3f7 a93e 4288 8cbc
00000120: 8b2f 1a3e 74ef 93be ed35 b23d bf6c f63d
00000130: 3e4b 4fbe 3fa7 ebbe 8b5d b7be f998 e53c
00000140: 9c96 65be d186 05bf 699b 09bf f641 ecbe
00000150: 3155 6e3e bd15 4e3f 624d 3a3e 2679 e03e
00000160: 5131 ca3c 5acb 02bf c79b 203e e006 08bf
00000170: e957 8ebe ae13 5b3e 5ad4 10bf a59f 6f3d
00000180: 3926 2fbf aace 54bc 1440 03bf 76ab 04bf
00000190: 18ab 4dbf adf6 e8bb 278c 473e e7c6 743b
000001a0: 9291 2a3f f22f 8e3c d8db 8abc f28e f1be
000001b0: 0651 cb3b 9ba1 063e a584 27bf 40b1 833d
000001c0: f68a 1f3e 005b a2be a859 4ebe 03a4 79bd
000001d0: 86f7 51bf d10e c13d a203 1f3f 20c6 3b3d
000001e0: ab57 2cbf ab3d 33bd 7f12 903d bd16 313d
000001f0: 2410 5e3d 48ca 6bbd bc63 cb3c 566c abbc
-0.044118777 -0.6347561 0.03456558 0.2522802 0.048609838 0.02416427 -0.42241573 -0.15787554
0.15419759 -0.7439438 -0.31887943 -0.053358845 -0.122818165 -0.3598991 0.0954103 -0.014345284
-0.03554158 0.06880003 0.33971143 -0.018109964 0.13163216 -0.2693362 0.09658063 -0.46495244
0.0041139396 -0.38725305 -0.48835605 0.14553094 -0.7025392 -0.00449383 -0.039668925 0.031451453
-0.6287814 0.16902363 -0.2260426 -0.010911162 -0.099436715 -0.72408843 -0.03431487 -0.69436663
0.023954846 0.045854744 0.017377904 0.16241235 0.06789358 -0.0051392126 0.054691374 0.0528363
-0.28452215 -0.17352831 0.09766517 -0.4026648 0.14980444 -0.412003 -0.06535839 -0.88138837
-0.10099869 -0.014240155 -0.46158248 -0.1418343 -0.07196661 0.2720641 0.05968067 -0.022632258
0.38851276 0.049346887 0.031363208 0.09857232 0.026275633 -0.028648796 0.33196983 -0.017154817
0.15057199 -0.28893626 0.08701692 0.120324604 -0.20243546 -0.46026036 -0.35813555 0.028027045
-0.22420734 -0.5215884 -0.5375276 -0.46144074 0.23274685 0.8050192 0.18193582 0.4384243
0.024681719 -0.5109154 0.15684424 -0.5313549 -0.27801445 0.21394226 -0.5657402 0.05850186
-0.684177 -0.012988726 -0.5126965 -0.5182413 -0.80339193 -0.007109484 0.19487058 0.003735
0.6662837 0.017356846 -0.016950533 -0.4717937 0.006204727 0.13147585 -0.65436774 0.06430292
0.15580353 -0.31710052 -0.20151389 -0.06094743 -0.82018316 0.09426654 0.6211492 0.045843244
-0.6732127 -0.043759983 0.07034778 0.043234576 0.05421461 -0.057565957 0.02482783 -0.020925682

encoder_layers.2.running_mean f4 [128]
00000000: 797b d13d 87bc 1a3f 80cb aa3e 1285 2e3f
00000010: 61ef f63a 11c5 0540 f2cd 533f 3637 163f
00000020: b0d4 313f 7164 553f 5689 c93e a98e e33f
00000030: 5b0e 5e3c c011 423e 7ca5 9e3b 3031 933f
00000040: e117 213d d69a 0b3e 8dfc e43e 1c14 ba3f
00000050: 43a4 3a40 8ac2 833e b62c 113f 2c87 4d3f
00000060: fda0 ff3f fa77 183f bc99 e13e 65d5 e43b
00000070: bb01 0e3f 0bae 7a3e 2eb5 5a3d e8c2 b73f
00000080: b509 683e 5bd8 f13e f64e 3940 7032 7c3e
00000090: 076e 233d d3b7 943f e34b c03e ebf2 2d3f
000000a0: b06a 1240 d0b1 1c40 3c3b 5b3c 319f f93e
000000b0: ae6d 2940 4acf b53f 0c7c 583e 5d33 633d
000000c0: 52e7 933d 38b2 f83e 1ce5 8b3e 845d 123f
000000d0: b15f fb3c 8294 803f be7c e13e 45bb 8a3f
000000e0: a568 7f3f 615b d73f 99fe bd3e 8e05 0e3e
000000f0: fd64 d63e 0bc0 d63c 1094 2d40 e130 f93f
00000100: 3e82 2740 cc53 be3e a087 523f 790f 693f
00000110: 9a7c f43f f0f2 e13e 5992 0540 822c b93e
00000120: 1ca5 f03e 3268 0140 7c8f 143c 8adb 173c
00000130: b363 0840 83bc b73e d8d0 7e3f 6a11 a73c
00000140: 06e9 6a3f 3de7 3b3f f4b6 373f caf8 ad3e
00000150: 0fe9 283c d991 613f 3a7e 393f 6b59 083f
00000160: d3fa 963e 44cc d53e 74b0 d23e f6f2 403f
00000170: 5e93 983e 3e7b f83e b44d 513f 101b 9c3d
00000180: f409 5d3f 4c69 f23f 4beb 223f 40a8 833e
00000190: b3fb ee3e 88e9 1640 e084 b73e 1a6e e13f
000001a0: 6dd7 1b3f 112b 823e 9c20 fd3f c39e 2b3f
000001b0: 7d13 0a40 fac1 533e db31 323f c065 1b3f
000001c0: 904b 2540 3c43 453f 007f 3b3e f690 803e
000001d0: bb5d d13d 2380 f83e 8325 363f 1558 133f
000001e0: 2401 723e e5a8 b73f 1ceb 5e3d 5241 013e
000001f0: e4c9 833d 7c26 c43f d4d4 9b3f acf5 ca3f
0.10228629 0.6044392 0.33358383 0.681718 0.0018839651 2.090153 0.8273612 0.58677995
0.6946516 0.83356386 0.39362592 1.7777911 0.013553227 0.18952084 0.0048415046 1.1499386
0.039329413 0.13633284 0.4472393 1.4537387 2.9162757 0.2573436 0.5670885 0.8028438
1.9971005 0.5955807 0.44062603 0.0069834464 0.5547139 0.24480455 0.053395443 1.4356356
0.22659953 0.4723538 2.8954444 0.24628615 0.039899852 1.1618599 0.37557897 0.6794879
2.2877617 2.4483528 0.013380822 0.48754266 2.6473193 1.4203885 0.2114107 0.055468906
0.07221855 0.4857347 0.27323234 0.57173944 0.030685278 1.0045321 0.44040483 1.08384
0.9976905 1.6824762 0.37108305 0.13869306 0.41873923 0.02621462 2.712162 1.9468042
2.6173244 0.37173307 0.822382 0.91039234 1.9100525 0.4413066 2.0870574 0.3616677
0.47000968 2.0219846 0.0090674125 0.009268651 2.1310852 0.3588601 0.9953742 0.020394046
0.91761816 0.73399717 0.7176354 0.33978873 0.010309472 0.8811317 0.7245823 0.5326144
0.2948824 0.41757405 0.41150248 0.7537073 0.29799932 0.48531526 0.8175919 0.07622349
0.8634331 1.8938384 0.6364028 0.25714302 0.46676406 2.3580036 0.35843563 1.7611725
0.6087559 0.25423482 1.9775577 0.67039126 2.1574395 0.20679465 0.69607323 0.60702133
2.582737 0.77055717 0.18310165 0.25110596 0.10222956 0.4853526 0.7115099 0.5755628
0.23633248 1.4348418 0.054423437 0.12622574 0.06434992 1.5324244 1.2174325 1.5856223

encoder_layers.2.running_var f4 [128]
00000000: dc57 933b 79be 943d 9c0f 923e 2da0 c63d
00000010: 9248 9339 45d2 6b3e 43c1 c13e a97f 103d
00000020: 1c66 a23d 7dc7 d03d de9a e53e c309 c93d
00000030: 2c05 413b e9a7 dc3d 8073 6c3a 9791 903e
00000040: 45e1 8b3c e012 873d 7e06 353b 33d8 e53d
00000050: 3728 5740 62f0 323e 979e 4b3e c17a b03f
00000060: 3e42 583e 306f ab3e f78c 0b3f 17b3 663a
00000070: 38bb 8b3d 548c 533d a044 163b 7777 123e
00000080: 7675 c33d af10 943d f2d2 3b3f 9b4e 4d3d
00000090: 69bd 8a3c 368b 963e fba9 ed3d e7ee a53d
000000a0: 1d58 593f d0b7 1540 f184 813b 4e4d 833d
000000b0: 8b31 2f40 15b9 a23d 4319 e53d 59d6 ea3c
000000c0: f430 243d e5c3 2c3f bd44 ed3c 9275 5b3f
000000d0: 465d 873b 4dff cb3e ef8d 813e e496 2a3f
000000e0: 1779 0d3e 5944 193e e770 c23e 586c 903d
000000f0: 41e0 f43d e817 1a3c 2bf6 503f d7ea 4e3e
00000100: ef3a 2c40 e582 af3e 1e9d b23e 54a4 233e
00000110: 1d7e 823e fc4c 223d 9cbb e03f 267e b33d
00000120: 0652 fa3e b580 b13e 5f74 dc3a 81f3 2f3a
00000130: 81c1 ce3e 1a40 b73e 967e d53e 0e31 863b
00000140: 3caf c33d 6fa3 0f3f 51e1 9e3e a040 ac3e
00000150: f2c0 023a 1b1e 9c3d 3a9e eb3d a41a f03d
00000160: 48ac 883e d16a f53e 173b 093f c3c8 763f
00000170: 4b82 603e 995c c43d 7980 923d 88c5 383d
00000180: 352e b93d 38f2 983e 2dcf 283f 9d8c 413e
00000190: e2f9 4f3d f0ad e23e 5fcd c93e 7895 0c3e
000001a0: 2023 243d fc1e 223e 5fe0 d83e 3c1d e73e
000001b0: 129c 9d3e d129 2b3e 8743 d23d 2b10 3f3f
000001c0: ad83 2740 73db 9c3f 9081 683d 3b30 fe3c
000001d0: 6b0a bd3c e7b3 343f e95c f63c 392c 333f
000001e0: 09e6 0b3d 9895 ae3e 6f97 cb3c 9a06 cc3d
000001f0: 69cc de3c 5e36 233e fbfd 0e3e d7f4 ba3d
0.0044965576 0.07262892 0.28527534 0.0969852 0.00028092094 0.2302943 0.3784276 0.035277996
0.07929632 0.10194299 0.44844717 0.09816315 0.0029452546 0.10774214 0.00090198964 0.28236076
0.01707519 0.06595397 0.0027622278 0.11222877 3.3618295 0.17474511 0.19884716 1.3787462
0.2111902 0.33483267 0.5451197 0.000880049 0.068228185 0.0516475 0.0022929087 0.14303385
0.09543888 0.07229745 0.7336875 0.050123792 0.01693602 0.29403085 0.11604687 0.08102208
0.84900075 2.339344 0.0039526154 0.06411229 2.7373989 0.07945458 0.11186459 0.028666662
0.040085748 0.6748641 0.028963441 0.85726273 0.004130992 0.39843217 0.253036 0.6663649
0.13815723 0.14967479 0.37976763 0.07051915 0.119568355 0.009405114 0.8162562 0.20206772
2.691097 0.34279552 0.34885496 0.15980655 0.25486842 0.0396242 1.7557254 0.08764295
0.48890704 0.34668508 0.0016819349 0.0006712005 0.40382007 0.35791093 0.4169814 0.0040952032
0.09554908 0.56108755 0.31031278 0.33643055 0.00049878575 0.0762293 0.11504789 0.11723831
0.2669394 0.47933057 0.5360579 0.9640009 0.21924703 0.09587974 0.071534105 0.045110255
0.090420164 0.29872298 0.65941125 0.18901296 0.050775416 0.4427333 0.39414498 0.13728893
0.04007256 0.15832132 0.42358682 0.45139492 0.30783135 0.1671517 0.10266786 0.74634045
2.6174119 1.225447 0.056764185 0.031028857 0.023076257 0.7058701 0.0300736 0.69989353
0.034154925 0.34098506 0.024852483 0.09962197 0.02719708 0.15938708 0.13964073 0.09128731

encoder_layers.4.weight f4 [64, 128]
00000000: 73b6 9ebb 1d56 833c 332b e3bd a3fd 97bc
00000010: e092 83bf 4fca 6d3c 80a7 133e d5d2 513b
00000020: 79dc 26bc a10c eaba 6103 d4bc 3228 c1bb
00000030: 1ade 31bd d782 1cbd 4136 bebf 82fa 083c
00000040: 7e0d 0fbd cbe8 aa3c 99cd 66bc 5b8b 393b
00000050: fb23 f83b 7c41 a03b 09ab 9abd 869a b9bc
00000060: bcec 8a3a 6ae7 803d fba3 94bc 21cf 55bc
00000070: 1e9c 9d3c 9fb6 913a 639e 9abc ef45 a5bc
00000080: f18f 4e3c 566c 43bc 86dd f13e 090b f7bb
00000090: 2c6e 8ebc 01bc 863d a781 4f3c 1e7b bd3b
000000a0: 7bd0 0c3c 054a 55bd d72b 16bd 6014 a83b
000000b0: 1fb4 a9bb 0969 c1bb aec4 c2bd 3693 a7bc
000000c0: f310 0bbd c3e9 63bd e5c6 d33a 082e 33bc
000000d0: eac1 a93d a78c 633e baff 4a3c c6c4 343d
000000e0: 8261 8ebb 5aac 7bbc dee7 89bc 762e 0c3b
000000f0: d9d2 31bb 3b49 e8bf 0ded ad3b d6c6 2dbc
00000100: 0bbb 283b 8fab f2bd 39b2 1bbc 9ea6 7bbd
00000110: 601e ad3c 150f dd3b 72a0 53bc 2f77 3fbb
00000120: 8719 b53a ad37 bb3e 0a74 6d3c 0d82 173e
00000130: d9b3 003f 21bd 9bbc 7bec 863e 5a17 153c
00000140: 4cea 3fbb be87 283c f93e fb3d 301a c0bc
00000150: 0a04 16bc 4a2f 91ba 80b8 82bc 94d7 85bb
00000160: fa9e 87bd b8ca 6fbc 2abf f9bd 427c b7bb
00000170: 92cf 0e39 0a42 d03b 1afc 9b3c 49a8 f0bc
00000180: 05e9 85bb c7aa 6abc c1d1 abbc a61f 9cbc
00000190: 93f8 853b 45bd 46ba d6fa c8bd 4719 003c
000001a0: 8160 cabb 8742 90bd eeb3 95bb 4603 5d3d
000001b0: 9706 9f3b eaa6 97bf 49e5 be3b ebc9 cebd
000001c0: c7d4 93bc 2f04 a3bc c4c9 89bd 22c2 a33b
000001d0: 6803 10bb 03c4 23be cacf 87bc c0c0 d9bb
000001e0: 35cf 4e3c 4beb a5bc 32aa 5c3c e7fb b0bc
000001f0: f6ce a0bc c98e bd3a 6b70 b7bb bfa4 ad3c
00000200: f78e 983b 609c 99bc c14a bfbc b861 283c
00000210: 7947 c03d db31 b539 40de bcbc c042 df3b
00000220: 914d 953c c9d7 efbb b30e 9c3d 0619 f1bc
00000230: 23eb 5b3d 8279 003d 0b26 f33d a81e 84bb
00000240: 586d bc3d 86b2 cfbb 098a 2a3c d976 3c3c
00000250: d2d9 54bc 06b3 733b 3ec8 693d 4f91 1d3e
00000260: 4682 21bc 97d0 0dbd 8375 953d b2dd 0e3d
00000270: 35c9 15bc a332 1fbd a4f6 37bc c9e2 73bc
00000280: 1e9b 1e3c 274a 983a 2ad6 06bd 7fec 4fbd
00000290: ac69 ff3c 0c2c 1fbc b3e9 6abd a93b be3c
000002a0: e64d 313c fcb4 1f3b 29cd e53d 482e 113c
000002b0: a140 f2bc f9c3 e1ba 1396 1b3c 6140 5c3d
000002c0: fa3e d4bc f6b3 ac3d 7de1 6dbc 3d08 163e
000002d0: fa4c dabd f432 acbc 2366 5b3c b56c dfbc
000002e0: bab7 3d3b ec29 543c 5864 9a3d 2c13 e83b
000002f0: 690f 31bd e05b df3c 918d 35ba 8073 36bc
00000300: 4ec2 ec3c aa13 c6bc 36f0 e5ba e24c 5c3d
00000310: 48a6 333c c752 08bd 52b3 f0bb 992b 26bd
00000320: 1820 e13b 18b3 cb39 b00c 833c f596 8cbd
00000330: f2fd a0bc 7950 883d cf65 afbc d8ef 563b
00000340: ce0d 9dbc 6db4 073e 9a42 46bc 7deb 623d
00000350: 4cad 483c a442 5a3c 981f 1eba eb9e b939
00000360: d5df 2c3b fd4f 963d 345e 013d e885 4b3e
00000370: 2afa 663a 65d6 0f3b 0b40 883c 8bc7 113d
00000380: 49c3 c73c dc8d 7f3b 222d 593e 799c ae3c
00000390: e533 d1bb 4807 1fbc f65a ca3c 857d 073d
000003a0: 5967 6c3c fc6f 32bd 484e 0b3b ab9d d7bc
000003b0: 611f c83b 7382 263c c604 0d3c fa23 ae3b
000003c0: 5abe c7ba f4ed 4b3e bb00 7dbd 0539 443b
000003d0: c0df 963b a371 b63c de59 3c3c 1716 76bb
000003e0: 7a9b 13bc 1022 083b f2f2 6e3c 55db 273c
000003f0: 232b edba 9b50 98bb 28be a3bb 6df5 5abc
-0.004843527 0.016032273 -0.11092224 -0.01855356 -1.0279198 0.014513566 0.14419365 0.0032016535
-0.010184401 -0.0017856547 -0.025880517 -0.005894684 -0.043424703 -0.038210716 -1.4860307 0.008360507
-0.034924977 0.020862957 -0.014087104 0.0028311822 0.0075726486 0.004890619 -0.075521536 -0.02265669
0.0010599117 0.06294139 -0.018144598 -0.013049872 0.019239482 0.0011117047 -0.018874353 -0.020174948
0.0126075605 -0.011927685 0.4723932 -0.0075391573 -0.017386518 0.06578828 0.012665189 0.005782499
0.0085946275 -0.052072544 -0.036662903 0.005129382 -0.005178943 -0.0059024137 -0.0951017 -0.020455938
-0.03395171 -0.055642854 0.0016157298 -0.010936268 0.08288939 0.22221623 0.0123900715 0.04413297
-0.00434512 -0.015360916 -0.016834196 0.0021389998 -0.0027133732 -1.8147348 0.0053077997 -0.010606488
0.0025746252 -0.118491285 -0.009502941 -0.061438195 0.021132648 0.0067461827 -0.012916671 -0.0029215326
0.0013816812 0.36565915 0.014492998 0.14795704 0.50274426 -0.019011082 0.26352295 0.009099806
-0.002928394 0.01028627 0.122678705 -0.023449987 -0.009156236 -0.0011076715 -0.015957117 -0.004084537
-0.06622119 -0.014635734 -0.12194665 -0.0055995295 0.00013619501 0.0063555287 0.01904111 -0.02937712
-0.004086616 -0.014322943 -0.020974042 -0.01905806 0.0040884702 -0.0007581304 -0.09813468 0.007818527
-0.006176055 -0.07043939 -0.0045685684 0.0539582 0.0048530805 -1.1847813 0.0058256728 -0.100971065
-0.018045796 -0.019899456 -0.06727937 0.0049975077 -0.0021974687 -0.15992741 -0.016578574 -0.006645292
0.012622644 -0.020253798 0.013468312 -0.021604491 -0.019629937 0.0014462109 -0.005598118 0.021196721
0.0046557146 -0.018751323 -0.023351075 0.010277204 0.09388632 0.00034560155 -0.023055196 0.006813377
0.018225463 -0.0073194248 0.07619991 -0.029430877 0.05369104 0.03136588 0.118724905 -0.004031975
0.09200543 -0.0063384203 0.010408887 0.011502945 -0.012991386 0.0037185564 0.05707573 0.15387462
-0.00985772 -0.034622755 0.07297804 0.034879394 -0.00914221 -0.03886665 -0.011228237 -0.014885613
0.0096805375 0.0011618779 -0.032919087 -0.05076265 0.031178318 -0.009715091 -0.05735178 0.023221808
0.010821795 0.002436935 0.11220772 0.008861132 -0.029571833 -0.0017224542 0.00949623 0.053772334
-0.025908936 0.08432762 -0.014519093 0.1465158 -0.10659213 -0.02102039 0.0133910505 -0.027273515
0.002894862 0.012949448 0.0753867 0.0070823636 -0.043227587 0.02726549 -0.0006925697 -0.011135936
0.028901245 -0.024179298 -0.0017542902 0.05378426 0.0109649375 -0.033282068 -0.0073455954 -0.04056892
0.006870281 0.00038852612 0.01599726 -0.0686473 -0.01965234 0.06655974 -0.02141085 0.0032796767
-0.019171622 0.1325242 -0.01210084 0.05540036 0.012248348 0.013321552 -0.00060319295 0.00035404353
0.0026378531 0.07339475 0.03158398 0.198753 0.0008811081 0.0021947857 0.0166321 0.03559069
0.024385111 0.0038994467 0.21208623 0.021314846 -0.00638436 -0.009706326 0.024701577 0.03307869
0.014428937 -0.043563828 0.0021256376 -0.0263203 0.0061072563 0.010162937 0.008607095 0.0053143473
-0.0015239224 0.1991499 -0.061768275 0.0029941213 0.00460431 0.022270983 0.011496035 -0.0037549788
-0.0090092365 0.0020772256 0.01458429 0.010245164 -0.0018094521 -0.004648281 -0.0049970336 -0.013364178

encoder_layers.4.bias f4 [64]
00000000: ba00 6a3f 90ba 5e3f 3910 c83f 72ef 0340
00000010: 19fd 403f 848b 863f ccc6 2040 6d1c b0be
00000020: 4899 cb3f c06f 2d40 8307 d13f 5b81 0b3f
00000030: 0c61 773f 13f9 5c3f 86c8 743f 629c 1340
00000040: 54d4 ca3e 6b78 3040 1102 ab3f 1c8c 7a3f
00000050: c92a 813f dacc 6c3f d302 f83e cda8 913f
00000060: 6504 e0bc a9a7 2140 cf7e fe3e d522 5e40
00000070: 41fc 3f3e 6137 023f 638f df3e a64a 4fbf
00000080: 2c9d 723f c3c2 8e3f 14da f53f 96da 7c3f
00000090: b9e6 0c3e 758a b33f 35ce 893f 5c07 2740
000000a0: 7ba6 2c40 f398 c63f 37df 5c3e 9b06 8c3f
000000b0: 5342 553f 89da 3d3f 7989 0040 3de2 e93f
000000c0: 5ead c33f 57ba 703f 9623 1540 1e40 ab3f
000000d0: 49a2 2b40 5739 383f 8f9c 82bc 18ac 273f
000000e0: bfab 2240 3654 6140 df89 233f 63f9 7c3f
000000f0: c865 963f f7da 3040 b168 9b3d 01f4 063f
0.9140736 0.8700342 1.5629951 2.0614896 0.75386196 1.0511327 2.5121336 -0.34396687
1.5906153 2.7099457 1.6330417 0.54494256 0.96632457 0.8631756 0.95618474 2.3064198
0.39615119 2.7573497 1.3360006 0.9787004 1.0091182 0.9250008 0.48439655 1.1379639
-0.027345845 2.5258582 0.49706122 3.470876 0.18748571 0.5086575 0.43664083 -0.8097328
0.94771075 1.1153187 1.9207177 0.98771036 0.13759889 1.4026629 1.0766054 2.6098242
2.6976612 1.5515426 0.21569525 1.0939516 0.8330433 0.74161583 2.0083907 1.8272167
1.5287282 0.9403433 2.330297 1.3378942 2.68178 0.71962494 -0.015943794 0.6549697
2.5417325 3.5207648 0.6388225 0.98818034 1.1749811 2.7633646 0.07588328 0.5271607

encoder_layers.6.weight f4 [64]
00000000: ca5a 853f 87b6 b03f 1954 853f 7adf f93e
00000010: fdd6 673f 4cf3 a53f 3a57 883f 91c9 233f
00000020: 48e8 a33f 4015 883f b702 833f 19e7 a43f
00000030: 8103 883f e8ca a63f 9332 9d3f 5697 823f
00000040: da93 633f ade2 863f 5bd1 803f 2f9b 7c3f
00000050: cf63 ab3f 5743 983f 39cf c93e e3f5 ad3f
00000060: ebef 533f 7a79 bd3f 2813 943f 34ee 923f
00000070: 1bbb 8d3f 3a4d a23f 080b 613f c1d4 293f
00000080: e1fb 9e3f 7f89 b63f 78e5 793f d77a 753f
00000090: cf9a 8e3f 08a3 9c3f c85c 953f c854 893f
000000a0: c4a0 863f 5565 8b3f c728 9c3f 591c 6f3f
000000b0: b5fb 903f c6b4 833f fc8e aa3f 9feb af3f
000000c0: 1acb 353f 30d9 b33f 254e 8e3f a506 833f
000000d0: fd08 963f a1ac 983f 517f 363f 4014 7d3f
000000e0: f791 533f de11 983f eb68 553f c652 a13f
000000f0: 4c36 7a3f df72 933f 72e3 ab3f 3746 9d3f
1.0418332 1.3805703 1.041629 0.48803312 0.9056242 1.2964873 1.065162 0.6397944
1.2805262 1.0631485 1.0235204 1.2883025 1.0626069 1.3030672 1.2281059 1.0202434
0.8889748 1.0537926 1.006389 0.9867429 1.3389834 1.189555 0.3941591 1.3590664
0.8278796 1.4802697 1.1568346 1.1478944 1.1072725 1.2679818 0.8790746 0.6634026
1.2420617 1.426071 0.97615767 0.95890564 1.1140994 1.2237253 1.166894 1.0728998
1.0517812 1.0890299 1.2199944 0.9340263 1.1326815 1.0289543 1.3324885 1.3743781
0.71013033 1.4050655 1.1117598 1.0236403 1.1721493 1.1927682 0.7128802 0.98859024
0.826446 1.1880453 0.8336322 1.2603385 0.977391 1.1519431 1.3428786 1.2287053

encoder_layers.6.bias f4 [64]
00000000: b687 43be 75d4 4cbf 4f77 b4bd 633a 1abc
00000010: 91ff 233d dceb 24bf 68bf b9bb 7626 01be
00000020: 3b09 26bf 351a 9bbd fa5c 74bc 4cf5 8e3e
00000030: 8122 29be 9bdb 4bbf 0024 90be 8335 573d
00000040: 8b83 03bd 73fc c23c a592 883e 4140 2ebf
00000050: 0c58 4dbf e99a a0be 7956 3bbd 5572 52bf
00000060: a62b 3dbd ed37 db3d 6c7f a63d 8978 1fbc
00000070: d51a 003f bb39 333f d843 9abd 9402 1fbe
00000080: 5675 bebe 300e 5dbf 496f 933b 9549 433e
00000090: 9580 893d c8c4 19bf b8c3 01bf b8b3 233c
000000a0: 83c3 ff3b 87ca 1ebd b629 233f 1a41 303e
000000b0: e63e 88be 1e12 01bf be4f 26bf 683b 30bf
000000c0: dc25 173d 56ac 5ebf ee5a f13c 7da5 afbd
000000d0: fd3b a03d 8f9f 2cbf 22f9 803e 45ea 08be
000000e0: 6114 dcbd 38eb c63c 5d8b c6bd 801f 45bf
000000f0: 8414 443e af14 d5be ffb3 393f 9aaa 6a3d
-0.19094738 -0.80011684 -0.08811819 -0.009413335 0.04003865 -0.6442239 -0.0056685694 -0.12612328
-0.64857835 -0.07573358 -0.014914745 0.27921522 -0.16517068 -0.79631966 -0.28152466 0.052541267
-0.03210787 0.023802018 0.2667438 -0.68066794 -0.80212474 -0.31368187 -0.045736764 -0.82205707
-0.046184205 0.10704026 0.081297725 -0.009733328 0.5004094 0.70009965 -0.075324714 -0.15528327
-0.37198895 -0.86349773 0.00449935 0.19071038 0.06713978 -0.6006589 -0.5068927 0.009991579
0.0078052892 -0.038767364 0.6373552 0.17212334 -0.26610488 -0.5041827 -0.64965427 -0.68840647
0.03690134 -0.86981714 0.029462304 -0.08576486 0.07823942 -0.6743097 0.25190073 -0.13370617
-0.107460745 0.024282083 -0.0969455 -0.7700119 0.19148451 -0.41617343 0.7254028 0.057291605

encoder_layers.6.running_mean f4 [64]
00000000: 6784 6a3f 581d 453f 1476 8c40 63bc 9440
00000010: 3f50 0a40 b209 2d3f 498c 8440 a7cf f83f
00000020: 6f8c 8c3f b869 6f40 03ce 3a40 f428 0a40
00000030: cc17 933f 224e 803f f825 583f 095a 3240
00000040: 95c0 8b3f eda1 6140 e640 0340 2490 0840
00000050: b0dc c43f 1316 563f 49f2 f13f 26fd 843f
00000060: 090c 3b40 fa12 8340 fc65 1040 9177 6c40
00000070: 2631 523e 536c 213f 7543 4840 57ca c73f
00000080: 6050 543f 7b36 9e3f cebb 6440 24e6 a73f
00000090: 223b 0340 8ec4 643f 521d cb3f 294d 2740
000000a0: 312f 3140 d346 e83f 6968 043f be6f bb3f
000000b0: 9efe 393f 795c 6c40 aa3d a63f f774 b73f
000000c0: e8d1 9140 c31e 803f db47 3740 4987 3240
000000d0: 4131 2940 cf21 0440 5cd4 5e3e d41f 2040
000000e0: b220 ae40 d2b1 8340 d785 383f 595e 0740
000000f0: 7170 b73f 1829 8040 66d1 ef3d d95c 2d40
0.9160828 0.769979 4.389414 4.6479964 2.1611478 0.6759292 4.1421247 1.943837
1.0980357 3.7408276 2.918824 2.1587496 1.1491637 1.0023844 0.84432936 2.7867453
1.0918146 3.5255082 2.050836 2.1337976 1.5379848 0.8362743 1.8902065 1.0389755
2.9226096 4.0960665 2.2562246 3.6947978 0.20526561 0.63055915 3.1291173 1.5608624
0.8293514 1.2360376 3.5739627 1.3117108 2.0504842 0.8936242 1.5868323 2.6140845
2.7685053 1.8146614 0.5172182 1.4643476 0.7265414 3.693144 1.2987568 1.433257
4.5568733 1.0009388 2.8637607 2.7895072 2.6436312 2.0645635 0.21760696 2.5019426
5.441491 4.1154566 0.72079223 2.1151335 1.4331189 4.0050163 0.117098615 2.708792

encoder_layers.6.running_var f4 [64]
00000000: ef31 703f 09e0 d73f e1b4 3041 b358 1240
00000010: 187e 833f 6538 893f 8803 b93f 73e3 1540
00000020: 6dc2 4440 e340 8b3f 4568 ad3f 0c00 9c40
00000030: 0720 bb3f fc02 3c40 349e 3f3f 7d48 813f
00000040: eaeb a03f ab46 893f 3ce9 9940 c384 1241
00000050: 88cc 9940 53e1 2a3f 1abd e440 d864 e73f
00000060: da1c 0542 1978 1841 805a 9f40 984f 313f
00000070: 1071 453e 3436 6e3f 258f 7f41 109a a940
00000080: f566 0f3f 36e9 0f40 2f33 8340 6e7e bf3f
00000090: 443a 8540 2b1b 0240 8305 f440 ad92 e63e
000000a0: 34e6 0a3f ab84 d83e 7a29 473f f5ff e63f
000000b0: 909c 0a3f dac1 2242 b62f 1740 7a9f b040
000000c0: f910 2140 53c3 3540 5964 913f c429 df3f
000000d0: 8213 583f c5e0 4841 00ba 213e 1d00 1540
000000e0: 1eb1 8f40 0ff3 523f 5872 c93f f0db 1341
000000f0: 0045 df3f e4e7 8a3f 4fc1 b63c 8fff e340
0.9382619 1.6865245 11.04416 2.2866638 1.0272856 1.0720335 1.4454203 2.3420074
3.0743668 1.0879177 1.3547446 4.8750057 1.4619149 2.9376822 0.74850774 1.0100247
1.2571995 1.0724691 4.809721 9.157413 4.806217 0.6675007 7.1480837 1.807765
33.278175 9.529321 4.9797974 0.69262075 0.19281411 0.9305146 15.972447 5.3000565
0.56016475 2.248609 4.099998 1.4960458 4.1633625 2.0329082 7.625673 0.4503378
0.5425751 0.42288718 0.77797663 1.8046862 0.54145145 40.68931 2.362287 5.5194674
2.516661 2.8400466 1.1358749 1.7434621 0.84404767 12.554875 0.1579361 2.328132
4.4903708 0.8240213 1.573802 9.241196 1.7442932 1.0852017 0.022308974 7.124946

fc_mu.weight f4 [32, 64]
00000000: f551 e1bc 5f22 a73c c9ff 613e 1fe7 023d
00000010: 082d d33e f2a2 013d 6883 80bd 6e6b 9abe
00000020: 2481 583d 77d8 89be 9940 60be 9bc1 66be
00000030: 8077 2cbd c355 b4bc c01e 91bd 71f1 833e
00000040: 624c 8cbe aa73 ef3d 293a c53c c2ab 07bd
00000050: ceac a83c 19f1 acbd d2e2 313f 8741 d63b
00000060: a6ef 603e c1c5 203e a75e c6be 55bb e63c
00000070: 111a 4dbe 7c27 56bd 2527 453e aa9b 1abe
00000080: 51bb e9bd 78e9 b3bb a82d 1d3e aa97 f1bd
00000090: 4ac3 c2be bd59 7e3d de04 aa3d e284 42bd
000000a0: 1ce2 14be d4a9 a5be 6731 9ebd ea1a c8bd
000000b0: 8da3 79bd c761 8c3d d5a9 503d 523e b63c
000000c0: cbe6 b1be c7aa 25bb 9405 263e a87f 8abe
000000d0: 15c4 aa3e 8236 833d 67fe 30be 4bac 7abe
000000e0: 4964 e83e 499d 433d 65ac 333e b905 2b3d
000000f0: 6546 18be 7b1d 24be e97e 23be 2423 bfbe
00000100: 72c3 9e3d f329 a1bd d9b7 88be becc 78be
00000110: d67b c3bd ac27 2dbe afd1 0abe 3b8f fb3d
00000120: 99d3 30be a498 e13e ae2f c43d a5fa 3e3e
00000130: 40bb b73d 4445 bdbd 5599 393d 0377 573e
00000140: 7229 85be 8078 343e 7981 643e 7e20 bbbd
00000150: 8348 55bd 4afa 033d b0f3 12bf bb66 cfbd
00000160: efd7 66be e78b 3cbe a01d 6d3e d946 1d3d
00000170: 5765 fd3d 1ff2 0a3d 61e4 47be dabb 923d
00000180: de88 c23c 06f8 b1bd ebbc 9bbd 7034 623d
00000190: d0b0 783e d72a 3ebe 790d 65be 5f9d 31bd
000001a0: 508d 7bbc 40a4 e8bd 1cde 853d 27bf a13d
000001b0: 94c5 8f3d 8754 84be 13a5 37be 2b9c 36be
000001c0: a013 343e 2098 bbbd 218b 3b3e 005b bc3e
000001d0: 96b8 f13d f2b5 2fbd 6715 bd3e f6d5 90bd
000001e0: 0f4e 49be 0017 45be ffa5 4dbe 8089 71bd
000001f0: 7cea 703d 5586 11be 16c5 323d bbdc 403e
00000200: 7ee8 993e d112 09be 6082 a43e afa7 763e
00000210: bd2b 423e b553 e63d 8b5a 4abe 4a38 35bf
00000220: d718 d83d f100 9fbc 797f 65bd 8111 143e
00000230: 8dbe a93e 2b3d 27be e7a9 973e 9fe3 953d
00000240: be76 1e3e e859 fbbc cdd9 4c3e 7b01 5abe
00000250: a338 46be 2ae3 873e 1087 893f cca7 2cbe
00000260: d153 c73e e5ac 883d 2658 b83c 9187 0abe
00000270: 6583 5f3d 6561 c93d f4bf 043f ddf7 1cbf
00000280: 29cb 9b3e 5651 40be 3397 ff3c f3e2 cbbc
00000290: fff3 13bc 101b b83d 0785 d63d e45c 2dbe
000002a0: 5c61 c63c efc5 29be 034e a43d 9b76 b23b
000002b0: c4e8 8e3e 8717 ca3d eedc a03d 9bde c83d
000002c0: 7fe4 c6be 583e 1ebe d091 993d e750 6ebd
000002d0: bb1e 353e 16bf 05be 07e2 033f dd6e 99be
000002e0: 9782 783d 952a dfbc 5172 073f 45f4 30be
000002f0: 4daf 05bd 63d4 12be a7b8 4ebe 2645 40bd
00000300: 1df3 8ebc df50 403d 434b 0cbe cde7 adbe
00000310: be21 b1be b063 ae3c 8c4e a3bd 043d cd3e
00000320: 8b24 ed3c 710c af3e 468d 57be 62ad 73bd
00000330: 97d9 efbc 2fe8 813d c69c 85bc d578 85be
00000340: 7f3e 88be a5cd b33d c841 043e e2c1 b23d
00000350: 4382 b03c a52b ce3b 02fc f2be 94f3 4e3d
00000360: fc12 1dbe bc8b aebd 4d77 95bd 1aa1 953e
00000370: 49ad 89bd 8207 f7bc ec3d a5bd 1e88 d53e
00000380: 3610 2fbb 6d2f 223d a063 9b3d e10b 413d
00000390: 6298 7dbd 73bb 143d b843 9d3c c994 673e
000003a0: 9173 82be d5ad 9b3e 114a 5cbd 1af7 303d
000003b0: de0b 243b 4bc2 6539 12a1 013d d7b2 023d
000003c0: f4b2 36be 2c99 1e3d 7d65 4ebe 2e00 603e
000003d0: 3218 9cbe 8e05 243d 34c1 8bbe dd8e 26bd
000003e0: 1704 09be d970 02be 09d7 eebd 5e81 d43c
000003f0: fd38 333d 233e 2abe f19d 47be dde4 cbbd
-0.0275049 0.020402132 0.2207023 0.031958696 0.41245294 0.031649537 -0.06275064 -0.30160087
0.052857533 -0.26922962 -0.21899642 -0.22534792 -0.04210615 -0.02201355 -0.07085943 0.25770143
-0.27402025 0.11691983 0.024075584 -0.033122785 0.020590212 -0.08444423 0.69486725 0.006538573
0.21966419 0.15700437 -0.3874409 0.028165499 -0.20029475 -0.05228375 0.19253214 -0.15098444
-0.11412681 -0.005490478 0.15349448 -0.11796506 -0.3803962 0.0620973 0.083017096 -0.04749001
-0.14539379 -0.3235613 -0.077242665 -0.097707585 -0.06094699 0.06854587 0.050943214 0.022246514
-0.34746394 -0.0025278793 0.16213065 -0.2705052 0.33352724 0.06406881 -0.17284547 -0.24479787
0.45389012 0.04775742 0.17546232 0.041753504 -0.14870603 -0.16026871 -0.15966381 -0.37331498
0.07752122 -0.07869329 -0.26702765 -0.24296853 -0.09545104 -0.16909665 -0.1355655 0.122831784
-0.17268218 0.44061768 0.09579407 0.18650301 0.08971262 -0.09241727 0.045312244 0.21041493
-0.26008183 0.17624092 0.22315015 -0.09137057 -0.052071106 0.032221116 -0.5740309 -0.10127016
-0.2254331 -0.18412744 0.23155832 0.038397644 0.12372845 0.03392231 -0.19520713 0.07164736
0.023746904 -0.08689885 -0.076043926 0.05522579 0.24286199 -0.1857103 -0.2236842 -0.04336297
-0.015353516 -0.11359453 0.065365046 0.078977875 0.07020107 -0.2584574 -0.17934065 -0.17833011
0.17585611 -0.09159875 0.18314792 0.36788177 0.11802785 -0.042898126 0.3693039 -0.0707206
-0.19658683 -0.19247055 -0.20082854 -0.05896902 0.05881737 -0.142114 0.043644987 0.18834202
0.3006019 -0.13386084 0.32130718 0.24087404 0.18961997 0.112464346 -0.19761102 -0.70789015
0.10551613 -0.019409629 -0.05602977 0.14459802 0.3315319 -0.16331927 0.29621813 0.07318806
0.15474984 -0.03068252 0.2000496 -0.21289627 -0.19357543 0.265405 1.0744343 -0.16860884
0.38931134 0.06673602 0.02250297 -0.13528277 0.054568667 0.0983303 0.518554 -0.6131571
0.30428436 -0.18781027 0.031200027 -0.024888491 -0.009030341 0.08989537 0.10474592 -0.16929966
0.024216346 -0.16579412 0.08022692 0.005446268 0.2791196 0.09867769 0.07854639 0.098080836
-0.38846204 -0.1545347 0.07498515 -0.058182623 0.17687504 -0.13061175 0.51516765 -0.29967394
0.060671415 -0.027241984 0.5290881 -0.17280681 -0.032637883 -0.14338832 -0.20187627 -0.046940945
-0.01744991 0.046952125 -0.13700585 -0.33965912 -0.34596056 0.02128777 -0.07973966 0.40085614
0.02894809 0.3418918 -0.21049985 -0.059491523 -0.02927856 0.06343114 -0.016310107 -0.2606875
-0.2661018 0.08779458 0.12915719 0.087283865 0.021546489 0.006291824 -0.47457892 0.050525263
-0.15339273 -0.08522746 -0.072981454 0.29224473 -0.06722505 -0.030154947 -0.08068451 0.41705412
-0.0026712543 0.03959601 0.07587361 0.04713047 -0.0619129 0.036311578 0.01919733 0.22615351
-0.25478795 0.3040606 -0.053781573 0.043204404 0.0025031487 0.00021911522 0.03164775 0.031908836
-0.17841703 0.038720295 -0.20155902 0.21875069 -0.3048721 0.04004436 -0.2729584 -0.04066359
-0.13380466 -0.1273836 -0.116621085 0.025940593 0.04375552 -0.16625266 -0.19493844 -0.099557616

fc_mu.bias f4 [32]
00000000: fdbc d13e f199 953e 47e8 d1bd 644d ffbe
00000010: 8f8f 393f b3bd 853f 0bda af3f 762a 09bf
00000020: 3a10 2d3f 7638 703f 5e62 1040 8098 893f
00000030: 950e 62bf dce8 f5bf eee5 d4bf e49b 1c3f
00000040: 456e 983e c659 4bbf 6e84 08bf c251 593f
00000050: 95fe 75bf 6212 e2bd daf4 00bf e69a 313f
00000060: 3d56 073e d859 ba3f d9cf 493f ea41 423e
00000070: cacf e0b9 76af 20bd 482b 59be 0d2e c93d
0.409645 0.2921901 -0.102493815 -0.49863732 0.7248468 1.0448517 1.3738416 -0.53580415
0.67602885 0.9383615 2.2560039 1.0749664 -0.883035 -1.9211688 -1.6632669 0.6117537
0.2977163 -0.7943386 -0.5332707 0.8489038 -0.96091586 -0.110386625 -0.50373614 0.6937698
0.13216491 1.4558668 0.78832775 0.18970457 -0.00042879424 -0.039229833 -0.21207917 0.098232366

fc_logvar.weight f4 [32, 64]
00000000: 93d9 d73c baad cc3c 0d6f 9d3c 9fb0 ff3c
00000010: f56e ef3c 8c82 f33c 5040 fb3a ccb0 80bc
00000020: a383 a43b 80b8 533c 5e5c 6e3c a620 103d
00000030: 8666 433d 7619 2c3d fb51 bd3c 04a1 593d
00000040: 1b3d c53d 48b5 af3c 5618 333d 05de 513c
00000050: 0d90 e13b edcc 3b3d 7a36 c2bc 0f98 f63c
00000060: fa5a 0bbc 85b5 493b 1cab 3b3d 8ebe 013d
00000070: 1e08 0e3d d1c8 093d 5317 5dbc c88a 583d
00000080: b62b 1f3d 828e ab3c 86bc 8f3c 059e 853c
00000090: 94c8 183d 2507 c6bb 11ce fa3c 0a54 fbbc
000000a0: f42e 42bc cd44 ec3c 2c33 243d 7d0d e33c
000000b0: 734d f33c 5ff3 27bb c1d3 b13c fe05 7c3c
000000c0: f877 843b 2fb3 8c3c cf19 ca36 bafd 163c
000000d0: 73c4 6a3c 415c 4e3d 4bde 053d d999 793c
000000e0: e8e3 6d3c 44d5 9dbb f909 0c3d 5d27 1e3d
000000f0: b82f 9e3a 1298 503c 0c2f 00bc c056 d73c
00000100: 3e42 8d3c 24cb 1f3a 8da4 363d 1265 853b
00000110: c91f d639 dfa6 2b3c b9ef 093d efe1 e93c
00000120: 509a 463c f4d9 c53a a80c 4cbc d770 9c3c
00000130: 0e80 a03c 9d3c ce3c ca4d 26bc 4568 3e3c
00000140: 33e5 a53c a0f4 823c 912c 3d3d eeaa 88bb
00000150: af7d 463c 0eb2 03bd be46 343d c15e f33c
00000160: 7b67 773d b44d b73c 27f4 3e3d c42c 7a3c
00000170: df55 523c de3c ac3c e5e5 403d 84c2 223d
00000180: 522a f3bc b466 ca3c 4594 653c cb83 3c3d
00000190: b6de 0f3d fb1c 243d b270 053d 4148 98bc
000001a0: e93e 653c 3bc3 223c afb4 e13c 1a0d 363d
000001b0: f0cf 93bb 730c b73c bf8c e93c bae9 16bb
000001c0: 40ee bc3c d574 ba3c 4ab5 30bc 5114 0b3c
000001d0: 08fc a33c 948a 87bb a2ec 1f3e 32a8 c23b
000001e0: 1484 92ba 9c47 a13c 38c3 803c 909c bf3c
000001f0: c948 3c3d 971e a0bc 526b 943c e429 553c
00000200: c98f 393d 6f0f a23c 5d6e 8a3c d8e7 fb3a
00000210: a3da 953c 1f73 50bc 903b eb3b 71b5 633d
00000220: 5409 28bc cd3a 77bc 4496 05bd e529 6f3d
00000230: e25c 6a3d 28fe e13c 221e d53b 855e 19bc
00000240: 5e49 4a3d 6c6f 123d e5c4 993d 7819 84bb
00000250: 55a0 233d ca61 2abc 6fbe 133e 3f4b f33c
00000260: 4c1f d83d b045 963d e284 473d eda7 b33b
00000270: 1812 f43c d765 d43c fb3a 933d 9ebd 2e3e
00000280: c71d 15bd 5820 ca3b 3e78 163b 3d11 4f3c
00000290: df36 c43c e7c8 1c3c c3ad 923b 94b5 96bc
000002a0: 0f7b bfbc a69d 5d3b 624c 823c 5431 893c
000002b0: 7cc5 ac3b 6bf5 de3b d0c5 413c 2204 5cbc
000002c0: c1f3 4d3d 0031 903c f716 02bb 0e11 8bbc
000002d0: 86cb 6c3c 2ae8 0e3d 27c6 853e ad22 28bd
000002e0: 9bd0 143d 2138 843c 01d1 6a3d 4141 e63c
000002f0: 365a 043d db15 74bd 84d1 d23b 976d c03c
00000300: ff61 003d ad9b 7a3c a3fd 103d 6b7b f23c
00000310: 29fc 7c3c 03d0 143c b622 68ba f7df e7bc
00000320: d8b6 9f3c d533 763b deea 043d 4624 773b
00000330: 6c89 e43c 780d 9c3c 3d34 a93c 8f05 133d
00000340: 8b86 823d 5e46 83ba ca85 413d b6e4 443c
00000350: 2f58 043c ba7f 4b3c b366 84bc 2225 553c
00000360: d973 333d cd9e eebb be19 a43b 8ce6 9cbb
00000370: 9692 0dbb 70de 51bc f242 0a3d e165 743d
00000380: 8962 f03c 5342 0c3d b62d 463d 5b6a cd3c
00000390: dc3e 203c d632 f53b e1e8 963c 36b6 353c
000003a0: d534 8b3c f9ec 163d 8323 183a 7801 463d
000003b0: d564 993c 5ff7 f5bb 6de9 a63c 793e f2ba
000003c0: 95eb 033a 3b60 303c f8c5 163c 5184 5f3c
000003d0: 651d d93c 1123 f73c e67c 3e3c 6cfc 9d3c
000003e0: 5d7f 0b3d e78a d43c 1da7 7e3c b570 c63c
000003f0: 00b3 e53c 2e37 823b e083 3f3d cd3a a93b
0.026348865 0.024985183 0.019217992 0.03121215 0.029227713 0.029725336 0.0019168947 -0.015709303
0.005020575 0.012922406 0.014548389 0.035187386 0.047705196 0.04201647 0.02311038 0.053132072
0.096307956 0.021448746 0.04372438 0.012809281 0.0068836273 0.04584973 -0.023707617 0.030101804
-0.008505577 0.003077836 0.04581748 0.031675868 0.03467571 0.03363878 -0.01349433 0.052866727
0.038860045 0.020941976 0.01754595 0.016310701 0.03730066 -0.006043332 0.030615838 -0.030679721
-0.011852015 0.0288414 0.040087864 0.027716393 0.029700017 -0.0025627238 0.021707417 0.015382288
0.0040426217 0.017175285 6.0230736e-06 0.009215767 0.014329064 0.05038095 0.0326827 0.015234434
0.014519669 -0.004816683 0.0341892 0.03861176 0.0012068665 0.012731569 -0.007823717 0.026286483
0.0172435 0.0006095639 0.04459052 0.0040708864 0.00040840943 0.010476797 0.033675883 0.028550116
0.012121752 0.0015094862 -0.012454189 0.019096775 0.019592311 0.025175387 -0.010150382 0.0116215395
0.020250892 0.015985787 0.04618508 -0.004170767 0.012114926 -0.032152228 0.044012778 0.029708268
0.06040142 0.022375919 0.04661956 0.015269462 0.012837856 0.021025117 0.047094245 0.039736286
-0.029683266 0.024707176 0.014012401 0.046024125 0.035124503 0.0400667 0.032578178 -0.01858914
0.01399205 0.009934242 0.027551977 0.04444609 -0.004510872 0.022344803 0.028509496 -0.0023027495
0.023062825 0.022760788 -0.01078541 0.0084887305 0.020017639 -0.004136393 0.15617612 0.0059404606
-0.0011178278 0.019687466 0.015718088 0.023390085 0.04596785 -0.019545836 0.01811758 0.013010476
0.04530314 0.01978275 0.016898328 0.0019218875 0.01829273 -0.0127227595 0.0071787313 0.055592958
-0.01025613 -0.015089703 -0.032614008 0.058389563 0.057217486 0.027587011 0.0065038363 -0.009360914
0.049386375 0.03575079 0.07508258 -0.0040313564 0.039947826 -0.010399291 0.14428113 0.029698966
0.105528444 0.073375106 0.04871071 0.005482665 0.029793784 0.025927467 0.07188984 0.1706452
-0.03640535 0.0061684065 0.0022959854 0.012638387 0.023951946 0.009569383 0.0044762804 -0.01839713
-0.023374109 0.003381589 0.015905563 0.016747154 0.0052725654 0.0068041584 0.011826947 -0.01342872
0.05028129 0.01760149 -0.0019850114 -0.016975906 0.014452821 0.034889378 0.2612774 -0.041048694
0.036331754 0.016140046 0.057328228 0.028107287 0.032312594 -0.059591155 0.0064336676 0.023489757
0.031343456 0.015295905 0.035398137 0.029599866 0.015440979 0.009082797 -0.000885527 -0.028305037
0.019496366 0.0037567515 0.03245055 0.003771083 0.02789756 0.019049391 0.020654792 0.035893973
0.06373318 -0.0010015478 0.04724673 0.01201742 0.008077665 0.012420589 -0.016162252 0.013009341
0.043811653 -0.007282114 0.0050079515 -0.0047882255 -0.0021602265 -0.012809381 0.03375525 0.05966747
0.02934386 0.03424294 0.048383437 0.025075128 0.009780612 0.0074828668 0.018421592 0.011090806
0.016992966 0.03684709 0.00058036315 0.048341244 0.018724838 -0.0075062956 0.020374978 -0.0018481753
0.0005032358 0.010765131 0.009202473 0.0136423865 0.026503274 0.030168088 0.011626458 0.019285403
0.03405701 0.02594514 0.015542773 0.024223665 0.028039455 0.003973863 0.046756625 0.0051644803

fc_logvar.bias f4 [32]
00000000: d947 16c0 b76a 2cc0 525c 1ac0 a70f 3ac0
00000010: 1190 3ac0 ca64 35c0 dd44 67c0 7167 22c0
00000020: e27c 30c0 526f 5ec0 39ce 23c0 6c96 2cc0
00000030: df0c 3bc0 3192 27c0 47d9 39c0 8178 4bc0
00000040: c25b 2bc0 6a56 0bc0 e752 20c0 25a5 5ac0
00000050: e110 3fc0 75ae 42c0 2d3c 25c0 7cf3 20c0
00000060: 18d9 3bc0 1d0c 2ac0 0a5f 25c0 9781 45c0
00000070: fe9f 23c0 bc26 36c0 b8e4 53c0 8348 3fc0
-2.3481352 -2.6940134 -2.4118848 -2.9072053 -2.915043 -2.8342767 -3.613578 -2.5375636
-2.7576222 -3.4755445 -2.5594618 -2.696681 -2.9226606 -2.6182978 -2.9038866 -3.17923
-2.6774755 -2.1771493 -2.50506 -3.4163296 -2.9854052 -3.041898 -2.5817978 -2.514861
-2.9351254 -2.6569893 -2.5839257 -3.0860345 -2.5566401 -2.8461142 -3.310835 -2.9888008
