v5_2k_batteries/bess_model_v6_fawkes.pt (torch, 138993 bytes, 63 tensors)

encoder_layers.0.weight f4 [128, 16]
-0.6810238 0.16264857 -2.3128648 0.24524188 -0.5621241 -0.01841745 0.0013378336 -0.008480016
0.03396313 0.029909128 0.00260953 -0.047006406 0.31679004 -0.6779105 -0.29739037 1.7179621
0.0035229207 0.17471436 0.0006105683 -0.08477752 0.0035121772 0.004762246 -0.0052777296 0.019068787
-0.010257321 0.0010042844 0.0020684877 0.0073411632 -0.07228776 0.48127714 -0.022481197 -0.28151152
-0.045199018 -0.18512094 -0.009840383 -0.025944171 0.1394262 0.064018905 0.013226371 -0.01425278
-0.0029174404 0.008510854 -0.0061945035 -0.04077515 0.0074901683 0.044595856 0.8500747 -0.17584988
-0.01603665 -0.20831889 -0.0018198682 0.033214286 0.05549673 -0.013195675 0.007977873 -0.028135404
0.045521107 0.009620554 0.008642943 0.018274333 0.10509549 -0.56965107 0.02748509 0.30871734
0.009377215 0.17449312 0.0021319934 -0.15506901 -0.042581063 -0.008660862 -0.0045367735 0.038550384
-0.02754414 0.002616976 0.009987195 -0.04016655 0.050211146 -0.04199541 -1.4381322 0.12602736
0.046410605 -0.08911969 -0.047058556 0.05182894 -0.10482519 -0.010537407 -0.023586994 0.0034031684
-0.005689899 0.008617861 0.0044743554 -0.059090503 0.18900579 0.0352271 0.5281498 0.14841703
-0.42494372 -0.28146628 -0.08340227 -0.28344586 0.9444131 0.08988672 -0.15541475 0.16410312
0.0039026383 0.039796785 -0.008545768 -0.18778737 -0.599234 0.1831631 0.47430456 -1.7734431
-0.03202483 -0.021133615 0.0047362233 -0.078359395 0.079173 -0.024327207 0.018786186 -0.010071488
0.012266723 -0.003954138 -0.0062437304 0.008435929 -0.0026886947 0.043156143 -0.63968045 -0.69831216
0.6161414 0.0037999812 1.7941973 -0.026695596 0.17922963 0.02440717 0.018647674 0.030988364
-0.021073537 -0.006708375 -0.016264139 0.043915883 -0.26895458 0.51526535 0.17035197 -1.0977043
-0.0022846712 0.07730522 -0.047427174 0.07782003 0.013441302 -0.0059384676 -0.012511431 0.0076967813
0.0076958057 0.0044662254 -0.0032816848 -0.08194859 -0.1665525 0.057756312 2.394119 -0.12431217
1.5669187 -0.101208776 -1.0747393 -0.0074536144 1.801704 0.15430348 0.03498954 -0.06393364
0.0055004903 0.06093259 -0.049174145 -0.12651044 -0.50301176 1.2366878 -0.010703215 -2.0841532
0.0026594484 0.13468444 -0.034552295 -0.020523334 -0.052355677 0.011508554 -0.019709539 0.13805225
-0.1297354 0.0005717811 0.019726388 -0.0272135 -0.03614141 0.030370234 0.73780876 0.11419475
0.014892596 -0.2206855 0.0038500687 0.13820417 -0.03280363 -0.0032135074 -0.01838145 0.0404186
-0.014686318 0.006479177 0.00039780984 0.0065271454 0.16691124 -0.00795237 0.058780473 -0.016693313
-0.011254576 -0.08182536 0.00093624566 0.004706229 0.026339568 0.003123607 -0.012558047 -0.009412014
0.0007689377 -0.0020079645 -0.00093467353 -0.012400737 0.04444783 -0.5993301 -0.00032368433 0.2794224
0.00026376382 0.2192229 0.008557631 -0.09959118 -0.000731118 0.0029879143 0.01074898 0.005156623
-0.013417035 -0.009563939 0.0012661595 0.016933097 -0.11755811 -0.67916465 0.003164131 0.37855402
0.0019526645 0.033345286 -0.032261606 0.023251494 -0.04296764 0.019320458 -0.01785183 0.01862226
-0.03259211 0.0031133494 0.0013248343 -0.02124669 -0.0020768095 0.024702586 0.7673083 0.11121785
00000000: 9357 2ebf 598d 263e fa05 14c0 b020 7b3e
00000010: 5de7 0fbf 31e0 96bc 3f5a af3a c4ef 0abc
00000020: ec1c 0b3d fd03 f53c a604 2b3b ca89 40bd
00000030: 4e32 a23e 8b8b 2dbf 8d43 98be 2fe6 db3f
00000040: cde0 663b 52e8 323e 8c0e 203a d69f adbd
00000050: 8e2c 663b 9d0c 9c3b cef0 acbb 2536 9c3c
00000060: 530e 28bc 31a2 833a 778f 073b 248e f03b
00000070: 9b0b 94bd f569 f63e 7d2a b8bc 4722 90be
00000080: 9b22 39bd 5890 3dbe 8f39 21bc df88 d4bc
00000090: bec5 0e3e 581c 833d 6cb3 583c 7e84 69bc
000000a0: 8732 3fbb 1c71 0b3c 43fb cabb d803 27bd
000000b0: 1670 f53b 25aa 363d 7f9e 593f fe11 34be
000000c0: 4b5f 83bc 8c51 55be a588 eeba b40b 083d
000000d0: 8a50 633d ac32 58bc a0b5 023c 387c e6bc
000000e0: 5774 3a3d 879f 1d3c 219b 0d3c 0eb4 953c
000000f0: 4e3c d73d a7d4 11bf 6928 e13c 3310 9e3e
00000100: e4a2 193c 53ae 323e eab8 0b3b 69ca 1ebe
00000110: 7b69 2ebd 4ae6 0dbc 37a9 94bb 02e7 1d3d
00000120: 40a4 e1bc 9281 2b3b 55a1 233c ae85 24bd
00000130: 34aa 4d3d 6103 2cbd b714 b8bf 510d 013e
00000140: 0c19 3e3d 6284 b6bd 79c0 40bd 954a 543d
00000150: 97ae d6bd 17a5 2cbc 8339 c1bc b107 5f3b
00000160: 5572 babb ee31 0d3c 9d9d 923b e208 72bd
00000170: bc8a 413e 4b4a 103d d334 073f a2fa 173e
00000180: 3992 d9be 591c 90be cfce aabd d11f 91be
00000190: 0fc5 713f 8716 b83d 0b25 1fbe a60a 283e
000001a0: 68c3 7f3b f401 233d 8d03 0cbc 554b 40be
000001b0: 6667 19bf 1c8f 3b3e 0cd8 f23e 2f00 e3bf
000001c0: 782c 03bd 6720 adbc 5232 9b3b e47a a0bd
000001d0: 7425 a23d da49 c7bc 7de5 993c e202 25bc
000001e0: 5efa 483c b791 81bb 3598 ccbb da36 0a3c
000001f0: d034 30bb 7fc4 303d 19c2 23bf 96c4 32bf
00000200: 71bb 1d3f 1b09 793b 42a8 e53f b9b0 dabc
00000210: f987 373e 8cf1 c73c 02c3 983c 4fdb fd3c
00000220: 69a2 acbc eed1 dbbb 5f3c 85bc 24e1 333d
00000230: 6ab4 89be 6ee8 033f bf70 2e3e 9381 8cbf
00000240: 6cba 15bb 3352 9e3d ff42 42bd 1c60 9f3d
00000250: e838 5c3c 7a97 c2bb bffc 4cbc 4835 fc3b
00000260: 192d fc3b 6a59 923b 8911 57bb aad4 a7bd
00000270: bd8c 2abe e291 6c3d 3f39 1940 6197 febd
00000280: cb90 c83f 8c46 cfbd 0f91 89bf 733d f4bb
00000290: 3d9e e63f bb01 1e3e 3151 0f3d a4ef 82bd
000002a0: 753d b43b 7494 793d d46a 49bd f48b 01be
000002b0: 61c5 00bf c94b 9e3f 8a5c 2fbc c462 05c0
000002c0: 244a 2e3b b8ea 093e b586 0dbd 8d20 a8bc
000002d0: e872 56bd 608e 3c3c e675 a1bc 925d 0d3e
000002e0: 5bd9 04be 94e3 153a 3c99 a13c d9ee debc
000002f0: 0409 14bd ffca f83c 09e1 3c3f f0de e93d
00000300: 1300 743c 61fb 61be 6f51 7c3b 6585 0d3e
00000310: 195d 06bd b599 52bb b294 96bc f98d 253d
00000320: e29e 70bc 474f d43b 2291 d039 aae1 d53b
00000330: c8ea 2a3e a84a 02bc cbc3 703d 6ac0 88bc
00000340: 1d65 38bc 0e94 a7bd 626e 753a b636 9a3b
00000350: 14c6 d73c 6eb5 4c3b 44c0 4dbc d934 1abc
00000360: 8992 493a 0e98 03bb e104 75ba 762c 4bbc
00000370: ee0e 363d b36d 19bf 2db4 a9b9 7410 8f3e
00000380: c849 8a39 f87b 603e 4e35 0c3c 76f6 cbbd
00000390: 80a8 3fba e2d0 433b 7d1c 303c e4f8 a83b
000003a0: 20d3 5bbc 11b2 1cbc 43f5 a53a 47b7 8a3c
000003b0: 4ec2 f0bd bcdd 2dbf 4f5d 4f3b d5d1 c13e
000003c0: 8cf0 ff3a 1195 083d bf24 04bd eb79 be3c
000003d0: d6fe 2fbd f045 9e3c 003e 92bc b68d 983c
000003e0: 4e7f 05bd 5609 4c3b 10a6 ad3a 8a0d aebc
000003f0: 151b 08bb 145d ca3c 516e 443f 2fc6 e33d

encoder_layers.0.bias f4 [128]
7.273923 0.70759743 0.67367023 1.1813669 4.6869817 -1.1233863 1.3947244 0.03970902
6.538982 2.97938 11.186982 -0.68011665 0.11398938 1.2379664 -0.14828645 -0.668307
-0.4839477 -0.5387243 -1.0380707 4.907444 -0.0076972293 -0.12004924 -2.4904492 0.061893266
-1.4945565 7.6364717 5.6477723 6.7377815 0.80840594 0.07343387 0.9963859 3.8372998
0.5887176 1.1843978 3.4675324 5.004507 2.2097912 0.0069152247 -0.2301017 -0.6076396
1.3906872 -0.5074802 10.565849 0.7900121 -0.7055635 -0.05914384 -0.71684825 -0.6571381
-0.46838552 -0.9808125 1.1046724 -0.02476994 -0.7570639 0.92892206 -0.29722822 4.0015335
0.20476724 4.373867 -0.0067675943 0.68848807 0.7805998 1.2106044 -1.1663872 0.590845
7.078185 5.9199524 0.55753934 4.3410673 2.5782125 1.697047 0.90145254 -0.6282992
-0.7337507 1.026847 4.222278 6.315825 10.966179 0.028518863 0.042549312 6.4929647
1.1354411 -0.09436646 6.0531235 4.0679317 1.1713315 -0.8098417 0.53187776 0.6266772
-1.2110858 0.9700171 8.479716 1.1637391 -0.7521422 1.8970141 0.82879215 -1.0908904
0.66115046 -0.48201945 0.9210305 1.2553222 -0.9003789 1.0246778 -0.34426025 6.9026866
1.3237588 -0.48102844 0.12556665 0.83263874 -0.34906763 0.86896473 -0.089847 0.003509002
-0.39135182 -0.037439987 0.2660371 2.3727276 -0.32877642 2.3604074 1.4158384 0.7786531
0.9522667 -2.015203 7.60012 1.1780629 8.910877 5.328714 4.9757 6.0823956
00000000: fac3 e840 1b25 353f a775 2c3f 0837 973f
00000010: c1fb 9540 1fcb 8fbf 5486 b23f eda5 223d
00000020: 573f d140 29ae 3e40 e1fd 3241 201c 2ebf
00000030: 4473 e93d af75 9e3f 67d8 17be 2b16 2bbf
00000040: fec7 f7be d6e9 09bf 80df 84bf c809 9d40
00000050: 0a39 fcbb 60dc f5bd 8563 1fc0 cb83 7d3d
00000060: a14d bfbf fa5d f440 8dba b440 e89b d740
00000070: b1f3 4e3f 7f64 963d 2513 7f3f 5296 7540
00000080: 32b6 163f 599a 973f 0dec 5d40 ec24 a040
00000090: 386d 0d40 1c99 e23b c89f 6bbe 458e 1bbf
000000a0: 0a02 b23f 39ea 01bf b80d 2941 3c3e 4a3f
000000b0: cf9f 34bf d040 72bd 5e83 37bf 343a 28bf
000000c0: 3ad0 efbe 8716 7bbf e865 8d3f 54ea cabc
000000d0: f1ce 41bf d6cd 6d3f 4c2e 98be 900c 8040
000000e0: 81ae 513e b8f6 8b40 b2c2 ddbb c140 303f
000000f0: 63d5 473f 16f5 9a3f 2d4c 95bf 9e41 173f
00000100: 7e80 e240 4070 bd40 e6ba 0e3f 06ea 8a40
00000110: 6f01 2540 d638 d93f 98c5 663f 37d8 20bf
00000120: 16d7 3bbf b96f 833f e71c 8740 3d1b ca40
00000130: 7875 2f41 64a0 e93c 3048 2e3d 5ec6 cf40
00000140: 2256 913f 3443 c1bd 30b3 c140 7f2c 8240
00000150: 31ee 953f c951 4fbf 2429 083f eb6d 203f
00000160: dc04 9bbf 0a53 783f ebac 0741 67f5 943f
00000170: 648c 40bf 5cd1 f23f b92b 543f 4ca2 8bbf
00000180: 2841 293f 41cb f6be a8c8 6b3f 66ae a03f
00000190: 3b7f 66bf a428 833f e142 b0be cfe2 dc40
000001a0: ee70 a93f 5c49 f6be 8b94 003e d027 553f
000001b0: feb8 b2be 7974 5e3f b401 b8bd 49f7 653b
000001c0: 445f c8be ac5a 19bd 0436 883e c5da 1740
000001d0: 6255 a8be ea10 1740 313a b53f cf55 473f
000001e0: c0c7 733f 16f9 00c0 2f34 f340 c4ca 963f
000001f0: f492 0e41 d384 aa40 ef38 9f40 fca2 c240

encoder_layers.2.weight f4 [128]
0.054380104 0.8072667 0.0017782901 0.8442447 0.042086594 0.0048187645 0.47229427 0.029385507
0.072804876 0.013736984 0.03411664 0.004393123 0.00621665 0.6792074 0.3508315 0.0059371055
0.008282199 0.16111769 0.031731714 0.0317912 1.4390883 0.24986328 0.01465869 0.025751518
0.009163787 0.04923853 0.022653917 0.033285737 0.15415248 0.16383997 0.13853662 0.04161853
0.15075628 0.79776335 0.073490344 0.02407804 0.011221405 0.13223934 0.18405963 0.00990118
0.017226268 0.016958835 0.024214584 0.80410427 0.009158152 0.26504907 0.004756886 0.0068381145
0.056976307 0.014103987 0.16172975 0.1071233 0.020951936 0.10292882 0.006650006 0.03623478
0.011988257 0.039314903 1.3827976 0.14556482 0.15624999 1.6960207 0.011657175 0.12413154
0.07591152 0.056767672 0.49437737 0.06647448 0.013888354 0.02010711 0.04760789 0.00828316
0.6157896 1.2742848 0.0019404985 0.05814039 0.020763159 0.10301193 0.032569654 0.058426365
1.0241793 0.17449108 0.036392737 0.027143871 0.1260979 0.004055763 0.23725155 0.33085063
0.39140517 0.13225542 0.08230787 0.70893806 0.012006835 0.7323294 0.6932516 0.014764945
0.03234878 0.11630606 0.8105374 0.7720732 0.0035174408 0.14486863 0.27515802 0.05006055
0.69874763 0.17357187 0.16824651 0.65616256 0.0091950735 0.15553574 0.15271953 1.2801634
0.13333715 0.097512595 0.029501226 0.20539472 0.2904517 0.029216034 0.7676239 1.0827363
2.1384737 0.0072472407 0.057889782 0.042320598 0.019377252 0.06753009 0.042817123 0.04558451
00000000: acbd 5e3d 08a9 4e3f 8415 e93a 6c20 583f
00000010: fe62 2c3d bae6 9d3b 8ed0 f13e e0b9 f03c
00000020: b91a 953d 1611 613c e4bd 0b3d 30f4 8f3b
00000030: 0ab5 cb3b 89e0 2d3f 30a0 b33e 0d8c c23b
00000040: 0fb2 073c 09fc 243e 1df9 013d 7d37 023d
00000050: 0c34 b83f 29dc 7f3e 012b 703c d9f4 d23c
00000060: b523 163c 57ae 493d b594 b93c a056 083d
00000070: 26da 1d3e aac5 273e 8bdc 0d3e 3178 2a3d
00000080: db5f 1a3e 383a 4c3f 1b82 963d 4f3f c53c
00000090: fcd9 373c c069 073e 217a 3c3e 8f38 223c
000000a0: 1a1e 8d3c 41ed 8a3c aa5d c63c c7d9 4d3f
000000b0: 130c 163c 83b4 873e a7df 9b3b 4312 e03b
000000c0: fd5f 693d 6914 673c 7c9c 253e 7663 db3d
000000d0: 65a3 ab3c 58cc d23d 4be8 d93b ec6a 143d
000000e0: 656a 443c aa08 213d 83ff b03f f20e 153e
000000f0: ffff 1f3e 3517 d93f bcfd 3e3c ad38 fe3d
00000100: 8077 9b3d 3885 683d 081f fd3e c623 883d
00000110: fb8b 633c aab7 a43c 7e00 433d 17b6 073c
00000120: 63a4 1d3f c41b a33f 5358 fe3a 9e24 6e3d
00000130: 8017 aa3c ebf7 d23d c267 053d 7c50 6f3d
00000140: 4f18 833f caad 323e 8d10 153d d35c de3c
00000150: cf1f 013e 35e6 843b 12f2 723e 4165 a93e
00000160: 4266 c83e f76d 073e 0791 a83d f77c 353f
00000170: 51b8 443c f179 3b3f f078 313f abe8 713c
00000180: 2880 043d df31 ee3d 617f 4f3f 97a6 453f
00000190: dd84 663b 7158 143e 83e1 8c3e 4b0c 4d3d
000001a0: 20e1 323f d3bc 313e d048 2c3e 45fa 273f
000001b0: efa6 163c c344 1f3e 8262 1c3e 65dc a33f
000001c0: 8989 083e afb4 c73d 8eac f13c fe52 523e
000001d0: 16b6 943e 7756 ef3c 0083 443f 1a97 8a3f
000001e0: c1dc 0840 437a ed3b d61d 6d3d 5d58 2d3d
000001f0: 0bbd 9e3c 374d 8a3d 0261 2f3d d3b6 3a3d

encoder_layers.2.bias f4 [128]
0.0024506527 -0.81037384 0.0007892021 0.78957796 -0.030646889 -0.0015473035 -0.3083974 0.010665823
-0.0030250393 0.0018046845 0.0024501588 -0.0041842926 -0.0023020613 -0.4681825 0.26040983 -0.0078636315
-0.012786239 0.04213421 0.015977459 0.0035472952 -0.8988491 -0.13457851 0.0038763103 0.009284016
0.0011399412 -0.0033323478 -0.016878251 0.0044432674 -0.004299287 -0.08916192 -0.008634248 0.00126355
-0.007509089 -0.69491845 -0.0634767 0.001438394 0.0017480006 -0.055827554 -0.08153078 -0.013805132
0.00066635787 0.005583868 -0.0027456195 -0.83202636 -0.020618917 0.21204166 -0.0056773443 -0.012777733
0.015696954 0.0054491954 -0.010597573 -0.045626413 0.005108242 -0.0035079918 0.001739753 0.0012869397
-0.0023567984 -0.029522331 -0.9041959 -0.016350575 0.014231349 -0.80728275 0.0059158048 -0.010681992
0.0049490887 -0.0060848943 0.0075929114 -0.0030103654 0.0029887103 0.0027986253 -0.024998851 -0.015244251
0.1030674 -0.7317837 -0.00013180096 0.0020989822 -0.0014283333 -0.0418449 0.011014508 0.002853926
-0.572358 -0.075422764 -0.0032719085 -0.022468457 0.01199128 -0.0034616634 -0.014535895 0.0064068027
0.08318567 -0.0036514683 -0.0023530414 -0.6171459 0.0026582684 -0.19963738 -0.5978974 0.003996245
0.0143314665 0.034389347 -0.94347465 -0.6751452 -0.005128246 0.014165103 -0.12600705 0.0049008774
-0.4780839 0.122083224 -0.08580921 0.45850465 0.001681825 0.009966491 -0.0531539 -0.84330755
-0.003266831 -0.039818738 -0.009432737 0.015423774 -0.12718031 0.006417651 0.88488495 -0.641523
-1.0756751 0.0023816277 9.162794e-05 -0.022501124 0.0012621137 -0.0046717804 -0.032330748 0.002619441
00000000: 219b 203b a974 4fbf 75e2 4e3a c821 4a3f
00000010: 2f0f fbbc e4ce caba 44e6 9dbe b4bf 2e3c
00000020: bd3f 46bb 2a8b ec3a d892 203b 641c 89bb
00000030: 2ede 16bb 9eb5 efbe 7054 853e 76d6 00bc
00000040: 607d 51bc ec94 2c3d 29e3 823c bd79 683b
00000050: fa1a 66bf f3ce 09be b209 7e3b fc1b 183c
00000060: 146a 953a 8563 5abb 4244 8abc d498 913b
00000070: 09e1 8cbb 869a b6bd a976 0dbc b49d a53a
00000080: ce0e f6bb 2de6 31bf 1200 82bd 7e88 bc3a
00000090: 2b1d e53a 6fab 64bd 9cf9 a6bd ec2e 62bc
000000a0: 85ae 2e3a e1f8 b63b daef 33bb aeff 54bf
000000b0: 01e9 a8bc 7321 593e 0409 babb b259 51bc
000000c0: e696 803c 2a8f b23b 71a1 2dbc c3e2 3abd
000000d0: 0a63 a73b 56e6 65bb 6c08 e43a 88ae a83a
000000e0: 8474 1abb d1d8 f1bc 6279 67bf a4f1 85bc
000000f0: 9b2a 693c 15aa 4ebf 5ed9 c13b 8603 2fbc
00000100: f72b a23b cb63 c7bb f5cd f83b 8d49 45bb
00000110: 3dde 433b 2469 373b 64ca ccbc 06c3 79bc
00000120: 0015 d33d 2d56 3bbf 0d34 0ab9 148f 093b
00000130: ea36 bbba 8f65 2bbd 3276 343c ef08 3b3b
00000140: 0e86 12bf 4077 9abd 846d 56bb c50f b8bc
00000150: 1377 443c 13dd 62bb f627 6ebc 28f0 d13b
00000160: 405d aa3d 794d 6fbb 7c35 1abb 46fd 1dbf
00000170: 5836 2e3b be6d 4cbe ce0f 19bf eff2 823b
00000180: 87ce 6a3c d8db 0c3d 8e87 71bf 51d6 2cbf
00000190: d80a a8bb c014 683c fe07 01be 8a97 a03b
000001a0: 6ac7 f4be c506 fa3d bdbc afbd 1fc1 ea3e
000001b0: af70 dc3a 7e4a 233c e7b7 59bd 01e3 57bf
000001c0: 5418 56bb f918 23bd c48b 1abc ffb3 7c3c
000001d0: 8e3b 02be 294b d23b d287 623f da3a 24bf
000001e0: b9af 89bf 1515 1c3b 6028 c038 4754 b8bc
000001f0: 826d a53a bc15 99bb 3f6d 04bd edaa 2b3b

encoder_layers.2.running_mean f4 [128]
7.249491 0.71982515 0.7236267 1.1679509 4.7080994 0.008080203 1.4470761 0.39089724
6.5556364 2.9434955 11.196811 0.10545398 0.11662932 1.223711 0.09472308 0.11836221
0.07147462 0.021279788 0.5109185 4.912313 0.1469713 0.48233178 0.054111682 0.5045665
0.14486365 7.6085105 5.6726255 6.77792 1.0472469 0.9138268 1.0129097 3.831287
0.6028713 1.1701317 3.4847207 5.0289044 3.8637364 0.819699 0.6465462 0.107179895
1.502425 0.18264143 10.555713 0.80202204 0.1151632 0.15702458 0.11053955 0.11102912
0.008451172 0.2536867 1.1231124 0.94524646 0.046537716 1.1866364 0.080691665 4.0227575
0.20620427 4.3931813 0.13886611 0.7009308 0.77128667 1.194512 0.52490675 0.606593
7.0544205 5.915336 0.9577835 4.3221526 2.5453925 1.7033018 0.8980256 0.10769171
0.004322393 1.0143492 7.230363 6.293619 10.9586735 1.1932294 0.46351376 6.4707108
1.1248316 0.7342814 6.0104465 4.0872316 1.1576859 0.068477586 0.60988253 1.0127198
0.009815839 1.2761427 8.44938 1.1499147 0.057913505 1.8871882 0.82100445 0.099907584
0.87048197 0.022049205 0.9356899 1.2400118 0.13825719 1.0120561 0.5720292 6.9060335
1.3072392 0.17934959 1.1033545 0.8474454 0.09502034 0.8582703 0.833256 0.13142213
0.91337836 0.9074879 0.26705587 2.3724089 0.5195061 2.3317544 1.3993187 0.77716345
0.9460231 0.17506416 7.6218367 1.211422 8.920143 5.3246098 4.9980693 6.120987
00000000: d5fb e740 7646 383f 993f 393f 6a7f 953f
00000010: c0a8 9640 d462 043c ca39 b93f af23 c83e
00000020: c6c7 d140 3b62 3c40 2326 3341 42f8 d73d
00000030: 5adb ee3d 90a2 9c3f 2dfe c13d e367 f23d
00000040: 4961 923d f352 ae3c 8ecb 023f ab31 9d40
00000050: a57f 163e 31f4 f63e 36a4 5d3d 452b 013f
00000060: 2357 143e eb78 f340 2686 b540 b8e4 d840
00000070: 300c 863f 8ef0 693f 06a7 813f ce33 7540
00000080: c655 1a3f e0c6 953f aa05 5f40 c9ec a040
00000090: 7547 7740 cbd7 513f 0d84 253f 2281 db3d
000000a0: 764f c03f 5b06 3b3e 33e4 2841 5151 4d3f
000000b0: afda eb3d 0dcb 203e 8f62 e23d 3c63 e33d
000000c0: c976 0a3c 39e3 813e 26c2 8f3f acfb 713f
000000d0: 559e 3e3d b4e3 973f ac41 a53d 6eba 8040
000000e0: 3627 533e f194 8c40 eb32 0e3e 3370 333f
000000f0: 0b73 453f c5e5 983f 4a60 063f ae49 1b3f
00000100: d0bd e140 6f4a bd40 4d31 753f 134f 8a40
00000110: b6e7 2240 cb05 da3f 01e5 653f 798d dc3d
00000120: dca2 8d3b 32d6 813f 225f e740 5465 c940
00000130: ba56 2f41 bebb 983f ad51 ed3e 1010 cf40
00000140: 7bfa 8f3f def9 3b3f 9455 c040 9aca 8240
00000150: 0d2f 943f fa3d 8c3d 4321 1c3f cda0 813f
00000160: 9dd2 203c a558 a33f a930 0741 6830 933f
00000170: b636 6d3d 628f f13f 592d 523f 599c cc3d
00000180: e8d7 5e3f 89a0 b43c 6089 6f3f b5b8 9e3f
00000190: 4b93 0d3e 0e8b 813f 8170 123f 3afe dc40
000001a0: 9d53 a73f 6ba7 373e b83a 8d3f 2ff2 583f
000001b0: 069a c23d 9ab7 5b3f 4450 553f 8693 063e
000001c0: 2ad3 693f 2151 683f 8cbb 883e 8cd5 1740
000001d0: 5afe 043f 773b 1540 e01c b33f 2ff4 463f
000001e0: 922e 723f 0544 333e 16e6 f340 e00f 9b3f
000001f0: e8b8 0e41 3463 aa40 2ff0 9f40 20df c340

encoder_layers.2.running_var f4 [128]
6.79377 0.09644627 0.6976054 0.11474589 1.9331787 0.0025727274 0.7097319 0.1873464
4.0092564 5.5251 7.7209897 0.07813174 0.005859017 0.16065697 0.015214939 0.093758896
0.036950223 0.006896048 1.1395409 1.8394544 0.054668605 0.76503944 0.060499534 0.3131787
0.24981356 2.616598 2.8310723 3.6611898 0.6010666 2.4405797 0.18449384 1.3794625
0.1366685 0.15486729 1.0831828 1.6960047 7.3259745 2.0238686 1.4111599 0.07724178
1.849997 0.14652061 8.242501 0.10037285 0.092107646 0.032437954 0.086900696 0.08406442
0.0006185923 0.295722 0.261124 2.7136323 0.021018606 0.75657403 0.029099379 1.0518419
0.013090114 1.6749988 0.04970564 0.0934798 0.059939887 0.4863318 1.2549694 0.14683045
6.7528453 3.829348 0.65022707 0.97615325 4.2802134 0.2737814 0.13088647 0.07911618
0.00062586064 0.23167618 24.886301 2.0486584 8.928541 4.2582755 0.2634249 5.6777844
0.34244674 1.702899 4.6606965 1.4426414 0.12323282 0.043625735 0.13930632 0.69556195
0.002188333 0.90949565 4.7357635 0.14419498 0.03558536 0.21369098 0.12597798 0.08614106
0.42124784 0.0062867445 0.15890747 0.1733539 0.13576044 0.10331009 1.1797268 3.2180786
0.19927324 0.06457051 3.5023487 0.15793356 0.04148883 0.079942524 2.1752505 0.043198973
2.7173822 2.513868 0.019769328 2.3018055 0.97965026 3.4436944 0.21129769 0.010961692
0.61113364 0.37261644 5.9272165 0.6573171 4.8860383 3.5728357 2.194558 2.9503896
00000000: 9066 d940 9f85 c53d 4496 323f e5ff ea3d
00000010: 6672 f73f 349b 283b fdb0 353f bcd7 3f3e
00000020: d44b 8040 9fcd b040 5912 f740 8903 a03d
00000030: fffc bf3b 4383 243e 1448 793c aa04 c03d
00000040: 1e59 173d 3ef8 e13b 7adc 913f 3e73 eb3f
00000050: 30ec 5f3d a0d9 433f 5cce 773d f558 a03e
00000060: 20cf 7f3e 5776 2740 4a30 3540 ef50 6a40
00000070: 80df 193f 7532 1c40 f4eb 3c3e 3a92 b03f
00000080: d4f2 0b3e 8895 1e3e bca5 8a3f af16 d93f
00000090: 626e ea40 1087 0140 e3a0 b43f f030 9e3d
000000a0: b4cc ec3f 8009 163e 49e1 0341 4890 cd3d
000000b0: efa2 bc3d a9dd 043d fef8 b13d f729 ac3d
000000c0: 0729 223a e068 973e 0cb2 853e 27ac 2d40
000000d0: 362f ac3c d6ae 413f d261 ee3c c1a2 863f
000000e0: eb77 563c 5c66 d63f 2498 4b3d 5672 bf3d
000000f0: 8783 753d 7b00 f93e d6a2 a03f b95a 163e
00000100: 4f17 d840 0a14 7540 4875 263f 2ee5 793f
00000110: 82f7 8840 132d 8c3e 1a07 063e aa07 a23d
00000120: cc10 243a 853c 6d3e 2517 c741 381d 0340
00000130: 4edb 0e41 cb43 8840 a1df 863e 69b0 b540
00000140: 2e55 af3e 98f8 d93f 6d24 9540 79a8 b83f
00000150: 7d61 fc3d e6b0 323d 51a6 0e3e 5910 323f
00000160: 236a 0f3b b5d4 683f 608b 9740 d9a7 133e
00000170: f4c1 113d cfd1 5a3e 5f00 013e b96a b03d
00000180: ccad d73e 0901 ce3b a4b8 223e af83 313e
00000190: c904 0b3e 3e94 d33d 4a01 973f 00f5 4d40
000001a0: 490e 4c3e 8b3d 843d 7b26 6040 56b9 213e
000001b0: 31f0 293d e8b8 a33d 4e37 0b40 68f1 303d
000001c0: 97e9 2d40 37e3 2040 49f3 a13c c850 1340
000001d0: 5cca 7a3f 7d65 5c40 6c5e 583e ab98 333c
000001e0: 4173 1c3f 95c7 be3e c2ab bd40 ef45 283f
000001f0: 6d5a 9c40 57a9 6440 a373 0c40 2fd3 3c40

encoder_layers.4.weight f4 [64, 128]
0.006530268 0.009274028 0.4117162 0.003984079 0.045578267 1.8771107 0.010205762 -1.3806511
-0.056739677 0.18801527 -0.09221324 1.97552 -0.36616185 0.005546028 0.0006375788 1.6080093
0.95762295 -0.010443861 0.028474282 0.10276995 0.0060518486 -0.027563605 0.51080006 -1.4709144
-0.043371405 0.06495505 0.07035126 -0.061510507 0.027520614 -0.0075265346 0.021763595 0.019520923
-0.017024368 -0.0065524974 0.052240763 -0.10054588 -0.4843816 -0.049360096 -0.03454618 0.8777273
0.3158869 -0.008766674 0.09643675 -0.0032776764 0.7220183 -0.007418955 1.8713219 0.9256272
-0.10477186 -0.020592634 0.0017633245 -0.041776937 0.036841556 0.07051405 -0.049444288 -0.030048672
-0.13414393 0.065042056 -0.003997938 -0.0074800057 0.01869598 0.002416092 0.16931152 0.00020426625
-0.03526627 -0.048792403 0.009111718 0.051983897 0.15083233 0.064982064 -0.035368323 0.999051
-0.007336384 0.0044458006 -3.318685 0.03751207 0.036098436 -0.021298496 -1.3569587 0.064632766
0.009429296 -0.024169996 0.08045912 0.07058144 0.023336582 2.3701427 0.0069725877 -0.0007654342
0.0090285335 0.012968692 0.049187865 -0.00993914 -0.26557204 0.018707117 0.008118459 -0.14272647
0.5159001 0.0073830304 -0.0041824784 -0.0069298353 2.1924653 0.00995227 -0.025467217 0.035043646
-0.004628539 0.11001253 -0.008054827 0.0011764664 0.15493716 -0.010700723 -0.028950714 -0.0035163332
-0.0222789 -0.05096823 -0.02177055 0.006277816 -0.007900329 0.009975953 -0.004908654 0.0042596557
0.011175934 -0.23529854 -0.07062397 -0.10572859 -0.10761488 -0.04016617 0.021936301 -0.0016159818
-0.0256558 0.0045274305 -7.5604625 0.0022862873 0.25725618 -0.73507595 -0.0024168703 -0.00068165397
-0.009504168 -2.8405824 -0.0043303883 -0.4371885 -0.2865668 -0.00032761254 -0.003955322 -0.3822639
-0.23788884 0.0068169734 -1.4871382 0.017575411 0.0028188506 -0.026719538 -1.150765 0.006642542
-0.04350616 0.0048561133 0.4441218 0.016376955 0.13120173 -0.018279705 0.0015167694 -0.036665563
-0.0061779283 0.0010352546 0.11702692 -0.005097553 -0.050262377 -0.043793336 -0.034445904 -0.224005
0.029950187 -0.03710416 -0.0009999721 -0.00012244127 -0.19398578 -0.0032409327 -0.4425114 -0.24465327
0.35617068 0.0030044375 0.00781322 -0.030964045 -0.00056456664 0.24031126 -0.021560146 0.017538996
-0.21872473 0.30608317 -0.0016011326 -0.007789869 -0.0071827006 -0.0006809517 -2.5667832 -0.0046278504
-0.0069479025 -0.00050081086 0.015247262 -0.025130536 -3.0799854 0.19868134 -0.05865742 -0.23509108
-0.00084930076 0.0012026116 -0.109078944 -0.010397809 0.012046491 -0.02741406 0.0027151078 0.03477643
-0.0029138555 -0.012993129 -0.007193474 0.30096123 0.007424271 -0.73567563 0.016278202 0.04001115
0.0024986784 0.15991499 0.0156117575 -0.0003404692 -0.07154361 9.13898e-05 0.00397257 -0.030519081
0.089220725 0.00084570865 -0.0004917292 0.0021110142 -0.4801422 0.008810842 -0.0119020585 0.027215432
-0.00041482178 0.084922 -0.023795573 0.0033153698 -0.03608806 0.018078277 -0.026171893 -0.00030894997
-0.09815635 -0.012770764 -0.098325804 -0.0007380935 -0.019071363 -1.6307533 -0.008723449 0.005081309
0.0028535726 -0.044185273 -0.006992312 -0.04458839 0.018503482 0.0067652157 0.2996039 0.017652174
00000000: dcfb d53b 18f2 173c 77cc d23e e18c 823b
00000010: 47b0 3a3d 2a45 f03f 1236 273c 2db9 b0bf
00000020: dd67 68bd 1387 403e 4cda bcbd d7dd fc3f
00000030: 9179 bbbe 74bb b53b 3023 273a 40d3 cd3f
00000040: c726 753f ba1c 2bbc e642 e93c 0d79 d23d
00000050: 964e c63b 12cd e1bc cbc3 023f ec46 bcbf
00000060: 37a6 31bd 2707 853d 5214 903d 71f2 7bbd
00000070: e972 e13c 26a1 f6bb 9149 b23c 58ea 9f3c
00000080: b076 8bbc 55b6 d6bb 69fa 553d 00eb cdbd
00000090: dd00 f8be d02d 4abd 4c80 0dbd bdb2 603f
000000a0: eebb a13e 19a2 0fbc a180 c53d 49ce 56bb
000000b0: 31d6 383f b51a f3bb 7a87 ef3f e7f5 6c3f
000000c0: a192 d6bd e2b1 a8bc 5a1f e73a 4b1e 2bbd
000000d0: 2ce7 163d ac69 903d 1886 4abd a228 f6bc
000000e0: 075d 09be c534 853d 2201 83bb d61a f5bb
000000f0: 5028 993c 4c57 1e3b 0060 2d3e 4e30 5639
00000100: 5d73 10bd 8bda 47bd 5149 153c 11ed 543d
00000110: ca73 1a3e 5115 853d 60de 10bd cec1 7f3f
00000120: 0d66 f0bb 14ae 913b 5665 54c0 42a6 193d
00000130: f4db 133d 2f7a aebc d3b0 adbf 2f5e 843d
00000140: 557d 1a3c 2800 c6bc c0c7 a43d 018d 903d
00000150: 5c2c bf3c 6bb0 1740 4e7a e43b 6ba7 48ba
00000160: 6aec 133c a37a 543c 3779 493d c6d7 22bc
00000170: 0ff9 87be ab3f 993c 4903 053c e326 12be
00000180: 0712 043f 59ed f13b 2c0d 89bb ac13 e3bb
00000190: 5a51 0c40 d90e 233c a0a0 d0bc ed89 0f3d
000001a0: 00ab 97bb 404e e13d 65f8 03bc a933 9a3a
000001b0: d9a7 1e3e 1652 2fbc 0c2a edbc 4872 66bb
000001c0: 3d82 b6bc 10c4 50bd 2758 b2bc 23b6 cd3b
000001d0: 6270 01bc 2e72 233c c6d8 a0bb 9594 8b3b
000001e0: 441b 373c 1af2 70be 4da3 90bd 3b88 d8bd
000001f0: 3165 dcbd 4885 24bd c2b3 b33c 5acf d3ba
00000200: 1d2c d2bc d75a 943b 4fef f1c0 89d5 153b
00000210: 15b7 833e f02d 3cbf 5b64 1ebb 06b1 32ba
00000220: 5fb7 1bbc 1acc 35c0 eee5 8dbb 2cd7 dfbe
00000230: e2b8 92be 69c3 abb9 a59b 81bb 18b8 c3be
00000240: 2299 73be eb60 df3b 8b5a bebf 4ffa 8f3c
00000250: 77bc 383b efe2 dabc 444c 93bf aea9 d93b
00000260: 8433 32bd 0820 9f3b ef63 e33e f728 863c
00000270: bf59 063e 52bf 95bc 56ce c63a a12e 16bd
00000280: 3870 cabb 61b1 873a cfab ef3d 6009 a7bb
00000290: ecdf 4dbd a460 33bd 2617 0dbd 9161 65be
000002a0: 185a f53c 88fa 17bd 7f11 83ba 9463 00b9
000002b0: 35a4 46be d465 54bb db90 e2be 6386 7abe
000002c0: 015c b63e 19e6 443b 0503 003c 4fa8 fdbc
000002d0: 6dff 13ba 2814 763e e79e b0bc f1ad 8f3c
000002e0: 60f9 5fbe efb6 9c3e 18dd d1ba 2842 ffbb
000002f0: dc5c ebbb e581 32ba 2d46 24c0 39a5 97bb
00000300: 3bab e3bb d948 03ba a7cf 793c 8ede cdbc
00000310: 7b1e 45c0 1f73 4b3e c342 70bd b7bb 70be
00000320: 9ca3 5eba f3a0 9d3a c864 dfbd 925b 2abc
00000330: a55e 453c 7393 e0bc f3ef 313b bb71 0e3d
00000340: 62f6 3ebb 22e1 54bc 3cb7 ebbb 9717 9a3e
00000350: 4d47 f33b 3d55 3cbf dd59 853c bbe2 233d
00000360: dec0 233b c1c0 233e 75c8 7f3c 0181 b2b9
00000370: 7585 92bd 86a8 bf38 552c 823b 2703 fabc
00000380: 5bb9 b63d 8cb2 5d3a 63e7 00ba f158 0a3b
00000390: 33d5 f5be 5a5b 103c da00 43bc e6f2 de3c
000003a0: 707c d9b9 96eb ad3d efee c2bc ad46 593b
000003b0: 13d1 13bd e518 943c 7066 d6bc 90fa a1b9
000003c0: 3206 c9bd 773c 51bc 0a5f c9bd 9e7c 41ba
000003d0: 8c3b 9cbc 86bc d0bf ccec 0ebc 1c81 a63b
000003e0: 0103 3b3b 9efb 34bd c41f e5bb 51a2 36bd
000003f0: 9d94 973c beae dd3b af65 993e 4b9b 903c

encoder_layers.4.bias f4 [64]
0.28978884 2.296802 3.432252 0.29398456 0.37459287 2.977461 0.053665247 3.4154663
3.7430122 1.4544983 -0.5626888 0.30697653 1.9809769 6.7498784 1.451817 2.649805
1.4731166 3.0690782 1.4859781 3.43571 0.30640495 7.3365602 0.0033633276 3.3330357
0.7537496 6.979448 -1.2591993 0.6858146 1.4653238 2.6356325 -0.89836955 0.51275426
2.6413174 0.82257617 4.972612 0.90297097 3.903057 1.5472076 0.36302176 -0.40901092
3.3919537 4.0275874 0.047778215 2.9743943 1.0044298 6.6877213 0.16953218 0.24401216
0.6398111 -0.4532153 3.489558 0.39139813 0.31696102 2.6926246 0.2612974 2.7695367
4.415865 6.220734 0.30148986 6.0292544 0.8953662 3.7518394 0.013301274 -0.4460833
00000000: 345f 943e cefe 1240 04aa 5b40 2585 963e
00000010: a3ca bf3e b98e 3e40 17d0 5b3d 0097 5a40
00000020: 838d 6f40 002d ba3f 600c 10bf 072c 9d3e
00000030: a790 fd3f 01ff d740 24d5 b93f 6896 2940
00000040: 168f bc3f c76b 4440 8834 be3f ace2 5b40
00000050: 1ce1 9c3e 1ac5 ea40 466b 5c3b 7550 5540
00000060: bcf5 403f a357 df40 712d a1bf 8c91 2f3f
00000070: bb8f bb3f 34ae 2840 8cfb 65bf dd43 033f
00000080: 580b 2940 5a94 523f a31f 9f40 1b29 673f
00000090: b0cb 7940 e60a c63f fddd b93e e169 d1be
000000a0: c515 5940 ffe1 8040 17b3 433d 7a5c 3e40
000000b0: 2891 803f d001 d640 d899 2d3e 53de 793e
000000c0: a9ca 233f d60b e8be eb54 5f40 5665 c83e
000000d0: b748 a23e f653 2c40 c6c8 853e 1740 3140
000000e0: c44e 8d40 4110 c740 e15c 9a3e a7ef c040
000000f0: b836 653f 231e 7040 96ed 593c 0865 e4be

encoder_layers.6.weight f4 [64]
0.48631755 0.92995745 0.604446 0.9455006 0.555572 2.3170106 0.33170155 0.8808662
0.35630628 0.6177208 0.457045 0.20756643 0.43745008 1.5122252 0.61339194 0.87959385
1.6175739 0.63296044 0.53262705 2.4977357 0.44934925 1.181533 0.61391735 1.437084
2.6248906 0.3479038 0.47065926 2.3830364 0.29670376 1.8489949 0.47744027 0.27376762
0.87862146 0.41013208 0.78284526 2.2847857 0.65865356 0.44155306 2.475994 0.3660883
0.7754067 0.8445621 0.40259483 0.927876 0.90706897 1.4451905 0.48519555 0.7361681
0.2851992 0.1490495 2.6049924 1.7978442 2.3079665 0.38405424 0.7371557 0.61410385
0.82971096 0.51352596 0.095031485 1.369935 1.8848897 0.6998419 0.6219561 0.15406373
00000000: 9dfe f83e b111 6e3f f9bc 1a3f 540c 723f
00000010: f739 0e3f e749 1440 c9d4 a93e 7380 613f
00000020: c76d b63e f322 1e3f cd01 ea3e 4b8c 543e
00000030: 75f9 df3e 9890 c13f 4107 1d3f 102d 613f
00000040: a90c cf3f b209 223f 3f5a 083f e7da 1f40
00000050: 1b11 e63e 793c 973f b029 1d3f 5ef2 b73f
00000060: 35fe 2740 7220 b23e 40fa f03e ab83 1840
00000070: 8ee9 973e ddab ec3f 0d73 f43e 452b 8c3e
00000080: 56ed 603f d5fc d13e 8c68 483f ee39 1240
00000090: 859d 283f 3e13 e23e b076 1e40 ed6f bb3e
000000a0: 0e81 463f 3935 583f e920 ce3e 4889 6d3f
000000b0: ac35 683f 01fc b83f 8d6b f83e 8375 3c3f
000000c0: a105 923e 6fa0 183e 32b8 2640 c21f e63f
000000d0: b9b5 1340 c2a2 c43e 3cb6 3c3f e935 1d3f
000000e0: f067 543f 7076 033f de9f c23d 085a af3f
000000f0: 1144 f13f d728 333f 8438 1f3f e2c2 1d3e

encoder_layers.6.bias f4 [64]
-0.11668219 -0.24135251 0.033838462 -0.10594164 0.033656977 -1.8611523 0.1589867 -0.22676937
-0.07035221 -0.040243153 0.17927568 0.017473202 0.016533015 -0.2151539 0.047716647 0.0703714
-1.1433057 -0.0035917456 -0.078456566 -1.9048889 -0.1101146 -0.1389047 -0.43484062 0.21477357
-1.4556603 -0.058344997 0.0564479 -1.2822608 0.08519546 -1.0446234 0.0645816 0.15829813
0.0658687 0.024722096 0.060247894 -1.2680913 0.020869603 -0.06758386 -1.2503916 0.0507904
0.06529607 -0.2052302 0.19163693 -0.22838274 -0.19477746 -0.20468293 0.22235762 -0.16214062
0.016352162 -0.037306085 -2.0160706 -0.5713492 -1.1456976 -0.057940565 -0.009806809 -0.07124025
0.07078607 -0.044147827 -0.012020606 -0.20628361 -1.548455 -0.0003720214 0.25749183 -0.0325344
00000000: 12f7 eebd 1d25 77be 339a 0a3d eef7 d8bd
00000010: e6db 093d 3d3a eebf 69cd 223e 3b36 68be
00000020: d214 90bd 01d6 24bd 0b94 373e f623 8f3c
00000030: 3f70 873c 4e51 5cbe 8872 433d e11e 903d
00000040: d757 92bf 7e63 6bbb d6ad a0bd 66d3 f3bf
00000050: c383 e1bd 093d 0ebe 6ea3 debe 9aed 5b3e
00000060: 1453 babf 2afb 6ebd ea35 673d 1f21 a4bf
00000070: f57a ae3d 38b6 85bf 5c43 843d e818 223e
00000080: 2be6 863d fe85 ca3c 7fc6 763d d150 a2bf
00000090: bbf6 aa3c 6869 8abd d50c a0bf 9809 503d
000000a0: f2b9 853d de27 52be 793c 443e 2add 69be
000000b0: be73 47be 6798 51be b7b1 633e 3108 26be
000000c0: f8f4 853c 44ce 18bd 4d07 01c0 f143 12bf
000000d0: 38a6 92bf 1653 6dbd bdac 20bc 68e6 91bd
000000e0: 49f8 903d 5ad4 34bd 13f2 44bc 033c 53be
000000f0: c633 c6bf de0b c3b9 f8d5 833e ca42 05bd

encoder_layers.6.running_mean f4 [64]
0.16570966 2.2312863 3.4767756 0.28446615 0.2398806 2.558601 0.034271963 3.3317983
3.8100145 0.803718 0.29019573 0.39386308 1.941797 6.168141 1.4599792 2.6715715
1.0188336 3.0815217 1.0105915 2.9448307 0.13394405 6.9333034 0.014980543 3.4973686
0.48259026 6.999684 1.8390391 0.45435762 1.2480606 2.2794108 2.1825795 0.22598451
2.6645327 0.83075935 5.0369897 0.580705 3.9865124 1.5824518 0.24818775 0.19467087
3.434657 3.9677048 0.026405517 2.9153962 0.9899805 6.0460844 0.28930464 0.14147852
1.3592128 0.4116008 2.9498687 0.25330326 0.2544043 2.5434496 0.15431751 2.7250636
4.4670634 6.364706 1.9052609 5.535488 0.6528613 3.7509012 0.02668211 0.25456548
00000000: cbaf 293e 65cd 0e40 7e83 5e40 8ca5 913e
00000010: 43a3 753e 1ec0 2340 c260 0c3d 2f3c 5540
00000020: 47d7 7340 76c0 4d3f 8994 943e 6ca8 c93e
00000030: ce8c f83f 6961 c540 99e0 ba3f 07fb 2a40
00000040: 2469 823f a737 4540 105b 813f 1b78 3c40
00000050: a128 093e 9fdd dd40 f470 753c e3d4 5f40
00000060: 1216 f73e 69fd df40 a265 eb3f 90a1 e83e
00000070: 73c0 9f3f dee1 1140 62af 0b40 7c68 673e
00000080: b487 2a40 a5ac 543f 052f a140 15a9 143f
00000090: 0523 7f40 c88d ca3f ee24 7e3e cd57 473e
000000a0: 6cd1 5b40 e0ee 7d40 6250 d83c da95 3a40
000000b0: 5d6f 7d3f 8679 c140 bd1f 943e bfdf 103e
000000c0: affa ad3f 57bd d23e a6ca 3c40 f7b0 813e
000000d0: 4841 823e e1c7 2240 6905 1e3e 7167 2e40
000000e0: 2ff2 8e40 acab cb40 97df f33f b822 b140
000000f0: eb21 273f c40e 7040 7194 da3c 6856 823e

encoder_layers.6.running_var f4 [64]
0.032731894 0.2161729 0.03318636 0.0146995345 0.025634984 1.2096796 0.003405812 0.25075698
0.03759477 1.0182143 0.48575225 1.4822193 0.026440648 20.464142 0.035338867 0.09306009
0.47841483 0.06582287 1.349715 2.0282755 0.032694113 12.13612 0.0024517418 0.7768837
0.41201204 0.28988278 3.2965293 0.33527702 0.95536375 0.2530786 4.5576673 0.12921555
0.051210202 0.03970389 0.05240278 0.5114403 0.010069074 0.16663998 0.14876282 0.047565788
0.09043582 0.25827426 0.0026146038 0.25543818 0.09979334 19.988848 0.34675425 0.031882696
0.4441516 0.48980007 2.2678547 0.08079637 0.13639134 0.84092516 0.008967132 0.10072852
0.122438714 0.43350765 0.51413417 18.874287 0.270498 0.0657722 0.0037574791 0.18469073
00000000: e111 063d 6e5c 5d3e 6cee 073d 51d6 703c
00000010: 7500 d23c c8d6 9a3f 0b34 5f3b 3863 803e
00000020: f9fc 193d d954 823f 85b4 f83e 5db9 bd3f
00000030: 0f9a d83c 90b6 a341 7dbf 103d 4a96 be3d
00000040: caf2 f43e 24ce 863d 76c3 ac3f 44cf 0140
00000050: 43ea 053d 8c2d 4241 67ad 203b dae1 463f
00000060: 3ef3 d23e 846b 943e 56fa 5240 6ea9 ab3e
00000070: b892 743f 8593 813e 69d8 9140 1551 043e
00000080: cac1 513d 8ca0 223d 4ca4 563d c0ed 023f
00000090: c2f8 243c aca3 2a3e 4855 183e 58d4 423d
000000a0: 6a36 b93d 863c 843e c659 2b3b cbc8 823e
000000b0: 7360 cc3d 29e9 9f41 c689 b13e 6e97 023d
000000c0: d767 e33e 13c7 fa3e 8824 1140 9178 a53d
000000d0: 2caa 0b3e df46 573f e1ea 123c c14a ce3d
000000e0: 26c1 fa3d b7f4 dd3e 4c9e 033f 8afe 9641
000000f0: b77e 8a3e 93b3 863d 0a40 763b 911f 3d3e

fc_mu.weight f4 [32, 64]
0.086443424 0.24781235 0.27790162 -0.11263021 -0.026318753 -0.058838498 -0.058697447 0.29173732
0.2544338 0.16536771 -0.02343922 0.9454652 0.3324867 0.007358154 -0.018890593 0.009480475
-0.011762747 -0.2556639 0.2175382 -0.053555824 0.16203953 -0.026362568 -0.2698449 -0.006848691
0.094045594 -0.055788867 0.012335572 0.12515463 -0.05668364 -0.045969542 0.035726782 -0.5981232
-0.039400928 0.39970908 0.10384522 0.112677075 -0.28238967 -0.14473775 0.09918244 0.24757813
-0.037809003 0.28361166 -0.03219186 0.28809768 0.2127025 -0.01389287 -0.5105723 0.04186944
0.65713507 -0.75080246 -0.06695843 0.05032435 0.10244147 -0.86186045 -0.013909558 -0.2532215
-0.039911482 0.08558498 0.18703295 0.010104089 -0.05522863 0.26006943 0.10911097 -0.5071478
-0.37096983 -0.07862211 -0.13140193 0.0033406392 0.43122435 -0.0563608 0.6631062 -0.053783335
-0.052711353 -0.013951729 -0.11333773 -0.009590899 0.41509023 0.031160105 0.34962612 -0.76484865
-0.06882944 -0.17868592 -0.07076463 -0.03709365 -0.43034464 0.07076148 -0.004394881 -0.061075352
-0.018486539 -0.018373296 0.32320318 -0.011856673 -0.2418922 -0.08009505 0.30433333 -0.08432846
-0.6978566 0.36577335 0.14452757 -0.014724752 -0.15116666 0.047612626 -0.017392958 0.37837088
-0.8802095 -0.06321322 0.7957278 -0.07944602 -0.13941015 0.038581837 -0.058997 -0.270112
-0.41238376 0.80539197 -0.033552267 -0.05265349 -0.01634333 0.042037822 0.28597718 -0.079282254
-0.72443795 -0.08143758 -1.261459 0.045705356 -0.042732175 0.11134286 0.55324423 0.4302022
1.0747514 -0.22389255 0.18474337 -0.45592517 -0.7258501 0.09583694 1.1949726 -0.123403385
-0.099935256 -0.5010711 0.37121043 0.35720572 -0.20030178 0.099664316 -0.50446224 0.2340858
0.1246728 0.1565141 -0.75824356 0.09931226 1.1248697 0.16136643 -0.33653066 -0.101366885
-0.2185625 -1.5121979 -1.304654 -0.24399085 -0.2918363 0.09517255 -1.3156577 0.68783766
0.063707866 0.016061284 0.06921047 -0.24205911 0.3990294 -1.44094 -0.21367621 -0.1581361
0.25386003 -0.151373 1.4448069 -0.14948346 -0.3039236 0.083482385 0.5391327 0.73496395
0.7333922 -3.0108778 0.08313114 0.42178556 -0.1995711 -0.3920553 -0.4677082 -0.47494793
0.031691354 -0.30876508 2.5354893 0.10605967 0.07457434 -0.23065335 1.2641169 -2.4353538
-0.1657486 0.07462415 0.2703317 -0.13725594 -0.25610405 0.0127376355 -0.5093888 0.072623655
0.73877645 0.12758447 0.030019877 -1.3267055 -0.1591099 0.08786207 -0.23361637 0.023797562
0.0058240234 -0.07133802 0.18772827 0.018669106 -0.18952999 0.101296924 -0.07254226 -0.08808303
-0.13563602 0.33691993 0.17839313 -0.1491041 -0.27279216 0.024684822 0.1520231 0.86380863
-0.07505234 -0.14697781 0.066796444 -0.17629044 0.08166016 0.24004099 -0.13256638 -0.2591233
0.022273267 0.09077943 -0.48017538 0.064448304 0.052050624 0.10888664 0.8459846 -0.13287982
0.3316953 -1.1954157 0.01106345 -0.033430923 -0.14148253 0.95869946 -0.14428875 -0.0688523
-0.059070252 0.30005553 1.6571388 0.08137364 0.025665753 0.10844691 -0.36127678 -0.95787275
00000000: 4009 b13d 85c2 7d3e 1f49 8e3e abaa e6bd
00000010: 6d9a d7bc a300 71bd bc6c 70bd 985e 953e
00000020: 2645 823e 2756 293e 9b03 c0bc 020a 723f
00000030: b23b aa3e ab1c f13b 72c0 9abc ff53 1b3c
00000040: 89b8 40bc 61e6 82be 55c2 5e3e 5a5d 5bbd
00000050: b1ed 253e 50f6 d7bc 1c29 8abe fc6a e0bb
00000060: fa9a c03d de82 64bd 241b 4a3c 8928 003e
00000070: 1b2d 68bd 8f4a 3cbd 3f56 123d 9a1e 19bf
00000080: de62 21bd aba6 cc3e cdac d43d 3dc3 e63d
00000090: 6195 90be 2236 14be 2a20 cb3d 1f85 7d3e
000000a0: 9ddd 1abd 8c35 913e 9ddb 03bd 8a81 933e
000000b0: afce 593e ec9e 63bc deb4 02bf 4a7f 2b3d
000000c0: 013a 283f 9734 40bf 8021 89bd e820 4e3d
000000d0: d5cc d13d e3a2 5cbf eae4 63bc 40a6 81be
000000e0: 397a 23bd 2e47 af3d 9185 3f3e 9f8b 253c
000000f0: 6a37 62bd d227 853e 9275 df3d 70d4 01bf
00000100: c2ef bdbe a104 a1bd 3a8e 06be a0ee 5a3b
00000110: 70c9 dc3e 95da 66bd 54c1 293f ea4b 5cbd
00000120: dce7 57bd cb95 64bc 9d1d e8bd 2523 1dbc
00000130: b586 d43e 7a43 ff3c 3202 b33e 1fcd 43bf
00000140: 73f6 8cbd 71f9 36be 0ced 90bd 83ef 17bd
00000150: 2256 dcbe 65eb 903d ef02 90bb 262a 7abd
00000160: 1571 97bc 9883 96bc e37a a53e 7e42 42bc
00000170: 97b2 77be e008 a4bd 94d1 9b3e 66b4 acbd
00000180: bba6 32bf a546 bb3e 09ff 133e 1640 71bc
00000190: 6fcb 1abe 7505 433d ad7b 8ebc d4b9 c13e
000001a0: 6955 61bf ef75 81bd d1b4 4b3f 98b4 a2bd
000001b0: 89c1 0ebe fd07 1e3d d7a6 71bd 1f4c 8abe
000001c0: f723 d3be 2b2e 4e3f 1a6e 09bd 30ab 57bd
000001d0: 72e2 85bc da2f 2c3d 9a6b 923e bc5e a2bd
000001e0: c474 39bf bfc8 a6bd 7d77 a1bf 8a35 3b3d
000001f0: ef07 2fbd ba07 e43d 6aa1 0d3f 7643 dc3e
00000200: 7491 893f 1744 65be 5e2d 3d3e 066f e9be
00000210: 50d1 39bf 2846 c43d ddf4 983f eaba fcbd
00000220: dbaa ccbd 3246 00bf 4b0f be3e abe3 b63e
00000230: e91b 4dbe ce1c cc3d 7024 01bf 30b4 6f3e
00000240: 7454 ff3d 3b45 203e 401c 42bf 3a64 cb3d
00000250: bbfb 8f3f 3e3d 253e bf4d acbe 7199 cfbd
00000260: d9ce 5fbe b38f c1bf e7fe a6bf bdd8 79be
00000270: 916b 95be d3e9 c23d 7967 a8bf 2116 303f
00000280: 4579 823d f492 833c 38be 8d3d 58de 77be
00000290: 954d cc3e b970 b8bf f0cd 5abe 6eee 21be
000002a0: f1f9 813e 8601 1bbe 6fef b83f 3112 19be
000002b0: e09b 9bbe d0f8 aa3d 9a04 0a3f 9926 3c3f
000002c0: 97bf 3b3f 39b2 40c0 a940 aa3d 47f4 d73e
000002d0: 5e5c 4cbe 79bb c8be 7377 efbe 602c f3be
000002e0: cbce 013d 7516 9ebe 7545 2240 d035 d93d
000002f0: 6eba 983d 6430 6cbe 95ce a13f d6dc 1bc0
00000300: 00ba 29be 8cd4 983d eb68 8a3e d28c 0cbe
00000310: 1220 83be 84b1 503c 4e67 02bf b6bb 943d
00000320: 7420 3d3f 81a5 023e 3fec f53c 7cd1 a9bf
00000330: b5ed 22be 07f1 b33d 2139 6fbe 1bf3 c23c
00000340: 73d7 be3b ab19 92bd d73b 403e f4ef 983c
00000350: 2614 42be c374 cf3d 0991 94bd e064 b4bd
00000360: 2be4 0abe c580 ac3e b0ac 363e bfae 18be
00000370: 6aab 8bbe d337 ca3c f2ab 1b3e 9022 5d3f
00000380: 0bb5 99bd 5a81 16be 93cc 883d 7b85 34be
00000390: 713d a73d 4ecd 753e 7bbf 07be cfab 84be
000003a0: 6d76 b63c 91ea b93d 8cd9 f5be 79fd 833d
000003b0: 0933 553d f5ff de3d 7292 583f a611 08be
000003c0: f7d3 a93e 6203 99bf 7943 353c ddee 08bd
000003d0: cce0 10be 546d 753f 6ec0 13be 6f02 8dbd
000003e0: a6f3 71bd e1a0 993e 201d d43f 39a7 a63d
000003f0: fc40 d23c 6a19 de3d 45f9 b8be 2637 75bf

fc_mu.bias f4 [32]
-1.0785019 -1.429134 0.5459607 -2.491421 4.129338 -1.2332896 -3.9795315 0.96092105
0.623521 -0.076641135 1.377804 3.4276342 4.1967034 1.2880843 4.9223776 4.493731
-1.0097976 -4.565772 0.057515763 1.6262853 0.07618759 -4.503712 -2.7288404 -1.0006255
2.9020073 1.5327433 3.397126 2.3333054 -1.4331282 0.15948261 -2.773533 -3.9220579
00000000: 5a0c 8abf dded b6bf 15c4 0b3f 7173 1fc0
00000010: 8923 8440 6fdc 9dbf a5b0 7ec0 ecfe 753f
00000020: 129f 1f3f 07f6 9cbd e25b b03f 5c5e 5b40
00000030: 654b 8640 f2df a43f 1e84 9d40 a5cc 8f40
00000040: 0c41 81bf ce1a 92c0 a695 6b3d 1e2a d03f
00000050: 3d08 9c3d 691e 90c0 52a5 2ec0 7f14 80bf
00000060: 7dba 3940 ef30 c43f 836a 5940 e054 1540
00000070: bf70 b7bf 694f 233e 9181 31c0 ff02 7bc0

fc_logvar.weight f4 [32, 64]
0.015979392 -0.03438559 0.01697486 -0.0028439444 0.009061826 -0.007227274 0.16674101 -0.025474068
-0.05445438 0.12739609 0.11953696 0.962241 -0.021895122 0.035106376 0.0039637974 0.027719505
-0.028454537 0.027616654 0.19930603 0.0024726067 0.0018780108 0.056359697 0.05574991 -0.02583164
-0.012800852 -0.033432182 0.087542444 -0.003726241 0.8133594 0.0067716213 0.035741348 0.14181076
-0.0030490009 0.03263136 -0.034288384 -0.007067654 0.014218432 0.02221563 -0.009317692 -0.03010033
-0.015812207 -0.030494208 0.08538228 -0.049691267 -0.033072494 0.03039944 0.06447168 0.016458489
0.27822378 0.28432298 0.013372071 0.015803399 -0.0014764766 -0.15667054 -0.02520197 -0.009239799
-0.021906728 -0.055916697 0.1540099 0.029422091 -0.012525359 -0.023683753 0.07472231 0.258921
0.013261269 -0.021631906 0.023596754 0.035294283 -4.770694e-05 -0.002209975 0.166197 0.0037540111
-0.09187099 -0.002093106 0.037302706 0.16177157 0.038537383 0.010033051 -0.018851355 0.008555686
-0.012135005 0.048005365 -0.041390546 -0.005176654 -0.03870756 0.004212464 0.0808765 -0.0028101197
0.0006535179 -0.037254214 0.047212984 -0.00032320304 -0.034869045 -0.011182221 0.026533166 0.022748342
0.038482144 0.07724323 -0.085041605 0.0001284276 0.041604172 0.0024144223 -0.014253672 0.011242288
0.02766643 -0.032371134 0.09833713 -0.03246756 -0.017609717 0.0123751825 0.026252124 -0.015839748
0.35463414 -0.00926197 -0.01022533 -0.0037309986 0.00875904 -0.012692755 -0.13433559 -0.04847916
0.06960743 -0.08108544 -0.32636002 0.005728514 -0.021209715 -0.056721658 0.07311631 -0.025908368
0.0028045098 -0.14761926 0.05980748 -0.032477614 -0.01953876 -0.03879129 0.52162695 -0.1444676
-0.17204833 -0.040500846 0.11343592 0.6855926 -0.055220645 0.027066875 -0.03069416 -0.011095556
-0.07037697 0.03853681 -0.0719154 -0.029817665 0.012525645 0.060800277 0.05062485 -0.017160349
-0.0132034235 0.00015175113 0.16641569 -0.01858752 0.267837 -0.052886955 0.18467134 0.33165663
0.0064050937 0.006383035 -0.032090314 -0.020609397 0.04508651 0.03048776 -0.00012167656 -0.08548558
0.029575014 -0.17249484 0.3304908 -0.13547347 -0.108325765 0.023603821 0.120512426 0.043106887
0.16204192 0.26806396 -0.0299777 -0.008042447 -0.006633865 -0.17624746 -0.032893315 -0.012642334
0.008707359 -0.021156497 0.22298776 0.017993 -0.059499044 -0.041512016 0.17207201 0.07046794
0.003489046 -0.08167467 0.030530889 -0.005597696 -0.015829403 -0.015550334 0.21789218 -0.09048065
-0.092758074 0.29223955 0.11014568 1.3061963 -0.05723913 0.037092727 0.031282187 0.0011508486
-0.02833662 0.037940107 0.34478936 -0.014219862 0.04171082 0.0760339 0.061981916 -0.055167288
-0.015247819 0.031962134 0.112616666 -0.025702247 1.4614913 -0.04050766 0.08284176 0.40955946
0.008340669 -0.021191135 -0.0084606875 -0.009800337 0.029193733 -0.0113927405 -0.005838555 -0.0776472
0.014934255 -0.10147636 0.17993002 -0.072582014 -0.054201227 0.050028052 0.0456134 0.008326785
0.22086325 0.13573283 -0.0058392063 -0.018005058 0.002343023 -0.3605347 -0.0356102 -0.038116034
0.028133346 -0.04855045 0.55999124 0.038709424 -0.038589 -0.01186662 0.14443024 0.15406126
00000000: 37e7 823c e8d7 0cbd dd0e 8b3c 7861 3abb
00000010: 0e78 143c c5d2 ecbb 28be 2a3e feae d0bc
00000020: 8e0b 5fbd 1f74 023e cbcf f43d 6d55 763f
00000030: 665d b3bc b4cb 0f3d bee2 813b 0414 e33c
00000040: 7d19 e9bc 523c e23c e116 4c3e 750b 223b
00000050: 9627 f63a 6dd9 663d 055a 643d e09c d3bc
00000060: aaba 51bc 2ff0 08bd 7449 b33d f333 74bb
00000070: 5238 503f 7ae4 dd3b 8565 123d d736 113e
00000080: bfd1 47bb 76a8 053d fa71 0cbd c797 e7bb
00000090: 6df4 683c 8efd b53c 3ca9 18bc f894 f6bc
000000a0: 9a88 81bc fdce f9bc e8dc ae3d 1289 4bbd
000000b0: 0677 07bd 3f08 f93c ba09 843d f4d3 863c
000000c0: 5973 8e3e c892 913e 8816 5b3c 2176 813c
000000d0: 5586 c1ba 3e6e 20be 5d74 cebc 8762 17bc
000000e0: bd75 b3bc e808 65bd c5b4 1d3e 9906 f13c
000000f0: 2a37 4dbc 6e04 c2bc 0308 993d 4b91 843e
00000100: cb45 593c 6535 b1bc fb4d c13c bd90 103d
00000110: f018 48b8 3ad5 10bb 8c2f 2a3e db05 763b
00000120: dc26 bcbd 7e2c 09bb b9ca 183d 72a7 253e
00000130: 60d9 1d3d aa61 243c 286e 9abc 262d 0c3c
00000140: e6d1 46bc 46a1 443d 2289 29bd eca0 a9bb
00000150: d28b 1ebd b608 8a3b 94a2 a53d fc29 38bb
00000160: d850 2b3a e097 18bd 6762 413d 9473 a9b9
00000170: d8d2 0ebd a235 37bc 155c d93c bb5a ba3c
00000180: 749f 1d3d b331 9e3d 4b2a aebd 85aa 0639
00000190: 2369 2a3d 493b 1e3b 3c88 69bc 9331 383c
000001a0: b6a4 e23c 9897 04bd fa64 c93d b4fc 04bd
000001b0: 4142 90bc 47c1 4a3c b20e d73c 5cc2 81bc
000001c0: 9b92 b53e 85bf 17bc 2488 27bc c583 74bb
000001d0: 1482 0f3c 46f5 4fbc 458f 09be 1592 46bd
000001e0: 578e 8e3d 2010 a6bd a918 a7be 42b6 bb3b
000001f0: ffbf adbc f854 68bd 01be 953d c93d d4bc
00000200: decb 373b 8129 17be b0f8 743d 3f07 05bd
00000210: c00f a0bc 9ee3 1ebd 5889 053f 51ef 13be
00000220: 702d 30be 37e4 25bd 1751 e83d ff82 2f3f
00000230: 0b2f 62bd 5abb dd3c 5272 fbbc 23ca 35bc
00000240: cd21 90bd c6d8 1d3d 6248 93bd 2d44 f4bc
00000250: 5d38 4d3c b609 793d 015c 4f3d dc93 8cbc
00000260: 2c53 58bc 621f 1f39 e068 2a3e db44 98bc
00000270: ee21 893e fe9f 58bd 7c1a 3d3e e6ce a93e
00000280: d2e1 d13b c728 d13b 2271 03bd 0ad5 a8bc
00000290: a2ac 383d 78c1 f93c 9b2c ffb8 1013 afbd
000002a0: 4d47 f23c 7da2 30be 1736 a93e 8fb9 0abe
000002b0: e6d9 ddbd cd5c c13c 38cf f63d d990 303d
000002c0: 51ee 253e ae3f 893e cb93 f5bc 78c4 03bc
000002d0: e560 d9bb 377a 34be 24bb 06bd cb21 4fbc
000002e0: 50a9 0e3c 6450 adbc e756 643e 0e66 933c
000002f0: 45b5 73bd 8108 2abd a533 303e 7f51 903d
00000300: 7aa8 643b 0d45 a7bd ea1b fa3c e16c b7bb
00000310: aaac 81bc d4c6 7ebc 211f 5f3e eb4d b9bd
00000320: f2f7 bdbd 6ca0 953e 0f94 e13d 7131 a73f
00000330: 9473 6abd 8bee 173d c021 003d 12d8 963a
00000340: 3322 e8bc 1667 1b3d 3b88 b03e 6dfa 68bc
00000350: f7d8 2a3d a9b7 9b3d c0e0 7d3d 18f7 61bd
00000360: fdd1 79bc baea 023d 91a3 e63d 858d d2bc
00000370: 2612 bb3f 5ceb 25bd f1a8 a93d c7b1 d13e
00000380: 4da7 083c 0899 adbc b29e 0abc 9891 20bc
00000390: b227 ef3c 9ea8 3abc 5951 bfbb 7f05 9fbd
000003a0: ceae 743c d6d2 cfbd 933f 383e e1a5 94bd
000003b0: 1b02 5ebd 37ea 4c3d 1ed5 3a3d 116d 083c
000003c0: fa29 623e 8cfd 0a3e d056 bfbb 587f 93bc
000003d0: 678d 193b 0198 b8be 00dc 11bd 8f1f 1cbd
000003e0: e777 e63c d6dc 46bd 965b 0f3f c68d 1e3d
000003f0: 800f 1ebd 366c 42bc 85e5 133e 3cc2 1d3e

fc_logvar.bias f4 [32]
-3.0925336 -3.0758047 -2.6429667 -3.9361637 -3.052206 -3.8279397 -2.353585 -2.4898806
-2.941868 -2.0466406 -3.726938 -3.336056 -3.4490883 -2.6053538 -2.0979 -3.5022514
-3.6331682 -2.3185108 -3.539234 -3.48278 -3.259071 -2.4324825 -2.2000754 -3.2085977
-3.720151 -3.3537698 -3.4292595 -2.595754 -3.2177591 -3.2336698 -2.406573 -1.3596522
00000000: 12ec 45c0 fcd9 44c0 5e26 29c0 1bea 7bc0
00000010: 5857 43c0 f7fc 74c0 23a1 16c0 345a 1fc0
00000020: 9147 3cc0 29fc 02c0 2786 6ec0 f181 55c0
00000030: ddbd 5cc0 1ebe 26c0 fe43 06c0 e324 60c0
00000040: d485 68c0 7b62 14c0 cf82 62c0 dee5 5ec0
00000050: 9f94 50c0 cbad 1bc0 09ce 0cc0 aa59 4dc0
00000060: f416 6ec0 2aa4 56c0 fd78 5bc0 d520 26c0
00000070: c4ef 4dc0 72f4 4ec0 4b05 1ac0 1509 aebf
