v3_600_batteries/bess_model_v6_fawkes.pt (torch, 138993 bytes, 63 tensors)

encoder_layers.0.weight f4 [128, 16]
0	0x3d40321a	0.04692278
1	0x3d8f472b	0.06995996
2	0xbe2f30d7	-0.17108475
3	0x3e376d5d	0.17912813
4	0xbe7061ce	-0.2347481
5	0xbc96bd6e	-0.018400874
6	0xbdc6bbbf	-0.097037785
7	0x3dd7ff49	0.10546739
8	0xbe0da513	-0.13832502
9	0xbcf8ad52	-0.030356083
10	0xb99ee2a9	-0.00030304983
11	0xbe213dff	-0.15746306
12	0x3d2ccf16	0.04218968
13	0xbe57b7fd	-0.2106628
14	0x3eefc65e	0.4683103
15	0x3e4a2f6c	0.19744653
16	0xbd45f88a	-0.04833273
17	0xbdba8562	-0.09107472
18	0x3d137247	0.035997655
19	0x3e3687ee	0.1782529
20	0x3d34adb2	0.04411096
21	0x3daac304	0.083379775
22	0xbd8c3462	-0.06845929
23	0xbdadda7d	-0.08488939
24	0x3e00ef92	0.12591389
25	0x3d0fd4ca	0.03511504
26	0x3b6788bf	0.003532931
27	0xbb2b48be	-0.0026135887
28	0xbe4dab82	-0.20084956
29	0xbe9bc6b1	-0.30425027
30	0x3e98211c	0.2971276
31	0xbe20a418	-0.15687597
32	0xbd611ab8	-0.05495712
33	0x3dc5187b	0.0962381
34	0xbce332bb	-0.027734151
35	0x3d61b3a8	0.055102974
36	0xbdc03893	-0.09385791
37	0xbc994246	-0.01870836
38	0xbc3e27c7	-0.011606163
39	0xbe0be41e	-0.13661239
40	0x3dc11549	0.09427888
41	0x3ca1fa10	0.01977256
42	0xba95dd72	-0.0011433794
43	0x3d8f98db	0.07011577
44	0x3e048708	0.12942135
45	0xbec846b8	-0.39116454
46	0x3da3f18b	0.08005055
47	0xbe62b84d	-0.22140618
48	0x3da84ce8	0.08217794
49	0x3dd67544	0.104715854
50	0x3d241cac	0.040066406
51	0x3c177c80	0.009245992
52	0xbd6e5a41	-0.05819154
53	0xbd8308d0	-0.06398165
54	0x3e053edc	0.1301226
55	0xbd93833c	-0.07202765
56	0x3cdb36a0	0.026759446
57	0xbce50022	-0.027954165
58	0x3c5f9870	0.013647184
59	0x3e1e3ad3	0.15452127
60	0x3da58b7b	0.080832444
61	0x3eac0b73	0.33602485
62	0x3e8b1cdb	0.27170452
63	0x3cf9a444	0.030473836
64	0x3d89eb1e	0.06734298
65	0x3dabf2e7	0.08395939
66	0xbdcf0511	-0.10108388
67	0x3d0543fe	0.032535546
68	0xbe199e13	-0.15001707
69	0x3dcab2f4	0.09897414
70	0x3e060c9e	0.1309075
71	0xbe5a8c72	-0.21342638
72	0x3e379f88	0.1793195
73	0x3cf29354	0.029611267
74	0x3db76b8f	0.08956062
75	0x3d0683a2	0.03284038
76	0x3cfd63f7	0.030931456
77	0xbdc1f5b4	-0.09470692
78	0x3f063e91	0.5243922
79	0x3dcf04c0	0.10108328
80	0xbcaff617	-0.02147965
81	0x3dbe0d77	0.09279912
82	0xbca1c33f	-0.01974642
83	0xb92e024e	-0.00016594792
84	0x3d2855d2	0.04109747
85	0x3d3361b2	0.04379434
86	0xbdbe9ad0	-0.09306872
87	0x3e016cd5	0.12639172
88	0xbe141398	-0.144606
89	0xbc9d3270	-0.01918909
90	0xbaafe119	-0.0013418525
91	0xbd663567	-0.056203272
92	0xbe2bf8a7	-0.16794072
93	0x3dce346a	0.10068591
94	0xbf1dc336	-0.61625993
95	0xbe3132c6	-0.17304525
96	0xbbb13d6d	-0.005408934
97	0xbe11d08b	-0.14239709
98	0x3d706498	0.058689684
99	0x3e4b795d	0.19870515
100	0xbd2efa7d	-0.042719353
101	0xbc87577f	-0.016521214
102	0x3e0488b4	0.12942773
103	0x3d86beff	0.06579398
104	0xbe09604f	-0.13415645
105	0x3ae25388	0.0017267326
106	0xb9a1386c	-0.0003075035
107	0x3db24fbe	0.08706616
108	0x3d84f340	0.06491709
109	0x3e7348a4	0.23758179
110	0x3ea00b2e	0.3125853
111	0x3d030519	0.031987283
112	0xbc1024de	-0.008797852
113	0xbe366ae0	-0.17814207
114	0x3c867ed7	0.016417904
115	0x3dd2c244	0.102909595
116	0xb94a6555	-0.0001930197
117	0x3d320f11	0.0434714
118	0xbbf6de0b	-0.007533794
119	0xbe0e4b7a	-0.1389598
120	0x3deecfe2	0.11660744
121	0xba35470c	-0.0006915189
122	0xb8059cb4	-3.1855612e-05
123	0x3ce847d1	0.028354557
124	0x3d9d345a	0.07676001
125	0xbebc7dad	-0.36814633
126	0xbb2ccb42	-0.0026366268
127	0x3e45e902	0.19327167
128	0x3aed27f5	0.0018093573
129	0xbe85a780	-0.26104355
130	0xbc910285	-0.017701397
131	0x3e3a871a	0.182156
132	0xbd032b51	-0.03202373
133	0xbd372c5e	-0.044720046
134	0xbce630f6	-0.028099518
135	0x3c551bc2	0.013007106
136	0xbceea95d	-0.029133493
137	0x3c2473ff	0.010037421
138	0xbb1c796e	-0.0023876089
139	0xbdbfb35f	-0.09360384
140	0x3de4ad00	0.1116581
141	0x3eb0639a	0.3445099
142	0x3d3fe21e	0.0468465
143	0xbe997a50	-0.2997613
144	0x3d7a13fb	0.06105421
145	0xbd89d9b5	-0.067309774
146	0x3d1b91e3	0.037980925
147	0x3e5422d0	0.20716405
148	0x3c172808	0.009225853
149	0xbdd715d6	-0.10502212
150	0x3db82cad	0.08992896
151	0x3e027bc1	0.12742521
152	0x3d332dbd	0.04374479
153	0x3df25498	0.11832541
154	0xbdc847c3	-0.097793125
155	0xbdc2dfa9	-0.09515316
156	0xbe315418	-0.17317235
157	0x3f06066c	0.5235355
158	0x3eb16093	0.34643993
159	0x3dbaf885	0.091294326
160	0xbd74737d	-0.05968045
161	0x3ca1de69	0.019759374
162	0x3d0cb66a	0.03435365
163	0x3d8887b2	0.06666507
164	0x3dd5c0b2	0.10437144
165	0xbc95d87b	-0.018291702
166	0x3cf7afab	0.030235132
167	0x3d2a1c70	0.041531026
168	0xbde93c34	-0.11388436
169	0x3d01bb09	0.03167251
170	0x3ae7bf0e	0.001768084
171	0x3db24a51	0.08705581
172	0xbe68e3f5	-0.22743209
173	0xbe72b66b	-0.237024
174	0x3ecd34ff	0.40079495
175	0xbd64deaf	-0.05587643
176	0x3d097efd	0.03356837
177	0x3da8c22f	0.082401626
178	0xbc864c6a	-0.016393859
179	0x3dc9c368	0.09851724
180	0xbda1ac62	-0.078942075
181	0xbd28482d	-0.041084457
182	0xbc903b1b	-0.017606309
183	0x3e0ffdd7	0.14061676
184	0xbd8e22a3	-0.069402
185	0x38a4f402	7.8655794e-05
186	0xbb3b74dd	-0.0028603591
187	0xbd409960	-0.04702127
188	0xbd569142	-0.052384622
189	0xbee59aff	-0.44844815
190	0x3cc0da3e	0.023541566
191	0x3ea48506	0.3213274
192	0x3ca0183b	0.019542804
193	0xbe110839	-0.14163293
194	0x3d65b0ef	0.05607694
195	0x3e774fcd	0.24151535
196	0x3a3a6f5c	0.0007111931
197	0x3dc9db4e	0.09856282
198	0x3bae3707	0.0053166184
199	0xbce8938f	-0.028390674
200	0xbbdb1c93	-0.006686756
201	0x3bab7239	0.0052321223
202	0xbb945dee	-0.004527799
203	0x3dc17355	0.09445826
204	0xbd0b117a	-0.033952214
205	0x3ea21a5d	0.3166074
206	0xbe8c0640	-0.27348518
207	0xbe511395	-0.20417626
208	0x3d0b8a7a	0.03406761
209	0x3db6eb8d	0.089316465
210	0x3d399e0e	0.04531675
211	0x3de947a1	0.11390615
212	0xbd11068c	-0.035406634
213	0x3bcfe57b	0.006344495
214	0x3d167049	0.036728177
215	0xbd11448c	-0.035465762
216	0xbc32670e	-0.010888828
217	0xbc010f58	-0.007877193
218	0x3c0b724f	0.00851114
219	0x3c1eb22e	0.009686036
220	0xbe388bc3	-0.18022065
221	0x3d7b1fd4	0.06130965
222	0xbf34fafb	-0.70695466
223	0x3d1b39a5	0.03789677
224	0xbd369840	-0.04457879
225	0xbd068694	-0.032843187
226	0x3d096aed	0.033549238
227	0xbdf837f6	-0.12120049
228	0x3e29d2e8	0.1658436
229	0x3d09b15f	0.03361642
230	0x3d97a10c	0.07403764
231	0x3df4f3bc	0.11960551
232	0xbd98b5ed	-0.074565746
233	0x3c07dea4	0.008292828
234	0x3ce9a5d4	0.028521456
235	0xbc53932d	-0.012913507
236	0xbde06895	-0.109574474
237	0xbdee4cff	-0.116357796
238	0x3ea371aa	0.31922656
239	0x3e9ce8bf	0.3064632
240	0x3c408f56	0.011752924
241	0x3e394a07	0.18094645
242	0x3df0a451	0.11750091
243	0xbdb90a2b	-0.090351425
244	0xbd8abb44	-0.06773999
245	0xbd87ed2e	-0.06637035
246	0xbdf6d220	-0.12051797
247	0xbd7e3140	-0.062058687
248	0xbd5f5e7d	-0.05453347
249	0xbd0059f9	-0.031335805
250	0x3b759c6f	0.0037477275
251	0xbddb06f5	-0.10694686
252	0x3d31e564	0.043431655
253	0x3ea2f0d2	0.31824356
254	0x3ead256e	0.3381762
255	0xbc9096c8	-0.017650023

encoder_layers.0.bias f4 [128]
0	0xbe3994fa	-0.18123236
1	0xbde92435	-0.11383859
2	0x3e8af774	0.27141917
3	0x3eb9cfc3	0.36291322
4	0xbe706dca	-0.23479381
5	0xbe29ed35	-0.16594394
6	0xbed23cee	-0.4106211
7	0xbe004a05	-0.12528236
8	0xbe0f7f98	-0.14013517
9	0xbe311958	-0.17294824
10	0x3dfe40f3	0.12414732
11	0xbdbd8679	-0.09254164
12	0x3ec994a3	0.39371213
13	0x3ebc2c29	0.36752442
14	0x3c04bd9d	0.008101848
15	0x3e1f630a	0.15565124
16	0x3e8d5f6d	0.27611867
17	0xbaf2c14b	-0.001852074
18	0xbb7b5e69	-0.0038355833
19	0x3cd86e11	0.026419671
20	0x3e1761b3	0.14783363
21	0xbe543940	-0.20724964
22	0x3e91f95d	0.28510562
23	0x3e7a8b4b	0.24467199
24	0x3eaa41aa	0.33253223
25	0x3f0ccc2b	0.54999036
26	0x3e001604	0.12508398
27	0xbd83ed23	-0.064417146
28	0x3e518f9e	0.20464942
29	0xbbfd6e8f	-0.007734127
30	0x3ef77a7b	0.48335633
31	0xbd860fa3	-0.06545951
32	0xbdf15199	-0.11783142
33	0xbc6cbc4b	-0.014449189
34	0x3d96f74c	0.07371387
35	0x3d88deea	0.066831425
36	0xbd026219	-0.031831834
37	0x3f24673f	0.6422004
38	0x3dc7219d	0.09723208
39	0x3ddbfb8a	0.10741337
40	0x3dfee0e2	0.12445237
41	0xbde70388	-0.112799704
42	0xbe04a875	-0.12954886
43	0xbd3f04c0	-0.04663539
44	0xbd22a48c	-0.039707705
45	0x3eac7cfd	0.33689108
46	0xbcce8bac	-0.025213085
47	0xbe8beb0f	-0.27327773
48	0x3e583ca0	0.21116877
49	0xbe2d0e2c	-0.16899937
50	0xbd391fdc	-0.0451964
51	0xbea0bbda	-0.3139332
52	0x3eb136db	0.34612164
53	0x3dcb3f9b	0.09924241
54	0xbdae48b0	-0.08509958
55	0x3d5b7e1d	0.053587068
56	0x3d04ad03	0.03239156
57	0x3f35423f	0.7080421
58	0x3e1cdf44	0.15319544
59	0x3ead2f85	0.33825317
60	0x3f1d9f3d	0.61571103
61	0xbe968c21	-0.29403785
62	0x3dd1dab0	0.102467895
63	0x3df60674	0.120129496
64	0x3e1b15b9	0.15145005
65	0x3ed1ef59	0.4100292
66	0xbe7103c6	-0.23536596
67	0x3e6ceb5c	0.23136657
68	0x3f1bffe5	0.6093734
69	0xbeab33ee	-0.33438057
70	0x3e51a044	0.20471293
71	0x3ea2bc38	0.31784225
72	0xbeb9b800	-0.36273193
73	0x3f162b80	0.58660126
74	0x3cb85c12	0.02250484
75	0x3eef1e78	0.46702933
76	0x3e30e04a	0.1727306
77	0xbe014467	-0.1262375
78	0x3e4f5ce8	0.20250285
79	0x3de6fe22	0.11278941
80	0x3e09a291	0.1344092
81	0xbdb5b889	-0.08873088
82	0x3e922e1c	0.28550804
83	0x3e648be0	0.22318983
84	0xbe239da5	-0.15978105
85	0x3d8beea6	0.06832628
86	0x3e859f5c	0.26098144
87	0xbebd1ada	-0.3693455
88	0x3e499b19	0.19688071
89	0x3bcfcd41	0.006341607
90	0xbe6fd40e	-0.23420736
91	0x3eabf681	0.33586505
92	0x3eb842c1	0.3598843
93	0xbedb56a5	-0.42839542
94	0xbe619531	-0.22029568
95	0x3d2b0f90	0.04176289
96	0x3e022421	0.12709095
97	0xbd03e0cd	-0.03219681
98	0x3df58806	0.11988835
99	0xbe2bcaf1	-0.16776635
100	0xbd93164d	-0.07181988
101	0xbe9ce796	-0.30645436
102	0x3e8100a9	0.25195816
103	0x3be6a74b	0.007038986
104	0xbed14414	-0.40872252
105	0x3e9827c8	0.2971785
106	0x3d806a5a	0.06270285
107	0x3e7ee0a9	0.24890389
108	0x3d6f0bf5	0.058361012
109	0x3dc46496	0.09589498
110	0xbab7c37c	-0.0014020051
111	0x3e4b1b64	0.19834667
112	0x3eac57fa	0.3366087
113	0xbda4b2ee	-0.08041941
114	0xbcaa3244	-0.020775922
115	0xbaf64934	-0.0018790127
116	0x3d09bd82	0.033627994
117	0x3ca87c11	0.020566972
118	0x3cf4e943	0.029896384
119	0x3e8728b4	0.26398242
120	0x3e1867da	0.14883366
121	0xbddaf7b9	-0.106917806
122	0xbe875824	-0.26434433
123	0xbddcac67	-0.10775071
124	0x3db9756b	0.09055599
125	0x3d2ec39f	0.042667028
126	0x3ee5361c	0.44767845
127	0x3db00adc	0.08595821

encoder_layers.2.weight f4 [128]
0	0x3f6c37ae	0.9227246
1	0x3f6f88e6	0.93568265
2	0x3f779944	0.9671824
3	0x3f6c55a6	0.9231819
4	0x3f6e134d	0.929982
5	0x3f80190f	1.0007647
6	0x3f7d8d8a	0.99044096
7	0x3f7810ad	0.96900445
8	0x3f90ca5e	1.1311758
9	0x3f72fb7e	0.94914997
10	0x3f82a2d4	1.0205941
11	0x3f6cddea	0.92526114
12	0x3f825c8b	1.0184492
13	0x3f7e5956	0.99355066
14	0x3f7f6141	0.9975777
15	0x3f70426a	0.9385134
16	0x3f91f952	1.1404212
17	0x3f6fb7cd	0.9363983
18	0x3f813c39	1.0096503
19	0x3f839f2c	1.028295
20	0x3f72222e	0.94583404
21	0x3f825f30	1.0185299
22	0x3f89902a	1.074712
23	0x3f87ce7c	1.0609889
24	0x3f851dd0	1.0399723
25	0x3f69cf57	0.91332
26	0x3f70dccc	0.9408691
27	0x3f79fa44	0.976475
28	0x3f834d9f	1.0258063
29	0x3f6accff	0.9171905
30	0x3f8faaf5	1.1224047
31	0x3f5a94ec	0.85383487
32	0x3f7732e9	0.9656206
33	0x3f70ef13	0.941148
34	0x3f7c563c	0.98569083
35	0x3f6381d0	0.88869953
36	0x3f63caa4	0.8898108
37	0x3f7b1b7c	0.9808881
38	0x3f8004fe	1.0001523
39	0x3f7ef874	0.9959786
40	0x3f809d36	1.0047977
41	0x3f8055d6	1.0026195
42	0x3f7139ed	0.9422901
43	0x3f80f01a	1.0073273
44	0x3f859383	1.0435642
45	0x3f86e194	1.0537591
46	0x3f6ef2bb	0.9333913
47	0x3f726728	0.94688654
48	0x3f7f1a90	0.99649906
49	0x3f7e0c2b	0.99237317
50	0x3f73d776	0.9525064
51	0x3f6c31fb	0.92263764
52	0x3f7481e0	0.95510674
53	0x3f7ebad2	0.99503815
54	0x3f80c83a	1.0061104
55	0x3f747dbc	0.95504355
56	0x3f7a1744	0.9769175
57	0x3f76e419	0.964418
58	0x3f6099f2	0.877349
59	0x3f876495	1.057757
60	0x3f639176	0.8889383
61	0x3f80a76a	1.0051091
62	0x3f80248e	1.0011156
63	0x3f847398	1.0347776
64	0x3f73ef6f	0.9528722
65	0x3f836fef	1.0268534
66	0x3f81f45b	1.0152696
67	0x3f82b3b9	1.0211097
68	0x3f8893bd	1.0670086
69	0x3f794f1e	0.9738635
70	0x3f7796be	0.9671439
71	0x3f7855b0	0.9700575
72	0x3f7a2002	0.9770509
73	0x3f7497f5	0.9554437
74	0x3f8680ed	1.0508095
75	0x3f8fb69d	1.1227604
76	0x3f728ed0	0.94749165
77	0x3f6cf0d2	0.9255496
78	0x3f7fd3cb	0.99932545
79	0x3f7e5e33	0.99362487
80	0x3f6a5d33	0.9154846
81	0x3f829cca	1.0204098
82	0x3f6d9b9a	0.92815554
83	0x3f73e7be	0.95275486
84	0x3f7a29b0	0.9771986
85	0x3f75c4eb	0.960036
86	0x3f7c764d	0.9861801
87	0x3f8b52d5	1.0884653
88	0x3f839e50	1.0282688
89	0x3f809c94	1.0047784
90	0x3f81dc27	1.014531
91	0x3f7c9889	0.9867025
92	0x3f80fcce	1.007715
93	0x3f8d01e8	1.1016207
94	0x3f89b6c1	1.0758897
95	0x3f7e05d8	0.99227667
96	0x3f7c411a	0.9853684
97	0x3f66077f	0.8985519
98	0x3f74d04b	0.9563033
99	0x3f8009ed	1.0003029
100	0x3f6936e5	0.9109939
101	0x3f7c2e72	0.9850837
102	0x3f8814bf	1.0631331
103	0x3f896dc4	1.0736623
104	0x3f807788	1.0036478
105	0x3f822fd9	1.0170852
106	0x3f83308b	1.0249189
107	0x3f7c993d	0.98671323
108	0x3f7a1b9f	0.97698396
109	0x3f62b616	0.8855909
110	0x3f61e3f9	0.88238484
111	0x3f829b92	1.0203726
112	0x3f8040d2	1.0019782
113	0x3f847b47	1.0350121
114	0x3f755d12	0.9584514
115	0x3f7767bb	0.96642655
116	0x3f76c70a	0.9639746
117	0x3f7cfbcf	0.9882173
118	0x3f68a732	0.9088012
119	0x3f6a4e1f	0.91525453
120	0x3f889743	1.0671161
121	0x3f785251	0.97000605
122	0x3f797cf1	0.9745627
123	0x3f7d8e1b	0.9904496
124	0x3f83b939	1.02909
125	0x3f6035b6	0.87581956
126	0x3f96ccb9	1.1781226
127	0x3f89392e	1.0720575

encoder_layers.2.bias f4 [128]
0	0xbbd27795	-0.0064229467
1	0x3dc6a1a8	0.09698802
2	0xbb86d202	-0.0041143904
3	0xbe917da1	-0.2841616
4	0xbdb6e814	-0.08930984
5	0x3ca63ade	0.020291742
6	0xbe0e6959	-0.13907374
7	0xbeaefa5f	-0.34175393
8	0x3e1b05d0	0.15138936
9	0xbe696865	-0.2279373
10	0xbe721aad	-0.23642989
11	0xbe9d9341	-0.30776408
12	0xbea438b9	-0.32074526
13	0xbeb689bb	-0.35651955
14	0xbed2452d	-0.41068402
15	0xbd2c36fd	-0.04204463
16	0xbe01859b	-0.12648623
17	0xbe39d2ca	-0.18146816
18	0xbe73feea	-0.23827711
19	0x3c9fb2e2	0.019494478
20	0xbdf2132a	-0.118200615
21	0xbe9827e5	-0.29717937
22	0xbd989e8d	-0.07452116
23	0xbe0b1cf8	-0.1358527
24	0xbd61af63	-0.055098902
25	0xbee846f2	-0.45366627
26	0xbe1347f0	-0.1438291
27	0xbe72f366	-0.23725662
28	0xbea07a53	-0.31343326
29	0xbea850fa	-0.3287428
30	0xbd1c0bbc	-0.03809713
31	0xbe5363a1	-0.20643474
32	0xbe2a2c63	-0.16618495
33	0xbd9929d4	-0.07478681
34	0x3b4fa18b	0.003168198
35	0xbe14e61f	-0.14540909
36	0xbc83e674	-0.0161011
37	0xbd96c5fc	-0.07361981
38	0xbf06f8d1	-0.52723414
39	0xbe178b8f	-0.14799331
40	0xbdb50bb2	-0.08840121
41	0xbe036067	-0.12829743
42	0x3e517607	0.2045518
43	0xbdec6b16	-0.115438625
44	0xbcde6dd5	-0.027151981
45	0xbd975eee	-0.07391153
46	0xbee1ef4e	-0.44127887
47	0xbe50bbac	-0.20384091
48	0xbdeafd93	-0.11474147
49	0xbd23f4aa	-0.04002825
50	0x3e8cdebb	0.2751368
51	0xbe10e819	-0.14151038
52	0xbea0768a	-0.31340438
53	0xbcff88be	-0.031193133
54	0xbe3626b0	-0.17788196
55	0xbe075505	-0.13216026
56	0xbe94a6ca	-0.290335
57	0x3e5ba279	0.21448697
58	0xbe8c3355	-0.27382913
59	0xbe4c50fa	-0.19952765
60	0xbeb6b844	-0.3568746
61	0xbe391db8	-0.18077743
62	0xbe3dc0f4	-0.18530637
63	0x3dacacd0	0.08431399
64	0xbe9c8489	-0.30569866
65	0xbe8ca790	-0.2747159
66	0xbea3b08c	-0.31970632
67	0x3c298170	0.010345802
68	0x3e1b7d2f	0.15184473
69	0xbea52576	-0.32255143
70	0xbed8807c	-0.42285526
71	0xbe241f20	-0.16027498
72	0xbe75fe5d	-0.24022813
73	0xbd2cd545	-0.042195577
74	0xbd9b664f	-0.07587873
75	0x3d04d694	0.0324312
76	0xbe50c623	-0.20388083
77	0x3da2801d	0.07934592
78	0xbe66b493	-0.22529821
79	0xbe8ceb69	-0.27523354
80	0xbe63d90d	-0.22250767
81	0xbdb25605	-0.08707813
82	0xbe71da46	-0.23618421
83	0xbe6f4cc9	-0.23369135
84	0xbe05d7f9	-0.13070668
85	0x3e6db886	0.23214921
86	0x3c99e15d	0.01878422
87	0x3dfeec89	0.12447459
88	0xbe23723e	-0.15961549
89	0xbd073dc2	-0.03301788
90	0x3e945e22	0.28978068
91	0xbd17008e	-0.036865763
92	0xbd1faeb0	-0.038984954
93	0xbdbb1253	-0.091343544
94	0x3d023bbe	0.031795256
95	0xbc1c30a2	-0.009533079
96	0x3d063547	0.032765653
97	0xbeae949e	-0.3409776
98	0xbe12fe94	-0.14354926
99	0x3b82c9a0	0.0039913207
100	0xbe72b68c	-0.23702449
101	0x3cfc538d	0.030801559
102	0xbda4dceb	-0.08049949
103	0xbe0c1daa	-0.13683191
104	0xbd58d232	-0.052934833
105	0xbd4efbeb	-0.050533216
106	0xbe88747d	-0.26651374
107	0xbcb7041e	-0.02234083
108	0xbec9ae56	-0.3939082
109	0xbe0123b6	-0.12611279
110	0xbe52a93b	-0.20572369
111	0xbe797087	-0.24359332
112	0xbed0121e	-0.40638822
113	0xbe80454a	-0.25052863
114	0xbe6388ad	-0.22220106
115	0xbe9cd042	-0.30627638
116	0xbd819768	-0.063277066
117	0xbdbb1616	-0.09135072
118	0xbe1eab90	-0.15495133
119	0xbe500c97	-0.20317303
120	0xbe45e8f4	-0.19327146
121	0xbe788c1d	-0.24272199
122	0xbe21c3a4	-0.15797287
123	0xbddaecb9	-0.106896825
124	0xbe63791c	-0.22214168
125	0xbeac3f2b	-0.33641943
126	0x3d38e345	0.045138616
127	0xbe1d0bad	-0.15336485

encoder_layers.2.running_mean f4 [128]
0	0x3e30d6c5	0.17269428
1	0x3e09d3ab	0.13459651
2	0x3f033af6	0.5126184
3	0x3ec681e9	0.3877099
4	0x3e4cd28f	0.20002197
5	0x3e103ab2	0.1408489
6	0x3cecfcf0	0.028929204
7	0x3d008f1b	0.031386476
8	0x3cfadcba	0.030622829
9	0x3e8b89a9	0.27253464
10	0x3e806e1a	0.25084
11	0x3d6e785a	0.058220245
12	0x3ed48d19	0.415139
13	0x3f038a20	0.5138264
14	0x3e819d9e	0.25315565
15	0x3e7f34b6	0.24922451
16	0x3e941280	0.28920364
17	0x3e8d7f8f	0.27636382
18	0x3ec0882b	0.37603888
19	0x3e86de40	0.26341438
20	0x3ed22ce7	0.41049883
21	0x3e362bb0	0.17790103
22	0x3eb3d6ea	0.35124904
23	0x3e931456	0.28726453
24	0x3ebe09a9	0.37116745
25	0x3f117c7e	0.56830585
26	0x3eefcb5c	0.46834838
27	0x3e96bb86	0.29439944
28	0x3e8ddf6e	0.27709526
29	0x3e081a6b	0.13291328
30	0x3ef4f9ec	0.47846925
31	0x3e85ea0d	0.2615513
32	0x3e374076	0.17895684
33	0x3e931e1d	0.28733912
34	0x3e6cb0e8	0.2311436
35	0x3e74ffda	0.23925725
36	0x3e30771d	0.17232938
37	0x3f288664	0.65830064
38	0x3e2e5470	0.17024398
39	0x3ee56540	0.4480381
40	0x3ec3c352	0.38234955
41	0x3e1bb981	0.15207483
42	0x3e2c52e7	0.168285
43	0x3e322770	0.17397857
44	0x3e9b0f13	0.30284938
45	0x3ed8df5e	0.42357916
46	0x3e8ecf0e	0.27892345
47	0x3d654f51	0.055983845
48	0x3ea09c16	0.31369084
49	0x3dcfecc8	0.10152584
50	0x3e2bae2b	0.16765659
51	0x3e46f30a	0.1942865
52	0x3ef3a758	0.4758861
53	0x3eb9b9a1	0.36274436
54	0x3de78967	0.11305504
55	0x3edecfd9	0.4351795
56	0x3ec1dc4b	0.37863383
57	0x3f36f9e6	0.71475065
58	0x3eb524c2	0.35379606
59	0x3ec3a244	0.38209736
60	0x3f21409c	0.6298921
61	0x3dd29245	0.10281805
62	0x3e5f420d	0.2180254
63	0x3e7b8935	0.24564059
64	0x3eacc9fe	0.33747858
65	0x3eeff37b	0.46865448
66	0x3e204081	0.15649606
67	0x3e92e800	0.28692627
68	0x3f1e1a9b	0.61759347
69	0x3dbc71dd	0.09201405
70	0x3eb08538	0.34476638
71	0x3eaad5b4	0.33366168
72	0x3c91392b	0.017727455
73	0x3f16e69d	0.5894564
74	0x3e241f7e	0.16027638
75	0x3eee0bdc	0.46493423
76	0x3e8a80b4	0.27051318
77	0x3decb478	0.11557859
78	0x3ec41add	0.38301745
79	0x3ece89a5	0.4033939
80	0x3e92c3ef	0.2866511
81	0x3e1d43da	0.15357915
82	0x3eb74594	0.3579527
83	0x3eae8fef	0.34094188
84	0x3e943322	0.2894526
85	0x3e7590fc	0.23981088
86	0x3ea16e92	0.3152967
87	0x3c3594d3	0.011082846
88	0x3efa1f8e	0.488522
89	0x3e93a341	0.2883549
90	0x3e17ab8d	0.14811535
91	0x3eb8fe8e	0.3613171
92	0x3f00db1e	0.50334346
93	0x3d16d6d6	0.036825977
94	0x3ca739fb	0.02041339
95	0x3e0d579c	0.13802952
96	0x3e7e5aaf	0.2483928
97	0x3e9a6c0f	0.30160567
98	0x3ea40ad1	0.32039502
99	0x3ed05eaf	0.40697238
100	0x3e894450	0.2680993
101	0x3db5d665	0.08878783
102	0x3e8b4339	0.27199724
103	0x3e880dd8	0.26573062
104	0x3cc90241	0.024537208
105	0x3ec81173	0.39075813
106	0x3e86974c	0.26287305
107	0x3f0249f5	0.508941
108	0x3ea72716	0.32647008
109	0x3e67328c	0.22577876
110	0x3e89df5b	0.2692822
111	0x3eaf4cf2	0.34238392
112	0x3ebbe21d	0.36695948
113	0x3d85964d	0.06522808
114	0x3e427991	0.18991686
115	0x3e86e13e	0.2634372
116	0x3e5e5b51	0.21714522
117	0x3e13c9e4	0.14432484
118	0x3e98694d	0.29767838
119	0x3eb53eb6	0.35399407
120	0x3e92305b	0.28552517
121	0x3e1a116a	0.15045705
122	0x3dcfa35a	0.10138579
123	0x3eae9b12	0.34102684
124	0x3ed7efeb	0.4217523
125	0x3e441f0b	0.19152467
126	0x3ee561d8	0.4480121
127	0x3e2e2ef0	0.17010093

encoder_layers.2.running_var f4 [128]
0	0x3dec7c41	0.11547137
1	0x3d6e3c76	0.05816313
2	0x3e2c897c	0.16849321
3	0x3da96dc1	0.08272887
4	0x3e22ae7a	0.1588687
5	0x3d0a92eb	0.03383152
6	0x3c0c9991	0.008581535
7	0x3b2bcfd9	0.0026216416
8	0x3b8736a5	0.004126387
9	0x3e735253	0.23761873
10	0x3de1fd8b	0.110346876
11	0x3bf02a0f	0.0073292325
12	0x3d969c01	0.07353974
13	0x3e3c4680	0.18386269
14	0x3e03fc26	0.12889156
15	0x3db89d39	0.09014363
16	0x3cd538fe	0.026028153
17	0x3dc66643	0.096874736
18	0x3de06d5f	0.10958361
19	0x3e0de666	0.13857421
20	0x3e60cf7b	0.21954148
21	0x3e0054dc	0.12532371
22	0x3db61b5c	0.08891937
23	0x3dadaa79	0.08479781
24	0x3d9a28a4	0.07527283
25	0x3dcf1929	0.10112221
26	0x3e5415d9	0.20711459
27	0x3e86df19	0.26342085
28	0x3d668a88	0.056284457
29	0x3d20f8ae	0.03929966
30	0x3c95439a	0.018220711
31	0x3e548c39	0.20756616
32	0x3db2f3d6	0.08737914
33	0x3e660790	0.22463822
34	0x3da7375d	0.081648566
35	0x3db715cb	0.089397036
36	0x3dadce9d	0.08486674
37	0x3e0db20c	0.1383745
38	0x3cb7cd25	0.022436688
39	0x3e136e6f	0.14397596
40	0x3de90d63	0.113795064
41	0x3da08926	0.07838659
42	0x3d7dd4e0	0.06197059
43	0x3d8cbc51	0.06871856
44	0x3e00fda7	0.1259676
45	0x3e855a02	0.26045233
46	0x3e4ca19e	0.19983527
47	0x3c978d35	0.01849995
48	0x3d95137b	0.07279106
49	0x3d2ac690	0.04169327
50	0x3d1e99ca	0.038720883
51	0x3d9aeb8d	0.07564459
52	0x3e3cfbec	0.18455476
53	0x3e01dfc0	0.1268301
54	0x3d087430	0.03331393
55	0x3e0936de	0.13399836
56	0x3de09894	0.10966602
57	0x3d90feec	0.070798725
58	0x3e829e83	0.2551156
59	0x3dbede23	0.09319713
60	0x3e3847da	0.17996159
61	0x3cd074b1	0.025446268
62	0x3dd11fec	0.10211167
63	0x3def3087	0.11679178
64	0x3e650441	0.22364904
65	0x3e05ad8f	0.13054489
66	0x3d9c4cdb	0.076318465
67	0x3d8a8090	0.067628026
68	0x3d42dc58	0.047573417
69	0x3d476967	0.048684504
70	0x3e3072e3	0.17231326
71	0x3d742bc7	0.05961206
72	0x3b889713	0.0041684
73	0x3d183eee	0.03716939
74	0x3d70f097	0.058823194
75	0x3cb9368d	0.02260902
76	0x3d8df08a	0.06930645
77	0x3d1235de	0.035695903
78	0x3e81e4c6	0.25369853
79	0x3e9bc3e9	0.30422905
80	0x3e1e4cc2	0.15458968
81	0x3d981484	0.07425788
82	0x3d955c08	0.07292944
83	0x3e34b37e	0.17646596
84	0x3e7706d7	0.24123703
85	0x3db9febd	0.090817906
86	0x3daf2162	0.08551289
87	0x3a4d1952	0.00078239024
88	0x3ef84aed	0.48494664
89	0x3e638aa4	0.22220856
90	0x3d3f10b8	0.046646804
91	0x3dd044df	0.10169386
92	0x3e3df584	0.18550688
93	0x3c6046ff	0.013688802
94	0x3b3fc3f2	0.002926108
95	0x3cea8328	0.028626993
96	0x3df48a4f	0.11940443
97	0x3e69c6da	0.22829762
98	0x3e1a1d18	0.15050161
99	0x3eb73eb0	0.35790014
100	0x3db4b0a9	0.08822758
101	0x3d3f8fea	0.046768107
102	0x3d0883b6	0.033328734
103	0x3db3462f	0.08753621
104	0x3bddabb5	0.006764854
105	0x3e0f1085	0.13971145
106	0x3e2c25b1	0.16811253
107	0x3e64e11a	0.22351494
108	0x3de4e403	0.11176302
109	0x3db03b02	0.08605005
110	0x3de8fb08	0.113760054
111	0x3e6e52e3	0.23273806
112	0x3da94c6b	0.08266529
113	0x3c33d497	0.010975978
114	0x3d67fe28	0.056638867
115	0x3e55c316	0.208752
116	0x3dbc99ae	0.092089996
117	0x3d20c42e	0.03924959
118	0x3dde64d7	0.108590774
119	0x3e2182d9	0.1577257
120	0x3da29d3d	0.07940147
121	0x3d838591	0.0642196
122	0x3d56f7b8	0.052482337
123	0x3e8ec985	0.27888122
124	0x3ecb5937	0.39716503
125	0x3daac884	0.083390266
126	0x3cc2ea7a	0.023793448
127	0x3d36e875	0.044655282

encoder_layers.4.weight f4 [64, 128]
0	0xbdc8dc86	-0.098076865
1	0xbde78ddb	-0.11306354
2	0xbd1562f0	-0.036471307
3	0xbd7808a6	-0.060555123
4	0xbd9f3c74	-0.077752024
5	0x3acb066c	0.0015489585
6	0x3d5add69	0.05343381
7	0x3b9dc684	0.0048149247
8	0xbd1ad280	-0.037798405
9	0xbda96859	-0.08271856
10	0xbe0771a7	-0.13226949
11	0xbd12b420	-0.03581631
12	0xbd91ab86	-0.071127936
13	0x3d8a1542	0.06742336
14	0xbd4827b9	-0.048866007
15	0xbd9a239e	-0.07526325
16	0xbd0f82f2	-0.03503699
17	0xbd312953	-0.0432523
18	0xbcc5480a	-0.024082202
19	0x3d77910c	0.06044106
20	0x3caa2de2	0.020773832
21	0xbc25180b	-0.010076533
22	0x3c32432e	0.010880275
23	0x3d21e546	0.039525293
24	0x3d37fe9b	0.044920545
25	0xbd2cc6d0	-0.04218179
26	0xbc472228	-0.01215414
27	0xbd230353	-0.039798092
28	0x3e23f5ba	0.16011706
29	0xbd28e10e	-0.041230254
30	0xbcda39a5	-0.026638815
31	0xbc8acf5a	-0.016944576
32	0x3cb6e475	0.022325734
33	0x3cf4d828	0.029888228
34	0xbcb61a25	-0.022229264
35	0xbd0e19db	-0.034692626
36	0xbd4c483c	-0.049873576
37	0xbbf82b14	-0.0075734947
38	0x3cbf1bfd	0.023328776
39	0x3c713367	0.014721728
40	0x3bbf0398	0.005829286
41	0xbd394795	-0.04523428
42	0x3d833b43	0.06407788
43	0xbd287a1a	-0.04113207
44	0x3cd44672	0.025912497
45	0xbdc9eb48	-0.098593295
46	0xbd212bf2	-0.03934855
47	0xbca838e4	-0.02053494
48	0x3d9f6793	0.07783427
49	0xbd24ed14	-0.040265158
50	0x3d865a4a	0.0656019
51	0xbce9da58	-0.028546497
52	0xbb9b5a64	-0.004741
53	0xbc28993e	-0.010290442
54	0x3aa21eaf	0.0012368764
55	0x3a339d08	0.00068517076
56	0x3cd5815c	0.02606266
57	0xbda0aa8c	-0.07845029
58	0xbd0f132b	-0.03493039
59	0x3e80a249	0.25123814
60	0xbca2f3fa	-0.019891728
61	0x3d993ec5	0.074826755
62	0xbc5a812d	-0.013336462
63	0xbc817744	-0.01580394
64	0x3d3b4adb	0.045725685
65	0x3e57a6c9	0.21059717
66	0xbd87d59e	-0.06632541
67	0x3d49a213	0.04922683
68	0xbcdd17bc	-0.026988856
69	0x3d0fd7f3	0.035118055
70	0xbd9b27cc	-0.0757595
71	0xbcca6f75	-0.02471135
72	0xbd84688a	-0.06465252
73	0xbcad0e27	-0.021124912
74	0xbd0adb19	-0.033900354
75	0x3d728378	0.05920741
76	0xbc026573	-0.007958758
77	0xbde66342	-0.11249401
78	0xbd883855	-0.066513695
79	0xbdbb97f3	-0.091598414
80	0x3d2dab68	0.042399794
81	0xbd0cd949	-0.034386907
82	0x3d532032	0.051544376
83	0xbbca401f	-0.0061721946
84	0x3d5f4c8a	0.054516353
85	0x3da93254	0.082615525
86	0xbb250142	-0.0025177752
87	0xbb1d7d9c	-0.0024031168
88	0x3c4b350f	0.012402787
89	0xbe093d0b	-0.13402192
90	0x3c512d26	0.012767112
91	0xba98a7d3	-0.0011646695
92	0x3cc912cd	0.024545098
93	0x3bd05433	0.0063576936
94	0xbd364ba0	-0.044505715
95	0x3d0cada5	0.034345288
96	0x3cd88e03	0.026434904
97	0xbdb8e654	-0.090283066
98	0xbca240bd	-0.01980626
99	0xbca5de34	-0.020247556
100	0xbcd335b5	-0.025782445
101	0xbc943663	-0.01809234
102	0x3cc32420	0.023820937
103	0xbc26fe38	-0.010192446
104	0x3c63c9f6	0.013903132
105	0xbd845d2c	-0.064630836
106	0xbd16655e	-0.036717765
107	0x3c450213	0.01202442
108	0xbc8e87e7	-0.017398788
109	0xbd3aca20	-0.045602918
110	0xbd3a95e0	-0.04555309
111	0xbd324765	-0.04352512
112	0xbd156565	-0.03647365
113	0xbd979572	-0.07401551
114	0x3d9f7028	0.07785064
115	0xbddb80a6	-0.10717897
116	0xbb3a717c	-0.002844899
117	0xbd883330	-0.06650388
118	0xbbeaab55	-0.0071615377
119	0xbd971d1d	-0.073786
120	0x3b985b77	0.0046495753
121	0xbc01760a	-0.007901678
122	0xbd1dd6ab	-0.0385348
123	0xbd7862dd	-0.06064116
124	0xbdc6142d	-0.09671817
125	0xbd0cada2	-0.034345277
126	0x3bba84ef	0.0056921165
127	0xbc705b96	-0.014670273
128	0x3ccf714f	0.025322584
129	0x3b4076bf	0.0029367653
130	0x3d311162	0.04322947
131	0xbcd25631	-0.025675865
132	0xbbc1bf6d	-0.0059127123
133	0x3b9d68e0	0.004803762
134	0xbc7737c3	-0.015088978
135	0x3d1b82cb	0.03796653
136	0x3d6b889f	0.05750334
137	0xbcd29a29	-0.025708275
138	0x3c5fe094	0.013664383
139	0x3da911ad	0.082553245
140	0x3d11fc7d	0.035641182
141	0x3c9c13fd	0.0190525
142	0xbd82840e	-0.06372844
143	0xbc8fbf06	-0.017547142
144	0x3b8ea252	0.004352846
145	0xbcc65f29	-0.024215298
146	0xbd34fc64	-0.04418601
147	0xbc1e734d	-0.009671045
148	0xbca771b9	-0.02043997
149	0x3c447f60	0.011993259
150	0x3d6d4b0f	0.05793291
151	0x3c8c8ef9	0.017158018
152	0xbda24a43	-0.079243205
153	0xbcaade0d	-0.020857835
154	0x3d321024	0.043472424
155	0x3d637226	0.055528782
156	0xbd95c647	-0.07313209
157	0x3ac5f464	0.0015102741
158	0x3b911402	0.004427434
159	0xbd7041d8	-0.058656543
160	0xbd80e0db	-0.06292888
161	0x3d112bcb	0.035442155
162	0x3d6e7c7b	0.058224183
163	0xbd07ac33	-0.033123206
164	0xbc1e426e	-0.009659393
165	0xbe14b9a5	-0.14523943
166	0x3d2b673e	0.041846506
167	0x3e042f24	0.12908608
168	0x3e0ae6d5	0.13564618
169	0xb8d0744c	-9.939875e-05
170	0xbd4365dd	-0.047704566
171	0x3d9d72e2	0.07687928
172	0xbc883e7e	-0.016631361
173	0x3c1d621a	0.009605909
174	0xbd889cb0	-0.06670511
175	0xbac16cfb	-0.001475721
176	0xbd0960fb	-0.033539753
177	0xbd8dbed9	-0.06921167
178	0xb92e4ecf	-0.00016623292
179	0x3e3f69bb	0.18692677
180	0x3dc1db3b	0.09465643
181	0x3d1fee12	0.0390454
182	0x3c8763cc	0.016527079
183	0x3de135c1	0.10996581
184	0x3e22a611	0.15883662
185	0xbddb4935	-0.107073225
186	0xbd262a1a	-0.040567495
187	0x3c5f9c7b	0.013648148
188	0xbcabf021	-0.020988526
189	0xbce04fec	-0.02738186
190	0xbcd05a33	-0.025433635
191	0x3d683f4f	0.056701
192	0x3cb3470e	0.021884467
193	0xbd159f9b	-0.036529165
194	0xbd967dfd	-0.07348249
195	0xbd091da1	-0.033475522
196	0xbcd65bbf	-0.026166795
197	0x3bc0b64e	0.0058811074
198	0xbd377a61	-0.044794444
199	0x3d8c938c	0.0686408
200	0xbd234bf7	-0.039867368
201	0xbcb88c63	-0.02252788
202	0xbd54a915	-0.05191906
203	0xbccd8502	-0.025087837
204	0xbd672ef2	-0.056441255
205	0xbc389a93	-0.011267322
206	0xbd226e0f	-0.03965574
207	0xbd4284fb	-0.0474901
208	0xbdcac955	-0.09901682
209	0xbd0435c9	-0.032277856
210	0x3e363ab3	0.1779583
211	0xbca6c3a9	-0.02035697
212	0x3d6a81ce	0.057252698
213	0x3cf6d543	0.030130988
214	0x3d1a77ba	0.037711836
215	0x3cc7094b	0.024296423
216	0x3d3c91a9	0.04603735
217	0x3db7c9ed	0.08974061
218	0xbd1069e4	-0.035257235
219	0x3d7aa2ae	0.0611903
220	0x3a8c4d86	0.0010704256
221	0xbc91dff4	-0.017806984
222	0xbb9b2e55	-0.004735748
223	0xbd2a09d4	-0.04151328
224	0x3d11172f	0.0354225
225	0x3c8b6c84	0.017019518
226	0xbc064708	-0.008195646
227	0xbd7f20f8	-0.0622873
228	0x3e50a779	0.20376386
229	0x3c1e0388	0.009644397
230	0xbce93775	-0.028468827
231	0xbab40d4f	-0.0013736876
232	0x3c811fe3	0.015762275
233	0xbc786b8b	-0.015162359
234	0x3c0594c5	0.008153145
235	0x3c142093	0.009040969
236	0x3c9ca3ee	0.019121137
237	0xbd1fa509	-0.03897575
238	0xbd6d4338	-0.057925433
239	0xbbad4283	-0.00528747
240	0xbe078de8	-0.13237727
241	0xbc42c502	-0.011887791
242	0xbd2cba99	-0.04217014
243	0x3d9bb448	0.07602745
244	0xb7fc834e	-3.0101884e-05
245	0x3cf0f885	0.029415378
246	0xbcb0b770	-0.021571845
247	0x3d94029e	0.07227062
248	0xbc4e1f00	-0.012580633
249	0xbddc9344	-0.10770276
250	0xbbbe6110	-0.0058099106
251	0x3d556346	0.052096628
252	0x3cbb61f1	0.02287385
253	0xbdae7fce	-0.085204706
254	0xbcd5f70a	-0.026118774
255	0xbc64c56c	-0.013963085

encoder_layers.4.bias f4 [64]
0	0x3e80a5ca	0.25126487
1	0x3edaf43b	0.42764458
2	0x3eb8689e	0.36017317
3	0x3e939776	0.28826493
4	0x3ee678f0	0.45014143
5	0x3e82f931	0.25580743
6	0x3f12f3ce	0.57403266
7	0x3ee50455	0.44729868
8	0x3f22a209	0.63528496
9	0x3d6d1666	0.05788269
10	0x3ec5c457	0.38626358
11	0x3ec78160	0.38965893
12	0x3f0142b6	0.5049242
13	0x3f356da0	0.708704
14	0x3eaf7c2a	0.34274417
15	0x3e8b983f	0.27264592
16	0x3e6c8fee	0.2310178
17	0x3eb42f3a	0.3519228
18	0x3e47fbbf	0.19529627
19	0xbb4c8f8f	-0.0031213497
20	0xbd4991ac	-0.04921119
21	0x3eb27113	0.34851894
22	0x3eb05cef	0.34445903
23	0x3ec7c061	0.3901396
24	0x3c5113d8	0.012761079
25	0x3f27ac64	0.6549742
26	0x3ed0989b	0.4074143
27	0x3ecc7b87	0.39937994
28	0x3e975133	0.29554138
29	0x3e561a7f	0.20908545
30	0x3d9b8caa	0.07595189
31	0x3ecf201c	0.40454185
32	0x3e9f2900	0.31085968
33	0xbd878e9a	-0.06618996
34	0x3efb07e7	0.49029467
35	0x3e438410	0.19093347
36	0x3f190ed7	0.5978827
37	0x3ecc4b2a	0.39901096
38	0x3ed47d6e	0.41501945
39	0xbd0a7371	-0.0338015
40	0x3f10750d	0.56428605
41	0x3e13c430	0.14430308
42	0x3f82ca13	1.0217918
43	0x3eae65d3	0.3406206
44	0x3e7d1fab	0.24719112
45	0x3ea563e4	0.32302773
46	0x3dca7cbe	0.09887074
47	0x3ed53091	0.41638616
48	0x3f05a83d	0.52209836
49	0x3f6e5207	0.93093914
50	0x3e864aac	0.26228845
51	0x3e719a52	0.23594025
52	0x3e9bc4ab	0.30423483
53	0xbd69873c	-0.057013735
54	0x3e9ead60	0.3099165
55	0xbdf90c84	-0.1216059
56	0x3ebe8469	0.37210396
57	0x3eac5b37	0.3366334
58	0x3e5e8a16	0.21732363
59	0x3e8946c2	0.26811796
60	0x3e5d2d18	0.21599233
61	0xbe139801	-0.14413454
62	0x3e934ccc	0.2876953
63	0x3e4284cd	0.18995972

encoder_layers.6.weight f4 [64]
0	0x3f9b5ee2	1.2138331
1	0x3fac43dc	1.3458209
2	0x3f96a854	1.177012
3	0x3f96597f	1.1746062
4	0x3f920c76	1.1410053
5	0x3f95a05b	1.1689562
6	0x3f9df3c0	1.2340012
7	0x3f94caff	1.162445
8	0x3fb1c24f	1.3887423
9	0x3f8feffd	1.1245114
10	0x3f98f7ef	1.1950663
11	0x3f95f77d	1.1716152
12	0x3fa05d62	1.2528498
13	0x3f8cb7fe	1.099365
14	0x3f9cd6f0	1.2253094
15	0x3f9f01a0	1.2422371
16	0x3f9b5cbc	1.2137675
17	0x3fa08b28	1.2542467
18	0x3f944bc1	1.1585618
19	0x3f9e30a4	1.2358594
20	0x3fa05059	1.252452
21	0x3f98715c	1.1909595
22	0x3f9a5a68	1.205884
23	0x3fa3381a	1.2751496
24	0x3f92e1e8	1.1475191
25	0x3f9bbd79	1.2167197
26	0x3fb62dcf	1.423273
27	0x3f91d3c0	1.1392746
28	0x3f9cf439	1.2262031
29	0x3f8ecc97	1.1156186
30	0x3f94635c	1.1592822
31	0x3fa50713	1.2892784
32	0x3fa1a809	1.2629405
33	0x3fa107be	1.2580488
34	0x3f9c6699	1.221881
35	0x3f9588f3	1.1682419
36	0x3fafc7fe	1.3732908
37	0x3f9bbcb0	1.2166958
38	0x3fa0be51	1.255808
39	0x3fa0ea91	1.2571584
40	0x3fabf129	1.3432971
41	0x3fa404da	1.281398
42	0x3fa9b159	1.3257247
43	0x3f9d57f8	1.2292471
44	0x3fa32844	1.2746663
45	0x3f99a972	1.2004836
46	0x3f9d41c3	1.2285694
47	0x3f9fb41a	1.2476838
48	0x3fa1f7d4	1.2653756
49	0x3fa7397f	1.3064421
50	0x3f9cffbb	1.2265543
51	0x3f9ca12c	1.2236686
52	0x3fa19275	1.262282
53	0x3f8bafd6	1.0913036
54	0x3f931dab	1.1493429
55	0x3f9ad6b6	1.2096775
56	0x3f92fff1	1.1484357
57	0x3f970b9f	1.1800421
58	0x3f9cf030	1.22608
59	0x3f93befc	1.1542659
60	0x3f991f93	1.1962761
61	0x3f942e6d	1.1576668
62	0x3f95678d	1.1672226
63	0x3f99ec81	1.20253

encoder_layers.6.bias f4 [64]
0	0x3da892d1	0.08231128
1	0x3d9ca0c7	0.07647853
2	0xbe90ac0a	-0.28256255
3	0x3efbbd65	0.49167934
4	0xbf1b545c	-0.606756
5	0xbeb8f14a	-0.3612159
6	0xbe666f3a	-0.22503367
7	0xbe9da4c2	-0.30789763
8	0xbf1e0d62	-0.6173917
9	0xbe12488a	-0.14285484
10	0x3d584ded	0.05280869
11	0xbea2941e	-0.3175363
12	0xbdc68974	-0.09694186
13	0xbee6b2cb	-0.45058283
14	0xbe1ae87a	-0.15127745
15	0xbcee0dc0	-0.02905929
16	0x3e0d90d2	0.13824776
17	0xbea7ca07	-0.32771322
18	0x3e7e3aac	0.24827069
19	0x3e0694b5	0.13142665
20	0x3eb570c6	0.35437602
21	0xbee04176	-0.43799943
22	0xbe945ebc	-0.28978527
23	0x3e7189a0	0.23587656
24	0xbe73e1c2	-0.23816589
25	0xbf04698e	-0.51723564
26	0xbef0f37b	-0.4706076
27	0xbed13a5a	-0.4086483
28	0xbe46a1ef	-0.1939771
29	0xbeb8d61e	-0.36100858
30	0xbde74f13	-0.11294379
31	0x3db61fb7	0.08892768
32	0x3de3cc7b	0.11122986
33	0x3efd4d76	0.4947316
34	0xbc81a7ab	-0.01582702
35	0xbe1222dd	-0.14271112
36	0xbef7fb31	-0.4843383
37	0xbe0a56c3	-0.1350966
38	0xbe7c2042	-0.2462168
39	0x3eb4842e	0.35257095
40	0xbebb21b9	-0.36549166
41	0xbe331a7c	-0.17490572
42	0xbe673512	-0.22578838
43	0xbf135c23	-0.57562464
44	0xbd8aa095	-0.0676891
45	0xbeb33877	-0.35004017
46	0xbd46cd65	-0.048535723
47	0x3e79e3d2	0.24403313
48	0xbd84e4bc	-0.0648894
49	0xbe74bb74	-0.23899633
50	0x3e24ddc5	0.16100223
51	0x3eb92417	0.36160347
52	0x3b83f059	0.0040264544
53	0xbec1416e	-0.3774523
54	0xbeaec4be	-0.34134477
55	0x3e1e68d6	0.15469679
56	0xbf01d3fa	-0.50714076
57	0xbe98c10f	-0.29834792
58	0xbd9187d2	-0.07105984
59	0xbe95f07e	-0.29285043
60	0xbe9ae8d2	-0.30255753
61	0xbed66cd6	-0.4187991
62	0xbe81469a	-0.25249177
63	0xbd57fccf	-0.05273133

encoder_layers.6.running_mean f4 [64]
0	0x3fad6900	1.3547668
1	0x3f611914	0.8792889
2	0x3f842032	1.0322325
3	0x3f6f55c1	0.93490225
4	0x3f97d450	1.1861668
5	0x3f3890dc	0.7209604
6	0x3f8d68dd	1.1047627
7	0x3fa598ea	1.2937291
8	0x3fb3bfea	1.4042943
9	0x3ecb2480	0.39676285
10	0x3f4d5ab8	0.8021655
11	0x3f7d9b3b	0.9906499
12	0x3f993640	1.1969681
13	0x4022d614	2.5443163
14	0x3fa0de02	1.2567751
15	0x3f88c408	1.0684824
16	0x3f25042d	0.64459497
17	0x3fe66c1e	1.8001745
18	0x3f4a9de5	0.7914718
19	0x3eb6eed5	0.3572909
20	0x3eca86f2	0.3955608
21	0x3fb4da80	1.4129181
22	0x3f42c302	0.7607881
23	0x3f47d299	0.7805572
24	0x3f005fb0	0.5014601
25	0x3fadb9e0	1.357235
26	0x3fb25af5	1.3934008
27	0x3f905337	1.1275395
28	0x3fad1c42	1.3524249
29	0x3f1469d6	0.5797399
30	0x3f54a2a6	0.8306068
31	0x3f91e2d5	1.1397349
32	0x3f314222	0.69241536
33	0x3ed6bbc9	0.41940144
34	0x3f91d874	1.1394181
35	0x3f85f0b0	1.0464077
36	0x3fda7b45	1.7068869
37	0x3fc49c61	1.5360223
38	0x3f4f45d7	0.8096594
39	0x3ef689c0	0.4815197
40	0x3f957540	1.1676407
41	0x3f83ee9d	1.0307194
42	0x3fb40e45	1.4066855
43	0x3fb51088	1.414567
44	0x3f683f67	0.90721744
45	0x3fb6504e	1.4243257
46	0x3f233ad8	0.63761663
47	0x3f8f9485	1.12172
48	0x3f9ca1f6	1.2236927
49	0x3fabc112	1.3418295
50	0x3f6e83a3	0.9316961
51	0x3f149cb0	0.58051586
52	0x3f8c0718	1.0939665
53	0x3f01911b	0.5061204
54	0x3f34b854	0.7059376
55	0x3e921c82	0.28537375
56	0x3fb34264	1.4004636
57	0x3f6a1e5a	0.9145256
58	0x3f82c6eb	1.0216955
59	0x3f60160d	0.87533647
60	0x3f974f4d	1.1821076
61	0x3f21efe5	0.63256675
62	0x3f826c78	1.0189352
63	0x3f546bcc	0.82976985

encoder_layers.6.running_var f4 [64]
0	0x4006527e	2.098785
1	0x3f9d7f14	1.2304406
2	0x3fc41cbe	1.5321271
3	0x3fce5bb3	1.6121734
4	0x4001623f	2.0216215
5	0x3f99456a	1.1974308
6	0x3f90dc23	1.131718
7	0x4059ffc9	3.406237
8	0x3faa5ff5	1.3310534
9	0x3f6863c2	0.9077722
10	0x3f8fad1e	1.1224706
11	0x3fcb07e7	1.5861787
12	0x3f3ae198	0.7300048
13	0x40c2a481	6.082581
14	0x40365000	2.8486328
15	0x3fd22723	1.6418194
16	0x3fc5c32b	1.5450186
17	0x4055d1bf	3.340927
18	0x3f8dd452	1.108042
19	0x3ef09aed	0.469932
20	0x3f0dcb51	0.5538836
21	0x409e494a	4.9464464
22	0x3f54ea2e	0.8316983
23	0x3f56f3b4	0.8396561
24	0x3fb74918	1.4319181
25	0x401715a5	2.360696
26	0x3ff8b419	1.9429961
27	0x3ffece35	1.9906679
28	0x4004c376	2.07443
29	0x3f68bd86	0.9091419
30	0x40536602	3.303101
31	0x3f3b5e9f	0.73191255
32	0x3fd516a8	1.6647539
33	0x3f1b335f	0.6062526
34	0x3fc13ab6	1.5096042
35	0x406149b8	3.5201244
36	0x400930d5	2.1436055
37	0x400f643e	2.2404933
38	0x3f64c8fc	0.8936918
39	0x3f442d08	0.7663121
40	0x3f526f81	0.8220139
41	0x3fd46a84	1.6595006
42	0x3ed1b337	0.40957043
43	0x40460ce1	3.094536
44	0x406241d4	3.5352678
45	0x408bddc2	4.37082
46	0x401ef84f	2.4839056
47	0x3fe304ff	1.77359
48	0x3fdd99c3	1.7312549
49	0x3f07eb17	0.53093094
50	0x3f89de6c	1.0771003
51	0x3f1b60cf	0.60694593
52	0x4022f1c3	2.546006
53	0x3fba8053	1.4570411
54	0x3f4b6d84	0.7946398
55	0x3ee14a34	0.44001925
56	0x408b2815	4.348643
57	0x401dd7a0	2.4662857
58	0x4065de25	3.5916836
59	0x3ff79440	1.9342117
60	0x40927db2	4.5778437
61	0x3fa26863	1.2688106
62	0x3fec7411	1.8472921
63	0x3f850228	1.0391283

fc_mu.weight f4 [32, 64]
0	0xbd657c87	-0.05602696
1	0x3df7a0aa	0.12091191
2	0x3de5c408	0.112190306
3	0xbe35b33d	-0.17744155
4	0xbd4939fb	-0.04912756
5	0x3e38df65	0.18053968
6	0xbe235057	-0.15948616
7	0x3ebac640	0.36479378
8	0x3d770617	0.060308542
9	0x3df3a15f	0.118960135
10	0xbe56cbf8	-0.20976245
11	0x3c7e9523	0.015538487
12	0xbbbb4a99	-0.00571568
13	0xbdc39ab0	-0.09550989
14	0x3e16fc0d	0.14744587
15	0x3def1557	0.11673992
16	0x3e91d44a	0.28482276
17	0xbe2fa902	-0.17154315
18	0x3c8d940f	0.017282514
19	0x3d5b9525	0.053609032
20	0x3e114896	0.14187846
21	0x3e91e405	0.28494278
22	0x3e38e8a7	0.180575
23	0x3e0a0ebb	0.13482182
24	0x3e5b034c	0.21387976
25	0xbe2436aa	-0.16036478
26	0x3d5aa37a	0.05337856
27	0xbc8c5756	-0.017131489
28	0x3bd8f2c0	0.006620735
29	0x3d4b5479	0.049641106
30	0x3e1f0cdd	0.1553225
31	0x3d9c602c	0.07635531
32	0x3ed093db	0.40737805
33	0xbe4c7df2	-0.1996992
34	0xbe60364a	-0.2189571
35	0xbcbf14df	-0.023325382
36	0x3d905946	0.070482776
37	0xbdc5a133	-0.09649887
38	0xbe70a1a6	-0.23499164
39	0xbe547dc0	-0.20751095
40	0xbdc68ddb	-0.096950255
41	0x3cdd21d1	0.026993664
42	0x3d2cdfa0	0.042205453
43	0xbdc7332b	-0.097265564
44	0x3e5b060e	0.21389028
45	0x3ebd963b	0.3702868
46	0x3ecab150	0.39588404
47	0xbdbbf6ab	-0.091779076
48	0xbe050941	-0.12991811
49	0xbd924537	-0.07142108
50	0xbca85c06	-0.020551693
51	0x3e4b61f5	0.19861586
52	0xbcbf0270	-0.023316592
53	0x3cf01fe4	0.029312082
54	0x3ccfa0f6	0.025345307
55	0x3dfbcb7a	0.122946694
56	0x3ed1f86a	0.41009837
57	0x3e32c842	0.17459205
58	0x3ed54c2f	0.41659686
59	0xbdbaa769	-0.09113962
60	0x3ebf5479	0.37369135
61	0x3dc2b983	0.0950804
62	0xbdfe404a	-0.12414606
63	0xbdf812af	-0.121129386
64	0xbe107550	-0.14107251
65	0x3e077110	0.13226724
66	0x3e6d8560	0.2319541
67	0xbc482e50	-0.012218073
68	0x3e190330	0.14942622
69	0xbd1309d8	-0.03589806
70	0x3dac00f8	0.08398622
71	0xbcb9799a	-0.022640992
72	0x3dc9176b	0.0981892
73	0x3d704931	0.05866355
74	0xbcff6b4a	-0.03117909
75	0xbd1ade08	-0.0378094
76	0xbe60d416	-0.21955904
77	0x3e50c1a7	0.20386373
78	0xbde16a9d	-0.11006663
79	0x3bca37a9	0.006171186
80	0xbe0c96c4	-0.13729388
81	0x3cd78292	0.026307378
82	0xbe0bb50e	-0.13643286
83	0xbb588ff0	-0.0033044778
84	0xbe302393	-0.1720107
85	0xbd9a5aea	-0.07536872
86	0xbc919258	-0.017769977
87	0xbe33448a	-0.17506614
88	0x3d9bcbc5	0.07607225
89	0x3d9b592d	0.07585368
90	0xbdb2daf6	-0.0873317
91	0x3e767261	0.2406707
92	0x3add0a8d	0.0016864106
93	0xbdb9f5c5	-0.0908008
94	0xbe11929e	-0.14216086
95	0xbdfd3f1a	-0.12365551
96	0xbd9396df	-0.07206511
97	0x3e099f18	0.13439596
98	0x3dc40d5c	0.095728606
99	0x3e40533e	0.18781754
100	0x3e2b390b	0.16720979
101	0x3e036809	0.12832655
102	0x3e4a7b86	0.19773683
103	0x3dc5d845	0.09660391
104	0xbe3bca4e	-0.18338892
105	0xbdac6296	-0.08417241
106	0x3e2e2513	0.1700633
107	0x3d2ed9e3	0.04268826
108	0xbe1be2b9	-0.15223207
109	0xbd20f81d	-0.03929912
110	0xbccb7cb2	-0.024839733
111	0xbe40502b	-0.18780582
112	0x3df87bac	0.121329635
113	0xbd753e7f	-0.059874054
114	0xbe048456	-0.12941107
115	0xbe0c3a1c	-0.13694042
116	0xbd412226	-0.047151707
117	0x3e7a5894	0.24447852
118	0x3e2de746	0.16982755
119	0xbdbef88b	-0.093247496
120	0xbd2b0e19	-0.04176149
121	0xbdb62ba4	-0.088950425
122	0x3d71a766	0.058997534
123	0x3e5c63ae	0.215224
124	0xbd7011fb	-0.058610898
125	0x3db50e1d	0.088405825
126	0x3d82e6e5	0.06391696
127	0x3de1d15a	0.11026259
128	0xbe4c2a49	-0.19938006
129	0xbe8b5c4e	-0.2721886
130	0xbd88cf15	-0.06680123
131	0xbc223e5e	-0.009902565
132	0x3d3c015e	0.04589974
133	0x3d5d0e99	0.053969
134	0xbddc663c	-0.10761687
135	0x3d5b131b	0.053485017
136	0xbe91f276	-0.28505296
137	0x3e0a1f72	0.13488558
138	0x3e0be44e	0.1366131
139	0x3e2ed23b	0.17072384
140	0x3eafef94	0.3436247
141	0x3d314960	0.043282866
142	0x3c8afd61	0.016966524
143	0xbe273b1c	-0.16331142
144	0x3e2faa06	0.17154703
145	0xbd3eade2	-0.046552546
146	0xbe1c17a4	-0.15243393
147	0xbe32e01b	-0.17468302
148	0xbe635fa6	-0.22204456
149	0x3da96e32	0.08272971
150	0x3d91ccad	0.07119117
151	0xbd5270fb	-0.051377278
152	0x3db0ffc4	0.086425334
153	0x3e325dcd	0.17418595
154	0xbdd35992	-0.103198186
155	0xbdd7a503	-0.1052952
156	0xbd402205	-0.046907444
157	0x3d8d3181	0.06894208
158	0x3d2ccc94	0.04218729
159	0x3e362c06	0.17790231
160	0x3d9457ff	0.072433464
161	0x3e09cded	0.1345746
162	0xbadf3524	-0.0017029387
163	0x3c17149a	0.00922122
164	0xbe8298ad	-0.25507107
165	0xbdfc56e2	-0.12321259
166	0x3da9ede5	0.08297328
167	0x3db757d6	0.089523
168	0x3e39b7c6	0.1813651
169	0xbc9f451f	-0.01944214
170	0xbe726d98	-0.23674619
171	0x3e5132aa	0.20429483
172	0x3d548a5f	0.051889773
173	0x3c878d06	0.016546737
174	0xbd31754a	-0.043324746
175	0x3ded6477	0.11591428
176	0x3dc6dc25	0.09709958
177	0x3d5a5d5d	0.053311694
178	0xbdd16d39	-0.10225911
179	0xbdad8972	-0.08473481
180	0x3c876301	0.0165267
181	0x3c57409b	0.013137962
182	0xbd890e06	-0.06692128
183	0x3e20dd37	0.15709387
184	0xbd4259e3	-0.047449004
185	0x3e0a24f6	0.13490662
186	0x3d8bf066	0.06832962
187	0xbe163ed7	-0.14672409
188	0x3c65f640	0.014035761
189	0xbdffc92e	-0.12489544
190	0x3e37a5e0	0.1793437
191	0xbe4f09ec	-0.20218629
192	0xbd0d213a	-0.034455515
193	0xbd0ac865	-0.033882517
194	0x3e1a2743	0.1505404
195	0xbe808213	-0.2509924
196	0x3d9049a4	0.07045296
197	0x3e869ee8	0.2629311
198	0xbd87e55e	-0.06635545
199	0x3de23051	0.11044372
200	0xbe1d4ba6	-0.15360889
201	0x3e2253f1	0.15852334
202	0xbe0d6bfc	-0.13810724
203	0x3dc5693c	0.096392125
204	0xbe1a4839	-0.15066613
205	0x3e104710	0.14089608
206	0x3d86e7e6	0.065872
207	0x3cb55f55	0.022140184
208	0x3de1f19c	0.110324115
209	0x3c383fdf	0.011245697
210	0xbe12435f	-0.14283513
211	0x3e26f13b	0.1630296
212	0x39e97d4c	0.00044534577
213	0x3e6b790d	0.22995396
214	0xbddb87b2	-0.10719241
215	0xbe363b42	-0.17796043
216	0x3d7c1db0	0.06155175
217	0xbd1d4c37	-0.038402762
218	0xbe0a0e5c	-0.1348204
219	0x3d43063f	0.04761338
220	0xbe1a8f43	-0.15093713
221	0x3e146ffb	0.14495842
222	0x3e5ce003	0.21569829
223	0xbe8d88ea	-0.2764352
224	0x3cd78e7f	0.026313065
225	0xbe7ad25e	-0.24494311
226	0xbde4bd5e	-0.111689314
227	0x3d59e1e0	0.053193927
228	0xbce663bb	-0.028123727
229	0x3d6b8c6e	0.05750697
230	0x3cc383b1	0.023866506
231	0xbe812b64	-0.25228417
232	0x3db3dbeb	0.087821804
233	0x3e160fa4	0.14654404
234	0xbe792334	-0.24329835
235	0xbd28986d	-0.04116099
236	0x3e5d9d29	0.21641983
237	0x3da6484a	0.08119257
238	0x3e4ad1a8	0.1980654
239	0xbe2577ec	-0.16159028
240	0xbe5f8a1e	-0.21830031
241	0xbdb40405	-0.08789829
242	0xbe4b821f	-0.19873856
243	0xbcb9994f	-0.022656111
244	0xbcd76363	-0.026292508
245	0x3e1a354c	0.15059394
246	0xbbde2903	-0.0067797913
247	0x3d2457f5	0.040122945
248	0x3e5823c0	0.21107388
249	0x3e9907d5	0.29888788
250	0x3e410f8a	0.18853584
251	0x3d84102c	0.06448397
252	0x3e775884	0.2415486
253	0x3dc9fd62	0.09862782
254	0xbe04b510	-0.12959695
255	0x3e497c50	0.19676328

fc_mu.bias f4 [32]
0	0x3e7985f0	0.243675
1	0xbf1955a9	-0.5989633
2	0x3e8cffb6	0.27538842
3	0x3d1d9240	0.038469553
4	0xbde0aba0	-0.10970235
5	0x3ee1a70c	0.4407276
6	0xbd476e08	-0.04868892
7	0x3e4904d4	0.19630748
8	0xbe6279f8	-0.2211684
9	0xbd64f901	-0.05590153
10	0xbe9d3338	-0.3070314
11	0x3ec2c916	0.3804404
12	0xbd924c90	-0.071435094
13	0xbdeb5f37	-0.1149277
14	0x3c654242	0.013992848
15	0x3e93ef6c	0.28893602
16	0xbdf665da	-0.120311454
17	0xbe7acfb3	-0.24493293
18	0xbd972463	-0.07379987
19	0xbe07d5e0	-0.1326518
20	0x3e75581a	0.2395939
21	0xbebbf265	-0.3670837
22	0xbe1a8879	-0.15091123
23	0x3e9752ca	0.2955535
24	0x3ecd568a	0.40105087
25	0xbdbce187	-0.092227034
26	0xbd3c894b	-0.04602937
27	0x3dab1bd9	0.08354921
28	0xbeb7da1d	-0.35908595
29	0xbe07f75d	-0.13277955
30	0x3df30213	0.1186563
31	0xbf04c738	-0.51866484
